name: "ICV-RMNet-PD-ReID-Heavy"
layer {
type: "Input"
name: "data"
top: "data"
  input_param {
    shape {
      dim: 1
      dim: 3
      dim: 384
      dim: 128
    }
  }
}

###################################################
############### Data normalization ################
###################################################

layer {
  name: "data/norm/bn"
  type: "BatchNorm"
  bottom: "data"
  top: "data"
  param {
    lr_mult: 0.0
    decay_mult: 0.0
  }
  param {
    lr_mult: 0.0
    decay_mult: 0.0
  }
  param {
    lr_mult: 0.0
    decay_mult: 0.0
  }
}
layer {
  name: "data/norm/scale"
  type: "Scale"
  bottom: "data"
  top: "data"
  param {
    lr_mult: 1.0
    decay_mult: 0.0
  }
  param {
    lr_mult: 2.0
    decay_mult: 0.0
  }
  scale_param {
    axis: 1
    filler {
      value: 1.0
    }
    bias_term: true
    bias_filler {
      value: 0.0
    }
  }
}

###################################################
################### Backbone ######################
###################################################

layer {
  name: "init_block1/dim_inc/conv"
  type: "Convolution"
  bottom: "data"
  top: "init_block1/dim_inc/conv"
  param {
    name: "init_block1/dim_inc/conv/w"
    lr_mult: 1
    decay_mult: 1
  }
  convolution_param {
    num_output: 32
    bias_term: false
    pad: 1
    kernel_size: 3
    stride: 2
    weight_filler {
      type: "msra"
    }
  }
}
layer {
  name: "init_block1/dim_inc/bn"
  type: "BatchNorm"
  bottom: "init_block1/dim_inc/conv"
  top: "init_block1/dim_inc/conv"
  param {
    lr_mult: 0
    decay_mult: 0
  }
  param {
    lr_mult: 0
    decay_mult: 0
  }
  param {
    lr_mult: 0
    decay_mult: 0
  }
}
layer {
  name: "init_block1/dim_inc/scale"
  type: "Scale"
  bottom: "init_block1/dim_inc/conv"
  top: "init_block1/dim_inc/conv"
  param {
    name: "init_block1/dim_inc/scale/a"
    lr_mult: 1
    decay_mult: 0
  }
  param {
    name: "init_block1/dim_inc/scale/b"
    lr_mult: 2
    decay_mult: 0
  }
  scale_param {
    axis: 1
    filler {
      value: 1
    }
    bias_term: true
    bias_filler {
      value: 0
    }
  }
}
layer {
  name: "init_block1/dim_inc/fn"
  type: "ReLU"
  bottom: "init_block1/dim_inc/conv"
  top: "init_block1/dim_inc/conv"
}
layer {
  name: "bottleneck1_1/dim_red/conv"
  type: "Convolution"
  bottom: "init_block1/dim_inc/conv"
  top: "bottleneck1_1/dim_red/conv"
  param {
    name: "bottleneck1_1/dim_red/conv/w"
    lr_mult: 1
    decay_mult: 1
  }
  convolution_param {
    num_output: 8
    bias_term: false
    pad: 0
    kernel_size: 1
    stride: 1
    weight_filler {
      type: "msra"
    }
  }
}
layer {
  name: "bottleneck1_1/dim_red/bn"
  type: "BatchNorm"
  bottom: "bottleneck1_1/dim_red/conv"
  top: "bottleneck1_1/dim_red/conv"
  param {
    lr_mult: 0
    decay_mult: 0
  }
  param {
    lr_mult: 0
    decay_mult: 0
  }
  param {
    lr_mult: 0
    decay_mult: 0
  }
}
layer {
  name: "bottleneck1_1/dim_red/scale"
  type: "Scale"
  bottom: "bottleneck1_1/dim_red/conv"
  top: "bottleneck1_1/dim_red/conv"
  param {
    name: "bottleneck1_1/dim_red/scale/a"
    lr_mult: 1
    decay_mult: 0
  }
  param {
    name: "bottleneck1_1/dim_red/scale/b"
    lr_mult: 2
    decay_mult: 0
  }
  scale_param {
    axis: 1
    filler {
      value: 1
    }
    bias_term: true
    bias_filler {
      value: 0
    }
  }
}
layer {
  name: "bottleneck1_1/dim_red/fn"
  type: "ELU"
  bottom: "bottleneck1_1/dim_red/conv"
  top: "bottleneck1_1/dim_red/conv"
}
layer {
  name: "bottleneck1_1/inner/dw1/conv"
  type: "Convolution"
  bottom: "bottleneck1_1/dim_red/conv"
  top: "bottleneck1_1/inner/dw1/conv"
  param {
    name: "bottleneck1_1/inner/dw1/conv/w"
    lr_mult: 1
    decay_mult: 1
  }
  convolution_param {
    num_output: 8
    bias_term: false
    pad: 1
    kernel_size: 3
    group: 8
    stride: 1
    weight_filler {
      type: "msra"
    }
  }
}
layer {
  name: "bottleneck1_1/inner/dw1/bn"
  type: "BatchNorm"
  bottom: "bottleneck1_1/inner/dw1/conv"
  top: "bottleneck1_1/inner/dw1/conv"
  param {
    lr_mult: 0
    decay_mult: 0
  }
  param {
    lr_mult: 0
    decay_mult: 0
  }
  param {
    lr_mult: 0
    decay_mult: 0
  }
}
layer {
  name: "bottleneck1_1/inner/dw1/scale"
  type: "Scale"
  bottom: "bottleneck1_1/inner/dw1/conv"
  top: "bottleneck1_1/inner/dw1/conv"
  param {
    name: "bottleneck1_1/inner/dw1/scale/a"
    lr_mult: 1
    decay_mult: 0
  }
  param {
    name: "bottleneck1_1/inner/dw1/scale/b"
    lr_mult: 2
    decay_mult: 0
  }
  scale_param {
    axis: 1
    filler {
      value: 1
    }
    bias_term: true
    bias_filler {
      value: 0
    }
  }
}
layer {
  name: "bottleneck1_1/inner/dw1/fn"
  type: "ELU"
  bottom: "bottleneck1_1/inner/dw1/conv"
  top: "bottleneck1_1/inner/dw1/conv"
}
layer {
  name: "bottleneck1_1/dim_inc/conv"
  type: "Convolution"
  bottom: "bottleneck1_1/inner/dw1/conv"
  top: "bottleneck1_1/dim_inc/conv"
  param {
    name: "bottleneck1_1/dim_inc/conv/w"
    lr_mult: 1
    decay_mult: 1
  }
  convolution_param {
    num_output: 32
    bias_term: false
    pad: 0
    kernel_size: 1
    stride: 1
    weight_filler {
      type: "msra"
    }
  }
}
layer {
  name: "bottleneck1_1/dim_inc/bn"
  type: "BatchNorm"
  bottom: "bottleneck1_1/dim_inc/conv"
  top: "bottleneck1_1/dim_inc/conv"
  param {
    lr_mult: 0
    decay_mult: 0
  }
  param {
    lr_mult: 0
    decay_mult: 0
  }
  param {
    lr_mult: 0
    decay_mult: 0
  }
}
layer {
  name: "bottleneck1_1/dim_inc/scale"
  type: "Scale"
  bottom: "bottleneck1_1/dim_inc/conv"
  top: "bottleneck1_1/dim_inc/conv"
  param {
    name: "bottleneck1_1/dim_inc/scale/a"
    lr_mult: 1
    decay_mult: 0
  }
  param {
    name: "bottleneck1_1/dim_inc/scale/b"
    lr_mult: 2
    decay_mult: 0
  }
  scale_param {
    axis: 1
    filler {
      value: 1
    }
    bias_term: true
    bias_filler {
      value: 0
    }
  }
}
layer {
  name: "bottleneck1_1/add"
  type: "Eltwise"
  bottom: "init_block1/dim_inc/conv"
  bottom: "bottleneck1_1/dim_inc/conv"
  top: "bottleneck1_1/add"
  eltwise_param {
    operation: SUM
  }
}
layer {
  name: "bottleneck1_1/fn"
  type: "ELU"
  bottom: "bottleneck1_1/add"
  top: "bottleneck1_1/add"
}
layer {
  name: "bottleneck1_2/dim_red/conv"
  type: "Convolution"
  bottom: "bottleneck1_1/add"
  top: "bottleneck1_2/dim_red/conv"
  param {
    name: "bottleneck1_2/dim_red/conv/w"
    lr_mult: 1
    decay_mult: 1
  }
  convolution_param {
    num_output: 8
    bias_term: false
    pad: 0
    kernel_size: 1
    stride: 1
    weight_filler {
      type: "msra"
    }
  }
}
layer {
  name: "bottleneck1_2/dim_red/bn"
  type: "BatchNorm"
  bottom: "bottleneck1_2/dim_red/conv"
  top: "bottleneck1_2/dim_red/conv"
  param {
    lr_mult: 0
    decay_mult: 0
  }
  param {
    lr_mult: 0
    decay_mult: 0
  }
  param {
    lr_mult: 0
    decay_mult: 0
  }
}
layer {
  name: "bottleneck1_2/dim_red/scale"
  type: "Scale"
  bottom: "bottleneck1_2/dim_red/conv"
  top: "bottleneck1_2/dim_red/conv"
  param {
    name: "bottleneck1_2/dim_red/scale/a"
    lr_mult: 1
    decay_mult: 0
  }
  param {
    name: "bottleneck1_2/dim_red/scale/b"
    lr_mult: 2
    decay_mult: 0
  }
  scale_param {
    axis: 1
    filler {
      value: 1
    }
    bias_term: true
    bias_filler {
      value: 0
    }
  }
}
layer {
  name: "bottleneck1_2/dim_red/fn"
  type: "ELU"
  bottom: "bottleneck1_2/dim_red/conv"
  top: "bottleneck1_2/dim_red/conv"
}
layer {
  name: "bottleneck1_2/inner/dw1/conv"
  type: "Convolution"
  bottom: "bottleneck1_2/dim_red/conv"
  top: "bottleneck1_2/inner/dw1/conv"
  param {
    name: "bottleneck1_2/inner/dw1/conv/w"
    lr_mult: 1
    decay_mult: 1
  }
  convolution_param {
    num_output: 8
    bias_term: false
    pad: 1
    kernel_size: 3
    group: 8
    stride: 1
    weight_filler {
      type: "msra"
    }
  }
}
layer {
  name: "bottleneck1_2/inner/dw1/bn"
  type: "BatchNorm"
  bottom: "bottleneck1_2/inner/dw1/conv"
  top: "bottleneck1_2/inner/dw1/conv"
  param {
    lr_mult: 0
    decay_mult: 0
  }
  param {
    lr_mult: 0
    decay_mult: 0
  }
  param {
    lr_mult: 0
    decay_mult: 0
  }
}
layer {
  name: "bottleneck1_2/inner/dw1/scale"
  type: "Scale"
  bottom: "bottleneck1_2/inner/dw1/conv"
  top: "bottleneck1_2/inner/dw1/conv"
  param {
    name: "bottleneck1_2/inner/dw1/scale/a"
    lr_mult: 1
    decay_mult: 0
  }
  param {
    name: "bottleneck1_2/inner/dw1/scale/b"
    lr_mult: 2
    decay_mult: 0
  }
  scale_param {
    axis: 1
    filler {
      value: 1
    }
    bias_term: true
    bias_filler {
      value: 0
    }
  }
}
layer {
  name: "bottleneck1_2/inner/dw1/fn"
  type: "ELU"
  bottom: "bottleneck1_2/inner/dw1/conv"
  top: "bottleneck1_2/inner/dw1/conv"
}
layer {
  name: "bottleneck1_2/dim_inc/conv"
  type: "Convolution"
  bottom: "bottleneck1_2/inner/dw1/conv"
  top: "bottleneck1_2/dim_inc/conv"
  param {
    name: "bottleneck1_2/dim_inc/conv/w"
    lr_mult: 1
    decay_mult: 1
  }
  convolution_param {
    num_output: 32
    bias_term: false
    pad: 0
    kernel_size: 1
    stride: 1
    weight_filler {
      type: "msra"
    }
  }
}
layer {
  name: "bottleneck1_2/dim_inc/bn"
  type: "BatchNorm"
  bottom: "bottleneck1_2/dim_inc/conv"
  top: "bottleneck1_2/dim_inc/conv"
  param {
    lr_mult: 0
    decay_mult: 0
  }
  param {
    lr_mult: 0
    decay_mult: 0
  }
  param {
    lr_mult: 0
    decay_mult: 0
  }
}
layer {
  name: "bottleneck1_2/dim_inc/scale"
  type: "Scale"
  bottom: "bottleneck1_2/dim_inc/conv"
  top: "bottleneck1_2/dim_inc/conv"
  param {
    name: "bottleneck1_2/dim_inc/scale/a"
    lr_mult: 1
    decay_mult: 0
  }
  param {
    name: "bottleneck1_2/dim_inc/scale/b"
    lr_mult: 2
    decay_mult: 0
  }
  scale_param {
    axis: 1
    filler {
      value: 1
    }
    bias_term: true
    bias_filler {
      value: 0
    }
  }
}
layer {
  name: "bottleneck1_2/add"
  type: "Eltwise"
  bottom: "bottleneck1_1/add"
  bottom: "bottleneck1_2/dim_inc/conv"
  top: "bottleneck1_2/add"
  eltwise_param {
    operation: SUM
  }
}
layer {
  name: "bottleneck1_2/fn"
  type: "ELU"
  bottom: "bottleneck1_2/add"
  top: "bottleneck1_2/add"
}
layer {
  name: "bottleneck1_3/dim_red/conv"
  type: "Convolution"
  bottom: "bottleneck1_2/add"
  top: "bottleneck1_3/dim_red/conv"
  param {
    name: "bottleneck1_3/dim_red/conv/w"
    lr_mult: 1
    decay_mult: 1
  }
  convolution_param {
    num_output: 8
    bias_term: false
    pad: 0
    kernel_size: 1
    stride: 1
    weight_filler {
      type: "msra"
    }
  }
}
layer {
  name: "bottleneck1_3/dim_red/bn"
  type: "BatchNorm"
  bottom: "bottleneck1_3/dim_red/conv"
  top: "bottleneck1_3/dim_red/conv"
  param {
    lr_mult: 0
    decay_mult: 0
  }
  param {
    lr_mult: 0
    decay_mult: 0
  }
  param {
    lr_mult: 0
    decay_mult: 0
  }
}
layer {
  name: "bottleneck1_3/dim_red/scale"
  type: "Scale"
  bottom: "bottleneck1_3/dim_red/conv"
  top: "bottleneck1_3/dim_red/conv"
  param {
    name: "bottleneck1_3/dim_red/scale/a"
    lr_mult: 1
    decay_mult: 0
  }
  param {
    name: "bottleneck1_3/dim_red/scale/b"
    lr_mult: 2
    decay_mult: 0
  }
  scale_param {
    axis: 1
    filler {
      value: 1
    }
    bias_term: true
    bias_filler {
      value: 0
    }
  }
}
layer {
  name: "bottleneck1_3/dim_red/fn"
  type: "ELU"
  bottom: "bottleneck1_3/dim_red/conv"
  top: "bottleneck1_3/dim_red/conv"
}
layer {
  name: "bottleneck1_3/inner/dw1/conv"
  type: "Convolution"
  bottom: "bottleneck1_3/dim_red/conv"
  top: "bottleneck1_3/inner/dw1/conv"
  param {
    name: "bottleneck1_3/inner/dw1/conv/w"
    lr_mult: 1
    decay_mult: 1
  }
  convolution_param {
    num_output: 8
    bias_term: false
    pad: 1
    kernel_size: 3
    group: 8
    stride: 1
    weight_filler {
      type: "msra"
    }
  }
}
layer {
  name: "bottleneck1_3/inner/dw1/bn"
  type: "BatchNorm"
  bottom: "bottleneck1_3/inner/dw1/conv"
  top: "bottleneck1_3/inner/dw1/conv"
  param {
    lr_mult: 0
    decay_mult: 0
  }
  param {
    lr_mult: 0
    decay_mult: 0
  }
  param {
    lr_mult: 0
    decay_mult: 0
  }
}
layer {
  name: "bottleneck1_3/inner/dw1/scale"
  type: "Scale"
  bottom: "bottleneck1_3/inner/dw1/conv"
  top: "bottleneck1_3/inner/dw1/conv"
  param {
    name: "bottleneck1_3/inner/dw1/scale/a"
    lr_mult: 1
    decay_mult: 0
  }
  param {
    name: "bottleneck1_3/inner/dw1/scale/b"
    lr_mult: 2
    decay_mult: 0
  }
  scale_param {
    axis: 1
    filler {
      value: 1
    }
    bias_term: true
    bias_filler {
      value: 0
    }
  }
}
layer {
  name: "bottleneck1_3/inner/dw1/fn"
  type: "ELU"
  bottom: "bottleneck1_3/inner/dw1/conv"
  top: "bottleneck1_3/inner/dw1/conv"
}
layer {
  name: "bottleneck1_3/dim_inc/conv"
  type: "Convolution"
  bottom: "bottleneck1_3/inner/dw1/conv"
  top: "bottleneck1_3/dim_inc/conv"
  param {
    name: "bottleneck1_3/dim_inc/conv/w"
    lr_mult: 1
    decay_mult: 1
  }
  convolution_param {
    num_output: 32
    bias_term: false
    pad: 0
    kernel_size: 1
    stride: 1
    weight_filler {
      type: "msra"
    }
  }
}
layer {
  name: "bottleneck1_3/dim_inc/bn"
  type: "BatchNorm"
  bottom: "bottleneck1_3/dim_inc/conv"
  top: "bottleneck1_3/dim_inc/conv"
  param {
    lr_mult: 0
    decay_mult: 0
  }
  param {
    lr_mult: 0
    decay_mult: 0
  }
  param {
    lr_mult: 0
    decay_mult: 0
  }
}
layer {
  name: "bottleneck1_3/dim_inc/scale"
  type: "Scale"
  bottom: "bottleneck1_3/dim_inc/conv"
  top: "bottleneck1_3/dim_inc/conv"
  param {
    name: "bottleneck1_3/dim_inc/scale/a"
    lr_mult: 1
    decay_mult: 0
  }
  param {
    name: "bottleneck1_3/dim_inc/scale/b"
    lr_mult: 2
    decay_mult: 0
  }
  scale_param {
    axis: 1
    filler {
      value: 1
    }
    bias_term: true
    bias_filler {
      value: 0
    }
  }
}
layer {
  name: "bottleneck1_3/add"
  type: "Eltwise"
  bottom: "bottleneck1_2/add"
  bottom: "bottleneck1_3/dim_inc/conv"
  top: "bottleneck1_3/add"
  eltwise_param {
    operation: SUM
  }
}
layer {
  name: "bottleneck1_3/fn"
  type: "ELU"
  bottom: "bottleneck1_3/add"
  top: "bottleneck1_3/add"
}
layer {
  name: "bottleneck1_4/dim_red/conv"
  type: "Convolution"
  bottom: "bottleneck1_3/add"
  top: "bottleneck1_4/dim_red/conv"
  param {
    name: "bottleneck1_4/dim_red/conv/w"
    lr_mult: 1
    decay_mult: 1
  }
  convolution_param {
    num_output: 8
    bias_term: false
    pad: 0
    kernel_size: 1
    stride: 1
    weight_filler {
      type: "msra"
    }
  }
}
layer {
  name: "bottleneck1_4/dim_red/bn"
  type: "BatchNorm"
  bottom: "bottleneck1_4/dim_red/conv"
  top: "bottleneck1_4/dim_red/conv"
  param {
    lr_mult: 0
    decay_mult: 0
  }
  param {
    lr_mult: 0
    decay_mult: 0
  }
  param {
    lr_mult: 0
    decay_mult: 0
  }
}
layer {
  name: "bottleneck1_4/dim_red/scale"
  type: "Scale"
  bottom: "bottleneck1_4/dim_red/conv"
  top: "bottleneck1_4/dim_red/conv"
  param {
    name: "bottleneck1_4/dim_red/scale/a"
    lr_mult: 1
    decay_mult: 0
  }
  param {
    name: "bottleneck1_4/dim_red/scale/b"
    lr_mult: 2
    decay_mult: 0
  }
  scale_param {
    axis: 1
    filler {
      value: 1
    }
    bias_term: true
    bias_filler {
      value: 0
    }
  }
}
layer {
  name: "bottleneck1_4/dim_red/fn"
  type: "ELU"
  bottom: "bottleneck1_4/dim_red/conv"
  top: "bottleneck1_4/dim_red/conv"
}
layer {
  name: "bottleneck1_4/inner/dw1/conv"
  type: "Convolution"
  bottom: "bottleneck1_4/dim_red/conv"
  top: "bottleneck1_4/inner/dw1/conv"
  param {
    name: "bottleneck1_4/inner/dw1/conv/w"
    lr_mult: 1
    decay_mult: 1
  }
  convolution_param {
    num_output: 8
    bias_term: false
    pad: 1
    kernel_size: 3
    group: 8
    stride: 1
    weight_filler {
      type: "msra"
    }
  }
}
layer {
  name: "bottleneck1_4/inner/dw1/bn"
  type: "BatchNorm"
  bottom: "bottleneck1_4/inner/dw1/conv"
  top: "bottleneck1_4/inner/dw1/conv"
  param {
    lr_mult: 0
    decay_mult: 0
  }
  param {
    lr_mult: 0
    decay_mult: 0
  }
  param {
    lr_mult: 0
    decay_mult: 0
  }
}
layer {
  name: "bottleneck1_4/inner/dw1/scale"
  type: "Scale"
  bottom: "bottleneck1_4/inner/dw1/conv"
  top: "bottleneck1_4/inner/dw1/conv"
  param {
    name: "bottleneck1_4/inner/dw1/scale/a"
    lr_mult: 1
    decay_mult: 0
  }
  param {
    name: "bottleneck1_4/inner/dw1/scale/b"
    lr_mult: 2
    decay_mult: 0
  }
  scale_param {
    axis: 1
    filler {
      value: 1
    }
    bias_term: true
    bias_filler {
      value: 0
    }
  }
}
layer {
  name: "bottleneck1_4/inner/dw1/fn"
  type: "ELU"
  bottom: "bottleneck1_4/inner/dw1/conv"
  top: "bottleneck1_4/inner/dw1/conv"
}
layer {
  name: "bottleneck1_4/dim_inc/conv"
  type: "Convolution"
  bottom: "bottleneck1_4/inner/dw1/conv"
  top: "bottleneck1_4/dim_inc/conv"
  param {
    name: "bottleneck1_4/dim_inc/conv/w"
    lr_mult: 1
    decay_mult: 1
  }
  convolution_param {
    num_output: 32
    bias_term: false
    pad: 0
    kernel_size: 1
    stride: 1
    weight_filler {
      type: "msra"
    }
  }
}
layer {
  name: "bottleneck1_4/dim_inc/bn"
  type: "BatchNorm"
  bottom: "bottleneck1_4/dim_inc/conv"
  top: "bottleneck1_4/dim_inc/conv"
  param {
    lr_mult: 0
    decay_mult: 0
  }
  param {
    lr_mult: 0
    decay_mult: 0
  }
  param {
    lr_mult: 0
    decay_mult: 0
  }
}
layer {
  name: "bottleneck1_4/dim_inc/scale"
  type: "Scale"
  bottom: "bottleneck1_4/dim_inc/conv"
  top: "bottleneck1_4/dim_inc/conv"
  param {
    name: "bottleneck1_4/dim_inc/scale/a"
    lr_mult: 1
    decay_mult: 0
  }
  param {
    name: "bottleneck1_4/dim_inc/scale/b"
    lr_mult: 2
    decay_mult: 0
  }
  scale_param {
    axis: 1
    filler {
      value: 1
    }
    bias_term: true
    bias_filler {
      value: 0
    }
  }
}
layer {
  name: "bottleneck1_4/add"
  type: "Eltwise"
  bottom: "bottleneck1_3/add"
  bottom: "bottleneck1_4/dim_inc/conv"
  top: "bottleneck1_4/add"
  eltwise_param {
    operation: SUM
  }
}
layer {
  name: "bottleneck1_4/fn"
  type: "ELU"
  bottom: "bottleneck1_4/add"
  top: "bottleneck1_4/add"
}
layer {
  name: "bottleneck2_0/dim_red/conv"
  type: "Convolution"
  bottom: "bottleneck1_4/add"
  top: "bottleneck2_0/dim_red/conv"
  param {
    name: "bottleneck2_0/dim_red/conv/w"
    lr_mult: 1
    decay_mult: 1
  }
  convolution_param {
    num_output: 16
    bias_term: false
    pad: 0
    kernel_size: 1
    stride: 1
    weight_filler {
      type: "msra"
    }
  }
}
layer {
  name: "bottleneck2_0/dim_red/bn"
  type: "BatchNorm"
  bottom: "bottleneck2_0/dim_red/conv"
  top: "bottleneck2_0/dim_red/conv"
  param {
    lr_mult: 0
    decay_mult: 0
  }
  param {
    lr_mult: 0
    decay_mult: 0
  }
  param {
    lr_mult: 0
    decay_mult: 0
  }
}
layer {
  name: "bottleneck2_0/dim_red/scale"
  type: "Scale"
  bottom: "bottleneck2_0/dim_red/conv"
  top: "bottleneck2_0/dim_red/conv"
  param {
    name: "bottleneck2_0/dim_red/scale/a"
    lr_mult: 1
    decay_mult: 0
  }
  param {
    name: "bottleneck2_0/dim_red/scale/b"
    lr_mult: 2
    decay_mult: 0
  }
  scale_param {
    axis: 1
    filler {
      value: 1
    }
    bias_term: true
    bias_filler {
      value: 0
    }
  }
}
layer {
  name: "bottleneck2_0/dim_red/fn"
  type: "ELU"
  bottom: "bottleneck2_0/dim_red/conv"
  top: "bottleneck2_0/dim_red/conv"
}
layer {
  name: "bottleneck2_0/inner/dw1/conv"
  type: "Convolution"
  bottom: "bottleneck2_0/dim_red/conv"
  top: "bottleneck2_0/inner/dw1/conv"
  param {
    name: "bottleneck2_0/inner/dw1/conv/w"
    lr_mult: 1
    decay_mult: 1
  }
  convolution_param {
    num_output: 16
    bias_term: false
    pad: 1
    kernel_size: 3
    group: 16
    stride: 2
    weight_filler {
      type: "msra"
    }
  }
}
layer {
  name: "bottleneck2_0/inner/dw1/bn"
  type: "BatchNorm"
  bottom: "bottleneck2_0/inner/dw1/conv"
  top: "bottleneck2_0/inner/dw1/conv"
  param {
    lr_mult: 0
    decay_mult: 0
  }
  param {
    lr_mult: 0
    decay_mult: 0
  }
  param {
    lr_mult: 0
    decay_mult: 0
  }
}
layer {
  name: "bottleneck2_0/inner/dw1/scale"
  type: "Scale"
  bottom: "bottleneck2_0/inner/dw1/conv"
  top: "bottleneck2_0/inner/dw1/conv"
  param {
    name: "bottleneck2_0/inner/dw1/scale/a"
    lr_mult: 1
    decay_mult: 0
  }
  param {
    name: "bottleneck2_0/inner/dw1/scale/b"
    lr_mult: 2
    decay_mult: 0
  }
  scale_param {
    axis: 1
    filler {
      value: 1
    }
    bias_term: true
    bias_filler {
      value: 0
    }
  }
}
layer {
  name: "bottleneck2_0/inner/dw1/fn"
  type: "ELU"
  bottom: "bottleneck2_0/inner/dw1/conv"
  top: "bottleneck2_0/inner/dw1/conv"
}
layer {
  name: "bottleneck2_0/dim_inc/conv"
  type: "Convolution"
  bottom: "bottleneck2_0/inner/dw1/conv"
  top: "bottleneck2_0/dim_inc/conv"
  param {
    name: "bottleneck2_0/dim_inc/conv/w"
    lr_mult: 1
    decay_mult: 1
  }
  convolution_param {
    num_output: 64
    bias_term: false
    pad: 0
    kernel_size: 1
    stride: 1
    weight_filler {
      type: "msra"
    }
  }
}
layer {
  name: "bottleneck2_0/dim_inc/bn"
  type: "BatchNorm"
  bottom: "bottleneck2_0/dim_inc/conv"
  top: "bottleneck2_0/dim_inc/conv"
  param {
    lr_mult: 0
    decay_mult: 0
  }
  param {
    lr_mult: 0
    decay_mult: 0
  }
  param {
    lr_mult: 0
    decay_mult: 0
  }
}
layer {
  name: "bottleneck2_0/dim_inc/scale"
  type: "Scale"
  bottom: "bottleneck2_0/dim_inc/conv"
  top: "bottleneck2_0/dim_inc/conv"
  param {
    name: "bottleneck2_0/dim_inc/scale/a"
    lr_mult: 1
    decay_mult: 0
  }
  param {
    name: "bottleneck2_0/dim_inc/scale/b"
    lr_mult: 2
    decay_mult: 0
  }
  scale_param {
    axis: 1
    filler {
      value: 1
    }
    bias_term: true
    bias_filler {
      value: 0
    }
  }
}
layer {
  name: "bottleneck2_0/skip/pooling"
  type: "Pooling"
  bottom: "bottleneck1_4/add"
  top: "bottleneck2_0/skip/pooling"
  pooling_param {
    pool: MAX
    kernel_size: 2
    stride: 2
    pad: 0
  }
}
layer {
  name: "bottleneck2_0/skip/conv"
  type: "Convolution"
  bottom: "bottleneck2_0/skip/pooling"
  top: "bottleneck2_0/skip/conv"
  param {
    name: "bottleneck2_0/skip/conv/w"
    lr_mult: 1
    decay_mult: 1
  }
  convolution_param {
    num_output: 64
    bias_term: false
    pad: 0
    kernel_size: 1
    stride: 1
    weight_filler {
      type: "msra"
    }
  }
}
layer {
  name: "bottleneck2_0/skip/bn"
  type: "BatchNorm"
  bottom: "bottleneck2_0/skip/conv"
  top: "bottleneck2_0/skip/conv"
  param {
    lr_mult: 0
    decay_mult: 0
  }
  param {
    lr_mult: 0
    decay_mult: 0
  }
  param {
    lr_mult: 0
    decay_mult: 0
  }
}
layer {
  name: "bottleneck2_0/skip/scale"
  type: "Scale"
  bottom: "bottleneck2_0/skip/conv"
  top: "bottleneck2_0/skip/conv"
  param {
    name: "bottleneck2_0/skip/scale/a"
    lr_mult: 1
    decay_mult: 0
  }
  param {
    name: "bottleneck2_0/skip/scale/b"
    lr_mult: 2
    decay_mult: 0
  }
  scale_param {
    axis: 1
    filler {
      value: 1
    }
    bias_term: true
    bias_filler {
      value: 0
    }
  }
}
layer {
  name: "bottleneck2_0/add"
  type: "Eltwise"
  bottom: "bottleneck2_0/skip/conv"
  bottom: "bottleneck2_0/dim_inc/conv"
  top: "bottleneck2_0/add"
  eltwise_param {
    operation: SUM
  }
}
layer {
  name: "bottleneck2_0/fn"
  type: "ELU"
  bottom: "bottleneck2_0/add"
  top: "bottleneck2_0/add"
}
layer {
  name: "bottleneck2_1/dim_red/conv"
  type: "Convolution"
  bottom: "bottleneck2_0/add"
  top: "bottleneck2_1/dim_red/conv"
  param {
    name: "bottleneck2_1/dim_red/conv/w"
    lr_mult: 1
    decay_mult: 1
  }
  convolution_param {
    num_output: 16
    bias_term: false
    pad: 0
    kernel_size: 1
    stride: 1
    weight_filler {
      type: "msra"
    }
  }
}
layer {
  name: "bottleneck2_1/dim_red/bn"
  type: "BatchNorm"
  bottom: "bottleneck2_1/dim_red/conv"
  top: "bottleneck2_1/dim_red/conv"
  param {
    lr_mult: 0
    decay_mult: 0
  }
  param {
    lr_mult: 0
    decay_mult: 0
  }
  param {
    lr_mult: 0
    decay_mult: 0
  }
}
layer {
  name: "bottleneck2_1/dim_red/scale"
  type: "Scale"
  bottom: "bottleneck2_1/dim_red/conv"
  top: "bottleneck2_1/dim_red/conv"
  param {
    name: "bottleneck2_1/dim_red/scale/a"
    lr_mult: 1
    decay_mult: 0
  }
  param {
    name: "bottleneck2_1/dim_red/scale/b"
    lr_mult: 2
    decay_mult: 0
  }
  scale_param {
    axis: 1
    filler {
      value: 1
    }
    bias_term: true
    bias_filler {
      value: 0
    }
  }
}
layer {
  name: "bottleneck2_1/dim_red/fn"
  type: "ELU"
  bottom: "bottleneck2_1/dim_red/conv"
  top: "bottleneck2_1/dim_red/conv"
}
layer {
  name: "bottleneck2_1/inner/dw1/conv"
  type: "Convolution"
  bottom: "bottleneck2_1/dim_red/conv"
  top: "bottleneck2_1/inner/dw1/conv"
  param {
    name: "bottleneck2_1/inner/dw1/conv/w"
    lr_mult: 1
    decay_mult: 1
  }
  convolution_param {
    num_output: 16
    bias_term: false
    pad: 1
    kernel_size: 3
    group: 16
    stride: 1
    weight_filler {
      type: "msra"
    }
  }
}
layer {
  name: "bottleneck2_1/inner/dw1/bn"
  type: "BatchNorm"
  bottom: "bottleneck2_1/inner/dw1/conv"
  top: "bottleneck2_1/inner/dw1/conv"
  param {
    lr_mult: 0
    decay_mult: 0
  }
  param {
    lr_mult: 0
    decay_mult: 0
  }
  param {
    lr_mult: 0
    decay_mult: 0
  }
}
layer {
  name: "bottleneck2_1/inner/dw1/scale"
  type: "Scale"
  bottom: "bottleneck2_1/inner/dw1/conv"
  top: "bottleneck2_1/inner/dw1/conv"
  param {
    name: "bottleneck2_1/inner/dw1/scale/a"
    lr_mult: 1
    decay_mult: 0
  }
  param {
    name: "bottleneck2_1/inner/dw1/scale/b"
    lr_mult: 2
    decay_mult: 0
  }
  scale_param {
    axis: 1
    filler {
      value: 1
    }
    bias_term: true
    bias_filler {
      value: 0
    }
  }
}
layer {
  name: "bottleneck2_1/inner/dw1/fn"
  type: "ELU"
  bottom: "bottleneck2_1/inner/dw1/conv"
  top: "bottleneck2_1/inner/dw1/conv"
}
layer {
  name: "bottleneck2_1/dim_inc/conv"
  type: "Convolution"
  bottom: "bottleneck2_1/inner/dw1/conv"
  top: "bottleneck2_1/dim_inc/conv"
  param {
    name: "bottleneck2_1/dim_inc/conv/w"
    lr_mult: 1
    decay_mult: 1
  }
  convolution_param {
    num_output: 64
    bias_term: false
    pad: 0
    kernel_size: 1
    stride: 1
    weight_filler {
      type: "msra"
    }
  }
}
layer {
  name: "bottleneck2_1/dim_inc/bn"
  type: "BatchNorm"
  bottom: "bottleneck2_1/dim_inc/conv"
  top: "bottleneck2_1/dim_inc/conv"
  param {
    lr_mult: 0
    decay_mult: 0
  }
  param {
    lr_mult: 0
    decay_mult: 0
  }
  param {
    lr_mult: 0
    decay_mult: 0
  }
}
layer {
  name: "bottleneck2_1/dim_inc/scale"
  type: "Scale"
  bottom: "bottleneck2_1/dim_inc/conv"
  top: "bottleneck2_1/dim_inc/conv"
  param {
    name: "bottleneck2_1/dim_inc/scale/a"
    lr_mult: 1
    decay_mult: 0
  }
  param {
    name: "bottleneck2_1/dim_inc/scale/b"
    lr_mult: 2
    decay_mult: 0
  }
  scale_param {
    axis: 1
    filler {
      value: 1
    }
    bias_term: true
    bias_filler {
      value: 0
    }
  }
}
layer {
  name: "bottleneck2_1/add"
  type: "Eltwise"
  bottom: "bottleneck2_0/add"
  bottom: "bottleneck2_1/dim_inc/conv"
  top: "bottleneck2_1/add"
  eltwise_param {
    operation: SUM
  }
}
layer {
  name: "bottleneck2_1/fn"
  type: "ELU"
  bottom: "bottleneck2_1/add"
  top: "bottleneck2_1/add"
}
layer {
  name: "bottleneck2_2/dim_red/conv"
  type: "Convolution"
  bottom: "bottleneck2_1/add"
  top: "bottleneck2_2/dim_red/conv"
  param {
    name: "bottleneck2_2/dim_red/conv/w"
    lr_mult: 1
    decay_mult: 1
  }
  convolution_param {
    num_output: 16
    bias_term: false
    pad: 0
    kernel_size: 1
    stride: 1
    weight_filler {
      type: "msra"
    }
  }
}
layer {
  name: "bottleneck2_2/dim_red/bn"
  type: "BatchNorm"
  bottom: "bottleneck2_2/dim_red/conv"
  top: "bottleneck2_2/dim_red/conv"
  param {
    lr_mult: 0
    decay_mult: 0
  }
  param {
    lr_mult: 0
    decay_mult: 0
  }
  param {
    lr_mult: 0
    decay_mult: 0
  }
}
layer {
  name: "bottleneck2_2/dim_red/scale"
  type: "Scale"
  bottom: "bottleneck2_2/dim_red/conv"
  top: "bottleneck2_2/dim_red/conv"
  param {
    name: "bottleneck2_2/dim_red/scale/a"
    lr_mult: 1
    decay_mult: 0
  }
  param {
    name: "bottleneck2_2/dim_red/scale/b"
    lr_mult: 2
    decay_mult: 0
  }
  scale_param {
    axis: 1
    filler {
      value: 1
    }
    bias_term: true
    bias_filler {
      value: 0
    }
  }
}
layer {
  name: "bottleneck2_2/dim_red/fn"
  type: "ELU"
  bottom: "bottleneck2_2/dim_red/conv"
  top: "bottleneck2_2/dim_red/conv"
}
layer {
  name: "bottleneck2_2/inner/dw1/conv"
  type: "Convolution"
  bottom: "bottleneck2_2/dim_red/conv"
  top: "bottleneck2_2/inner/dw1/conv"
  param {
    name: "bottleneck2_2/inner/dw1/conv/w"
    lr_mult: 1
    decay_mult: 1
  }
  convolution_param {
    num_output: 16
    bias_term: false
    pad: 1
    kernel_size: 3
    group: 16
    stride: 1
    weight_filler {
      type: "msra"
    }
  }
}
layer {
  name: "bottleneck2_2/inner/dw1/bn"
  type: "BatchNorm"
  bottom: "bottleneck2_2/inner/dw1/conv"
  top: "bottleneck2_2/inner/dw1/conv"
  param {
    lr_mult: 0
    decay_mult: 0
  }
  param {
    lr_mult: 0
    decay_mult: 0
  }
  param {
    lr_mult: 0
    decay_mult: 0
  }
}
layer {
  name: "bottleneck2_2/inner/dw1/scale"
  type: "Scale"
  bottom: "bottleneck2_2/inner/dw1/conv"
  top: "bottleneck2_2/inner/dw1/conv"
  param {
    name: "bottleneck2_2/inner/dw1/scale/a"
    lr_mult: 1
    decay_mult: 0
  }
  param {
    name: "bottleneck2_2/inner/dw1/scale/b"
    lr_mult: 2
    decay_mult: 0
  }
  scale_param {
    axis: 1
    filler {
      value: 1
    }
    bias_term: true
    bias_filler {
      value: 0
    }
  }
}
layer {
  name: "bottleneck2_2/inner/dw1/fn"
  type: "ELU"
  bottom: "bottleneck2_2/inner/dw1/conv"
  top: "bottleneck2_2/inner/dw1/conv"
}
layer {
  name: "bottleneck2_2/dim_inc/conv"
  type: "Convolution"
  bottom: "bottleneck2_2/inner/dw1/conv"
  top: "bottleneck2_2/dim_inc/conv"
  param {
    name: "bottleneck2_2/dim_inc/conv/w"
    lr_mult: 1
    decay_mult: 1
  }
  convolution_param {
    num_output: 64
    bias_term: false
    pad: 0
    kernel_size: 1
    stride: 1
    weight_filler {
      type: "msra"
    }
  }
}
layer {
  name: "bottleneck2_2/dim_inc/bn"
  type: "BatchNorm"
  bottom: "bottleneck2_2/dim_inc/conv"
  top: "bottleneck2_2/dim_inc/conv"
  param {
    lr_mult: 0
    decay_mult: 0
  }
  param {
    lr_mult: 0
    decay_mult: 0
  }
  param {
    lr_mult: 0
    decay_mult: 0
  }
}
layer {
  name: "bottleneck2_2/dim_inc/scale"
  type: "Scale"
  bottom: "bottleneck2_2/dim_inc/conv"
  top: "bottleneck2_2/dim_inc/conv"
  param {
    name: "bottleneck2_2/dim_inc/scale/a"
    lr_mult: 1
    decay_mult: 0
  }
  param {
    name: "bottleneck2_2/dim_inc/scale/b"
    lr_mult: 2
    decay_mult: 0
  }
  scale_param {
    axis: 1
    filler {
      value: 1
    }
    bias_term: true
    bias_filler {
      value: 0
    }
  }
}
layer {
  name: "bottleneck2_2/add"
  type: "Eltwise"
  bottom: "bottleneck2_1/add"
  bottom: "bottleneck2_2/dim_inc/conv"
  top: "bottleneck2_2/add"
  eltwise_param {
    operation: SUM
  }
}
layer {
  name: "bottleneck2_2/fn"
  type: "ELU"
  bottom: "bottleneck2_2/add"
  top: "bottleneck2_2/add"
}
layer {
  name: "bottleneck2_3/dim_red/conv"
  type: "Convolution"
  bottom: "bottleneck2_2/add"
  top: "bottleneck2_3/dim_red/conv"
  param {
    name: "bottleneck2_3/dim_red/conv/w"
    lr_mult: 1
    decay_mult: 1
  }
  convolution_param {
    num_output: 16
    bias_term: false
    pad: 0
    kernel_size: 1
    stride: 1
    weight_filler {
      type: "msra"
    }
  }
}
layer {
  name: "bottleneck2_3/dim_red/bn"
  type: "BatchNorm"
  bottom: "bottleneck2_3/dim_red/conv"
  top: "bottleneck2_3/dim_red/conv"
  param {
    lr_mult: 0
    decay_mult: 0
  }
  param {
    lr_mult: 0
    decay_mult: 0
  }
  param {
    lr_mult: 0
    decay_mult: 0
  }
}
layer {
  name: "bottleneck2_3/dim_red/scale"
  type: "Scale"
  bottom: "bottleneck2_3/dim_red/conv"
  top: "bottleneck2_3/dim_red/conv"
  param {
    name: "bottleneck2_3/dim_red/scale/a"
    lr_mult: 1
    decay_mult: 0
  }
  param {
    name: "bottleneck2_3/dim_red/scale/b"
    lr_mult: 2
    decay_mult: 0
  }
  scale_param {
    axis: 1
    filler {
      value: 1
    }
    bias_term: true
    bias_filler {
      value: 0
    }
  }
}
layer {
  name: "bottleneck2_3/dim_red/fn"
  type: "ELU"
  bottom: "bottleneck2_3/dim_red/conv"
  top: "bottleneck2_3/dim_red/conv"
}
layer {
  name: "bottleneck2_3/inner/dw1/conv"
  type: "Convolution"
  bottom: "bottleneck2_3/dim_red/conv"
  top: "bottleneck2_3/inner/dw1/conv"
  param {
    name: "bottleneck2_3/inner/dw1/conv/w"
    lr_mult: 1
    decay_mult: 1
  }
  convolution_param {
    num_output: 16
    bias_term: false
    pad: 1
    kernel_size: 3
    group: 16
    stride: 1
    weight_filler {
      type: "msra"
    }
  }
}
layer {
  name: "bottleneck2_3/inner/dw1/bn"
  type: "BatchNorm"
  bottom: "bottleneck2_3/inner/dw1/conv"
  top: "bottleneck2_3/inner/dw1/conv"
  param {
    lr_mult: 0
    decay_mult: 0
  }
  param {
    lr_mult: 0
    decay_mult: 0
  }
  param {
    lr_mult: 0
    decay_mult: 0
  }
}
layer {
  name: "bottleneck2_3/inner/dw1/scale"
  type: "Scale"
  bottom: "bottleneck2_3/inner/dw1/conv"
  top: "bottleneck2_3/inner/dw1/conv"
  param {
    name: "bottleneck2_3/inner/dw1/scale/a"
    lr_mult: 1
    decay_mult: 0
  }
  param {
    name: "bottleneck2_3/inner/dw1/scale/b"
    lr_mult: 2
    decay_mult: 0
  }
  scale_param {
    axis: 1
    filler {
      value: 1
    }
    bias_term: true
    bias_filler {
      value: 0
    }
  }
}
layer {
  name: "bottleneck2_3/inner/dw1/fn"
  type: "ELU"
  bottom: "bottleneck2_3/inner/dw1/conv"
  top: "bottleneck2_3/inner/dw1/conv"
}
layer {
  name: "bottleneck2_3/dim_inc/conv"
  type: "Convolution"
  bottom: "bottleneck2_3/inner/dw1/conv"
  top: "bottleneck2_3/dim_inc/conv"
  param {
    name: "bottleneck2_3/dim_inc/conv/w"
    lr_mult: 1
    decay_mult: 1
  }
  convolution_param {
    num_output: 64
    bias_term: false
    pad: 0
    kernel_size: 1
    stride: 1
    weight_filler {
      type: "msra"
    }
  }
}
layer {
  name: "bottleneck2_3/dim_inc/bn"
  type: "BatchNorm"
  bottom: "bottleneck2_3/dim_inc/conv"
  top: "bottleneck2_3/dim_inc/conv"
  param {
    lr_mult: 0
    decay_mult: 0
  }
  param {
    lr_mult: 0
    decay_mult: 0
  }
  param {
    lr_mult: 0
    decay_mult: 0
  }
}
layer {
  name: "bottleneck2_3/dim_inc/scale"
  type: "Scale"
  bottom: "bottleneck2_3/dim_inc/conv"
  top: "bottleneck2_3/dim_inc/conv"
  param {
    name: "bottleneck2_3/dim_inc/scale/a"
    lr_mult: 1
    decay_mult: 0
  }
  param {
    name: "bottleneck2_3/dim_inc/scale/b"
    lr_mult: 2
    decay_mult: 0
  }
  scale_param {
    axis: 1
    filler {
      value: 1
    }
    bias_term: true
    bias_filler {
      value: 0
    }
  }
}
layer {
  name: "bottleneck2_3/add"
  type: "Eltwise"
  bottom: "bottleneck2_2/add"
  bottom: "bottleneck2_3/dim_inc/conv"
  top: "bottleneck2_3/add"
  eltwise_param {
    operation: SUM
  }
}
layer {
  name: "bottleneck2_3/fn"
  type: "ELU"
  bottom: "bottleneck2_3/add"
  top: "bottleneck2_3/add"
}
layer {
  name: "bottleneck2_4/dim_red/conv"
  type: "Convolution"
  bottom: "bottleneck2_3/add"
  top: "bottleneck2_4/dim_red/conv"
  param {
    name: "bottleneck2_4/dim_red/conv/w"
    lr_mult: 1
    decay_mult: 1
  }
  convolution_param {
    num_output: 16
    bias_term: false
    pad: 0
    kernel_size: 1
    stride: 1
    weight_filler {
      type: "msra"
    }
  }
}
layer {
  name: "bottleneck2_4/dim_red/bn"
  type: "BatchNorm"
  bottom: "bottleneck2_4/dim_red/conv"
  top: "bottleneck2_4/dim_red/conv"
  param {
    lr_mult: 0
    decay_mult: 0
  }
  param {
    lr_mult: 0
    decay_mult: 0
  }
  param {
    lr_mult: 0
    decay_mult: 0
  }
}
layer {
  name: "bottleneck2_4/dim_red/scale"
  type: "Scale"
  bottom: "bottleneck2_4/dim_red/conv"
  top: "bottleneck2_4/dim_red/conv"
  param {
    name: "bottleneck2_4/dim_red/scale/a"
    lr_mult: 1
    decay_mult: 0
  }
  param {
    name: "bottleneck2_4/dim_red/scale/b"
    lr_mult: 2
    decay_mult: 0
  }
  scale_param {
    axis: 1
    filler {
      value: 1
    }
    bias_term: true
    bias_filler {
      value: 0
    }
  }
}
layer {
  name: "bottleneck2_4/dim_red/fn"
  type: "ELU"
  bottom: "bottleneck2_4/dim_red/conv"
  top: "bottleneck2_4/dim_red/conv"
}
layer {
  name: "bottleneck2_4/inner/dw1/conv"
  type: "Convolution"
  bottom: "bottleneck2_4/dim_red/conv"
  top: "bottleneck2_4/inner/dw1/conv"
  param {
    name: "bottleneck2_4/inner/dw1/conv/w"
    lr_mult: 1
    decay_mult: 1
  }
  convolution_param {
    num_output: 16
    bias_term: false
    pad: 1
    kernel_size: 3
    group: 16
    stride: 1
    weight_filler {
      type: "msra"
    }
  }
}
layer {
  name: "bottleneck2_4/inner/dw1/bn"
  type: "BatchNorm"
  bottom: "bottleneck2_4/inner/dw1/conv"
  top: "bottleneck2_4/inner/dw1/conv"
  param {
    lr_mult: 0
    decay_mult: 0
  }
  param {
    lr_mult: 0
    decay_mult: 0
  }
  param {
    lr_mult: 0
    decay_mult: 0
  }
}
layer {
  name: "bottleneck2_4/inner/dw1/scale"
  type: "Scale"
  bottom: "bottleneck2_4/inner/dw1/conv"
  top: "bottleneck2_4/inner/dw1/conv"
  param {
    name: "bottleneck2_4/inner/dw1/scale/a"
    lr_mult: 1
    decay_mult: 0
  }
  param {
    name: "bottleneck2_4/inner/dw1/scale/b"
    lr_mult: 2
    decay_mult: 0
  }
  scale_param {
    axis: 1
    filler {
      value: 1
    }
    bias_term: true
    bias_filler {
      value: 0
    }
  }
}
layer {
  name: "bottleneck2_4/inner/dw1/fn"
  type: "ELU"
  bottom: "bottleneck2_4/inner/dw1/conv"
  top: "bottleneck2_4/inner/dw1/conv"
}
layer {
  name: "bottleneck2_4/dim_inc/conv"
  type: "Convolution"
  bottom: "bottleneck2_4/inner/dw1/conv"
  top: "bottleneck2_4/dim_inc/conv"
  param {
    name: "bottleneck2_4/dim_inc/conv/w"
    lr_mult: 1
    decay_mult: 1
  }
  convolution_param {
    num_output: 64
    bias_term: false
    pad: 0
    kernel_size: 1
    stride: 1
    weight_filler {
      type: "msra"
    }
  }
}
layer {
  name: "bottleneck2_4/dim_inc/bn"
  type: "BatchNorm"
  bottom: "bottleneck2_4/dim_inc/conv"
  top: "bottleneck2_4/dim_inc/conv"
  param {
    lr_mult: 0
    decay_mult: 0
  }
  param {
    lr_mult: 0
    decay_mult: 0
  }
  param {
    lr_mult: 0
    decay_mult: 0
  }
}
layer {
  name: "bottleneck2_4/dim_inc/scale"
  type: "Scale"
  bottom: "bottleneck2_4/dim_inc/conv"
  top: "bottleneck2_4/dim_inc/conv"
  param {
    name: "bottleneck2_4/dim_inc/scale/a"
    lr_mult: 1
    decay_mult: 0
  }
  param {
    name: "bottleneck2_4/dim_inc/scale/b"
    lr_mult: 2
    decay_mult: 0
  }
  scale_param {
    axis: 1
    filler {
      value: 1
    }
    bias_term: true
    bias_filler {
      value: 0
    }
  }
}
layer {
  name: "bottleneck2_4/add"
  type: "Eltwise"
  bottom: "bottleneck2_3/add"
  bottom: "bottleneck2_4/dim_inc/conv"
  top: "bottleneck2_4/add"
  eltwise_param {
    operation: SUM
  }
}
layer {
  name: "bottleneck2_4/fn"
  type: "ELU"
  bottom: "bottleneck2_4/add"
  top: "bottleneck2_4/add"
}
layer {
  name: "bottleneck2_5/dim_red/conv"
  type: "Convolution"
  bottom: "bottleneck2_4/add"
  top: "bottleneck2_5/dim_red/conv"
  param {
    name: "bottleneck2_5/dim_red/conv/w"
    lr_mult: 1
    decay_mult: 1
  }
  convolution_param {
    num_output: 16
    bias_term: false
    pad: 0
    kernel_size: 1
    stride: 1
    weight_filler {
      type: "msra"
    }
  }
}
layer {
  name: "bottleneck2_5/dim_red/bn"
  type: "BatchNorm"
  bottom: "bottleneck2_5/dim_red/conv"
  top: "bottleneck2_5/dim_red/conv"
  param {
    lr_mult: 0
    decay_mult: 0
  }
  param {
    lr_mult: 0
    decay_mult: 0
  }
  param {
    lr_mult: 0
    decay_mult: 0
  }
}
layer {
  name: "bottleneck2_5/dim_red/scale"
  type: "Scale"
  bottom: "bottleneck2_5/dim_red/conv"
  top: "bottleneck2_5/dim_red/conv"
  param {
    name: "bottleneck2_5/dim_red/scale/a"
    lr_mult: 1
    decay_mult: 0
  }
  param {
    name: "bottleneck2_5/dim_red/scale/b"
    lr_mult: 2
    decay_mult: 0
  }
  scale_param {
    axis: 1
    filler {
      value: 1
    }
    bias_term: true
    bias_filler {
      value: 0
    }
  }
}
layer {
  name: "bottleneck2_5/dim_red/fn"
  type: "ELU"
  bottom: "bottleneck2_5/dim_red/conv"
  top: "bottleneck2_5/dim_red/conv"
}
layer {
  name: "bottleneck2_5/inner/dw1/conv"
  type: "Convolution"
  bottom: "bottleneck2_5/dim_red/conv"
  top: "bottleneck2_5/inner/dw1/conv"
  param {
    name: "bottleneck2_5/inner/dw1/conv/w"
    lr_mult: 1
    decay_mult: 1
  }
  convolution_param {
    num_output: 16
    bias_term: false
    pad: 1
    kernel_size: 3
    group: 16
    stride: 1
    weight_filler {
      type: "msra"
    }
  }
}
layer {
  name: "bottleneck2_5/inner/dw1/bn"
  type: "BatchNorm"
  bottom: "bottleneck2_5/inner/dw1/conv"
  top: "bottleneck2_5/inner/dw1/conv"
  param {
    lr_mult: 0
    decay_mult: 0
  }
  param {
    lr_mult: 0
    decay_mult: 0
  }
  param {
    lr_mult: 0
    decay_mult: 0
  }
}
layer {
  name: "bottleneck2_5/inner/dw1/scale"
  type: "Scale"
  bottom: "bottleneck2_5/inner/dw1/conv"
  top: "bottleneck2_5/inner/dw1/conv"
  param {
    name: "bottleneck2_5/inner/dw1/scale/a"
    lr_mult: 1
    decay_mult: 0
  }
  param {
    name: "bottleneck2_5/inner/dw1/scale/b"
    lr_mult: 2
    decay_mult: 0
  }
  scale_param {
    axis: 1
    filler {
      value: 1
    }
    bias_term: true
    bias_filler {
      value: 0
    }
  }
}
layer {
  name: "bottleneck2_5/inner/dw1/fn"
  type: "ELU"
  bottom: "bottleneck2_5/inner/dw1/conv"
  top: "bottleneck2_5/inner/dw1/conv"
}
layer {
  name: "bottleneck2_5/dim_inc/conv"
  type: "Convolution"
  bottom: "bottleneck2_5/inner/dw1/conv"
  top: "bottleneck2_5/dim_inc/conv"
  param {
    name: "bottleneck2_5/dim_inc/conv/w"
    lr_mult: 1
    decay_mult: 1
  }
  convolution_param {
    num_output: 64
    bias_term: false
    pad: 0
    kernel_size: 1
    stride: 1
    weight_filler {
      type: "msra"
    }
  }
}
layer {
  name: "bottleneck2_5/dim_inc/bn"
  type: "BatchNorm"
  bottom: "bottleneck2_5/dim_inc/conv"
  top: "bottleneck2_5/dim_inc/conv"
  param {
    lr_mult: 0
    decay_mult: 0
  }
  param {
    lr_mult: 0
    decay_mult: 0
  }
  param {
    lr_mult: 0
    decay_mult: 0
  }
}
layer {
  name: "bottleneck2_5/dim_inc/scale"
  type: "Scale"
  bottom: "bottleneck2_5/dim_inc/conv"
  top: "bottleneck2_5/dim_inc/conv"
  param {
    name: "bottleneck2_5/dim_inc/scale/a"
    lr_mult: 1
    decay_mult: 0
  }
  param {
    name: "bottleneck2_5/dim_inc/scale/b"
    lr_mult: 2
    decay_mult: 0
  }
  scale_param {
    axis: 1
    filler {
      value: 1
    }
    bias_term: true
    bias_filler {
      value: 0
    }
  }
}
layer {
  name: "bottleneck2_5/add"
  type: "Eltwise"
  bottom: "bottleneck2_4/add"
  bottom: "bottleneck2_5/dim_inc/conv"
  top: "bottleneck2_5/add"
  eltwise_param {
    operation: SUM
  }
}
layer {
  name: "bottleneck2_5/fn"
  type: "ELU"
  bottom: "bottleneck2_5/add"
  top: "bottleneck2_5/add"
}
layer {
  name: "bottleneck2_6/dim_red/conv"
  type: "Convolution"
  bottom: "bottleneck2_5/add"
  top: "bottleneck2_6/dim_red/conv"
  param {
    name: "bottleneck2_6/dim_red/conv/w"
    lr_mult: 1
    decay_mult: 1
  }
  convolution_param {
    num_output: 16
    bias_term: false
    pad: 0
    kernel_size: 1
    stride: 1
    weight_filler {
      type: "msra"
    }
  }
}
layer {
  name: "bottleneck2_6/dim_red/bn"
  type: "BatchNorm"
  bottom: "bottleneck2_6/dim_red/conv"
  top: "bottleneck2_6/dim_red/conv"
  param {
    lr_mult: 0
    decay_mult: 0
  }
  param {
    lr_mult: 0
    decay_mult: 0
  }
  param {
    lr_mult: 0
    decay_mult: 0
  }
}
layer {
  name: "bottleneck2_6/dim_red/scale"
  type: "Scale"
  bottom: "bottleneck2_6/dim_red/conv"
  top: "bottleneck2_6/dim_red/conv"
  param {
    name: "bottleneck2_6/dim_red/scale/a"
    lr_mult: 1
    decay_mult: 0
  }
  param {
    name: "bottleneck2_6/dim_red/scale/b"
    lr_mult: 2
    decay_mult: 0
  }
  scale_param {
    axis: 1
    filler {
      value: 1
    }
    bias_term: true
    bias_filler {
      value: 0
    }
  }
}
layer {
  name: "bottleneck2_6/dim_red/fn"
  type: "ELU"
  bottom: "bottleneck2_6/dim_red/conv"
  top: "bottleneck2_6/dim_red/conv"
}
layer {
  name: "bottleneck2_6/inner/dw1/conv"
  type: "Convolution"
  bottom: "bottleneck2_6/dim_red/conv"
  top: "bottleneck2_6/inner/dw1/conv"
  param {
    name: "bottleneck2_6/inner/dw1/conv/w"
    lr_mult: 1
    decay_mult: 1
  }
  convolution_param {
    num_output: 16
    bias_term: false
    pad: 1
    kernel_size: 3
    group: 16
    stride: 1
    weight_filler {
      type: "msra"
    }
  }
}
layer {
  name: "bottleneck2_6/inner/dw1/bn"
  type: "BatchNorm"
  bottom: "bottleneck2_6/inner/dw1/conv"
  top: "bottleneck2_6/inner/dw1/conv"
  param {
    lr_mult: 0
    decay_mult: 0
  }
  param {
    lr_mult: 0
    decay_mult: 0
  }
  param {
    lr_mult: 0
    decay_mult: 0
  }
}
layer {
  name: "bottleneck2_6/inner/dw1/scale"
  type: "Scale"
  bottom: "bottleneck2_6/inner/dw1/conv"
  top: "bottleneck2_6/inner/dw1/conv"
  param {
    name: "bottleneck2_6/inner/dw1/scale/a"
    lr_mult: 1
    decay_mult: 0
  }
  param {
    name: "bottleneck2_6/inner/dw1/scale/b"
    lr_mult: 2
    decay_mult: 0
  }
  scale_param {
    axis: 1
    filler {
      value: 1
    }
    bias_term: true
    bias_filler {
      value: 0
    }
  }
}
layer {
  name: "bottleneck2_6/inner/dw1/fn"
  type: "ELU"
  bottom: "bottleneck2_6/inner/dw1/conv"
  top: "bottleneck2_6/inner/dw1/conv"
}
layer {
  name: "bottleneck2_6/dim_inc/conv"
  type: "Convolution"
  bottom: "bottleneck2_6/inner/dw1/conv"
  top: "bottleneck2_6/dim_inc/conv"
  param {
    name: "bottleneck2_6/dim_inc/conv/w"
    lr_mult: 1
    decay_mult: 1
  }
  convolution_param {
    num_output: 64
    bias_term: false
    pad: 0
    kernel_size: 1
    stride: 1
    weight_filler {
      type: "msra"
    }
  }
}
layer {
  name: "bottleneck2_6/dim_inc/bn"
  type: "BatchNorm"
  bottom: "bottleneck2_6/dim_inc/conv"
  top: "bottleneck2_6/dim_inc/conv"
  param {
    lr_mult: 0
    decay_mult: 0
  }
  param {
    lr_mult: 0
    decay_mult: 0
  }
  param {
    lr_mult: 0
    decay_mult: 0
  }
}
layer {
  name: "bottleneck2_6/dim_inc/scale"
  type: "Scale"
  bottom: "bottleneck2_6/dim_inc/conv"
  top: "bottleneck2_6/dim_inc/conv"
  param {
    name: "bottleneck2_6/dim_inc/scale/a"
    lr_mult: 1
    decay_mult: 0
  }
  param {
    name: "bottleneck2_6/dim_inc/scale/b"
    lr_mult: 2
    decay_mult: 0
  }
  scale_param {
    axis: 1
    filler {
      value: 1
    }
    bias_term: true
    bias_filler {
      value: 0
    }
  }
}
layer {
  name: "bottleneck2_6/add"
  type: "Eltwise"
  bottom: "bottleneck2_5/add"
  bottom: "bottleneck2_6/dim_inc/conv"
  top: "bottleneck2_6/add"
  eltwise_param {
    operation: SUM
  }
}
layer {
  name: "bottleneck2_6/fn"
  type: "ELU"
  bottom: "bottleneck2_6/add"
  top: "bottleneck2_6/add"
}
layer {
  name: "bottleneck2_7/dim_red/conv"
  type: "Convolution"
  bottom: "bottleneck2_6/add"
  top: "bottleneck2_7/dim_red/conv"
  param {
    name: "bottleneck2_7/dim_red/conv/w"
    lr_mult: 1
    decay_mult: 1
  }
  convolution_param {
    num_output: 16
    bias_term: false
    pad: 0
    kernel_size: 1
    stride: 1
    weight_filler {
      type: "msra"
    }
  }
}
layer {
  name: "bottleneck2_7/dim_red/bn"
  type: "BatchNorm"
  bottom: "bottleneck2_7/dim_red/conv"
  top: "bottleneck2_7/dim_red/conv"
  param {
    lr_mult: 0
    decay_mult: 0
  }
  param {
    lr_mult: 0
    decay_mult: 0
  }
  param {
    lr_mult: 0
    decay_mult: 0
  }
}
layer {
  name: "bottleneck2_7/dim_red/scale"
  type: "Scale"
  bottom: "bottleneck2_7/dim_red/conv"
  top: "bottleneck2_7/dim_red/conv"
  param {
    name: "bottleneck2_7/dim_red/scale/a"
    lr_mult: 1
    decay_mult: 0
  }
  param {
    name: "bottleneck2_7/dim_red/scale/b"
    lr_mult: 2
    decay_mult: 0
  }
  scale_param {
    axis: 1
    filler {
      value: 1
    }
    bias_term: true
    bias_filler {
      value: 0
    }
  }
}
layer {
  name: "bottleneck2_7/dim_red/fn"
  type: "ELU"
  bottom: "bottleneck2_7/dim_red/conv"
  top: "bottleneck2_7/dim_red/conv"
}
layer {
  name: "bottleneck2_7/inner/dw1/conv"
  type: "Convolution"
  bottom: "bottleneck2_7/dim_red/conv"
  top: "bottleneck2_7/inner/dw1/conv"
  param {
    name: "bottleneck2_7/inner/dw1/conv/w"
    lr_mult: 1
    decay_mult: 1
  }
  convolution_param {
    num_output: 16
    bias_term: false
    pad: 1
    kernel_size: 3
    group: 16
    stride: 1
    weight_filler {
      type: "msra"
    }
  }
}
layer {
  name: "bottleneck2_7/inner/dw1/bn"
  type: "BatchNorm"
  bottom: "bottleneck2_7/inner/dw1/conv"
  top: "bottleneck2_7/inner/dw1/conv"
  param {
    lr_mult: 0
    decay_mult: 0
  }
  param {
    lr_mult: 0
    decay_mult: 0
  }
  param {
    lr_mult: 0
    decay_mult: 0
  }
}
layer {
  name: "bottleneck2_7/inner/dw1/scale"
  type: "Scale"
  bottom: "bottleneck2_7/inner/dw1/conv"
  top: "bottleneck2_7/inner/dw1/conv"
  param {
    name: "bottleneck2_7/inner/dw1/scale/a"
    lr_mult: 1
    decay_mult: 0
  }
  param {
    name: "bottleneck2_7/inner/dw1/scale/b"
    lr_mult: 2
    decay_mult: 0
  }
  scale_param {
    axis: 1
    filler {
      value: 1
    }
    bias_term: true
    bias_filler {
      value: 0
    }
  }
}
layer {
  name: "bottleneck2_7/inner/dw1/fn"
  type: "ELU"
  bottom: "bottleneck2_7/inner/dw1/conv"
  top: "bottleneck2_7/inner/dw1/conv"
}
layer {
  name: "bottleneck2_7/dim_inc/conv"
  type: "Convolution"
  bottom: "bottleneck2_7/inner/dw1/conv"
  top: "bottleneck2_7/dim_inc/conv"
  param {
    name: "bottleneck2_7/dim_inc/conv/w"
    lr_mult: 1
    decay_mult: 1
  }
  convolution_param {
    num_output: 64
    bias_term: false
    pad: 0
    kernel_size: 1
    stride: 1
    weight_filler {
      type: "msra"
    }
  }
}
layer {
  name: "bottleneck2_7/dim_inc/bn"
  type: "BatchNorm"
  bottom: "bottleneck2_7/dim_inc/conv"
  top: "bottleneck2_7/dim_inc/conv"
  param {
    lr_mult: 0
    decay_mult: 0
  }
  param {
    lr_mult: 0
    decay_mult: 0
  }
  param {
    lr_mult: 0
    decay_mult: 0
  }
}
layer {
  name: "bottleneck2_7/dim_inc/scale"
  type: "Scale"
  bottom: "bottleneck2_7/dim_inc/conv"
  top: "bottleneck2_7/dim_inc/conv"
  param {
    name: "bottleneck2_7/dim_inc/scale/a"
    lr_mult: 1
    decay_mult: 0
  }
  param {
    name: "bottleneck2_7/dim_inc/scale/b"
    lr_mult: 2
    decay_mult: 0
  }
  scale_param {
    axis: 1
    filler {
      value: 1
    }
    bias_term: true
    bias_filler {
      value: 0
    }
  }
}
layer {
  name: "bottleneck2_7/add"
  type: "Eltwise"
  bottom: "bottleneck2_6/add"
  bottom: "bottleneck2_7/dim_inc/conv"
  top: "bottleneck2_7/add"
  eltwise_param {
    operation: SUM
  }
}
layer {
  name: "bottleneck2_7/fn"
  type: "ELU"
  bottom: "bottleneck2_7/add"
  top: "bottleneck2_7/add"
}
layer {
  name: "bottleneck2_8/dim_red/conv"
  type: "Convolution"
  bottom: "bottleneck2_7/add"
  top: "bottleneck2_8/dim_red/conv"
  param {
    name: "bottleneck2_8/dim_red/conv/w"
    lr_mult: 1
    decay_mult: 1
  }
  convolution_param {
    num_output: 16
    bias_term: false
    pad: 0
    kernel_size: 1
    stride: 1
    weight_filler {
      type: "msra"
    }
  }
}
layer {
  name: "bottleneck2_8/dim_red/bn"
  type: "BatchNorm"
  bottom: "bottleneck2_8/dim_red/conv"
  top: "bottleneck2_8/dim_red/conv"
  param {
    lr_mult: 0
    decay_mult: 0
  }
  param {
    lr_mult: 0
    decay_mult: 0
  }
  param {
    lr_mult: 0
    decay_mult: 0
  }
}
layer {
  name: "bottleneck2_8/dim_red/scale"
  type: "Scale"
  bottom: "bottleneck2_8/dim_red/conv"
  top: "bottleneck2_8/dim_red/conv"
  param {
    name: "bottleneck2_8/dim_red/scale/a"
    lr_mult: 1
    decay_mult: 0
  }
  param {
    name: "bottleneck2_8/dim_red/scale/b"
    lr_mult: 2
    decay_mult: 0
  }
  scale_param {
    axis: 1
    filler {
      value: 1
    }
    bias_term: true
    bias_filler {
      value: 0
    }
  }
}
layer {
  name: "bottleneck2_8/dim_red/fn"
  type: "ELU"
  bottom: "bottleneck2_8/dim_red/conv"
  top: "bottleneck2_8/dim_red/conv"
}
layer {
  name: "bottleneck2_8/inner/dw1/conv"
  type: "Convolution"
  bottom: "bottleneck2_8/dim_red/conv"
  top: "bottleneck2_8/inner/dw1/conv"
  param {
    name: "bottleneck2_8/inner/dw1/conv/w"
    lr_mult: 1
    decay_mult: 1
  }
  convolution_param {
    num_output: 16
    bias_term: false
    pad: 1
    kernel_size: 3
    group: 16
    stride: 1
    weight_filler {
      type: "msra"
    }
  }
}
layer {
  name: "bottleneck2_8/inner/dw1/bn"
  type: "BatchNorm"
  bottom: "bottleneck2_8/inner/dw1/conv"
  top: "bottleneck2_8/inner/dw1/conv"
  param {
    lr_mult: 0
    decay_mult: 0
  }
  param {
    lr_mult: 0
    decay_mult: 0
  }
  param {
    lr_mult: 0
    decay_mult: 0
  }
}
layer {
  name: "bottleneck2_8/inner/dw1/scale"
  type: "Scale"
  bottom: "bottleneck2_8/inner/dw1/conv"
  top: "bottleneck2_8/inner/dw1/conv"
  param {
    name: "bottleneck2_8/inner/dw1/scale/a"
    lr_mult: 1
    decay_mult: 0
  }
  param {
    name: "bottleneck2_8/inner/dw1/scale/b"
    lr_mult: 2
    decay_mult: 0
  }
  scale_param {
    axis: 1
    filler {
      value: 1
    }
    bias_term: true
    bias_filler {
      value: 0
    }
  }
}
layer {
  name: "bottleneck2_8/inner/dw1/fn"
  type: "ELU"
  bottom: "bottleneck2_8/inner/dw1/conv"
  top: "bottleneck2_8/inner/dw1/conv"
}
layer {
  name: "bottleneck2_8/dim_inc/conv"
  type: "Convolution"
  bottom: "bottleneck2_8/inner/dw1/conv"
  top: "bottleneck2_8/dim_inc/conv"
  param {
    name: "bottleneck2_8/dim_inc/conv/w"
    lr_mult: 1
    decay_mult: 1
  }
  convolution_param {
    num_output: 64
    bias_term: false
    pad: 0
    kernel_size: 1
    stride: 1
    weight_filler {
      type: "msra"
    }
  }
}
layer {
  name: "bottleneck2_8/dim_inc/bn"
  type: "BatchNorm"
  bottom: "bottleneck2_8/dim_inc/conv"
  top: "bottleneck2_8/dim_inc/conv"
  param {
    lr_mult: 0
    decay_mult: 0
  }
  param {
    lr_mult: 0
    decay_mult: 0
  }
  param {
    lr_mult: 0
    decay_mult: 0
  }
}
layer {
  name: "bottleneck2_8/dim_inc/scale"
  type: "Scale"
  bottom: "bottleneck2_8/dim_inc/conv"
  top: "bottleneck2_8/dim_inc/conv"
  param {
    name: "bottleneck2_8/dim_inc/scale/a"
    lr_mult: 1
    decay_mult: 0
  }
  param {
    name: "bottleneck2_8/dim_inc/scale/b"
    lr_mult: 2
    decay_mult: 0
  }
  scale_param {
    axis: 1
    filler {
      value: 1
    }
    bias_term: true
    bias_filler {
      value: 0
    }
  }
}
layer {
  name: "bottleneck2_8/add"
  type: "Eltwise"
  bottom: "bottleneck2_7/add"
  bottom: "bottleneck2_8/dim_inc/conv"
  top: "bottleneck2_8/add"
  eltwise_param {
    operation: SUM
  }
}
layer {
  name: "bottleneck2_8/fn"
  type: "ELU"
  bottom: "bottleneck2_8/add"
  top: "bottleneck2_8/add"
}
layer {
  name: "bottleneck3_0/dim_red/conv"
  type: "Convolution"
  bottom: "bottleneck2_8/add"
  top: "bottleneck3_0/dim_red/conv"
  param {
    name: "bottleneck3_0/dim_red/conv/w"
    lr_mult: 1
    decay_mult: 1
  }
  convolution_param {
    num_output: 32
    bias_term: false
    pad: 0
    kernel_size: 1
    stride: 1
    weight_filler {
      type: "msra"
    }
  }
}
layer {
  name: "bottleneck3_0/dim_red/bn"
  type: "BatchNorm"
  bottom: "bottleneck3_0/dim_red/conv"
  top: "bottleneck3_0/dim_red/conv"
  param {
    lr_mult: 0
    decay_mult: 0
  }
  param {
    lr_mult: 0
    decay_mult: 0
  }
  param {
    lr_mult: 0
    decay_mult: 0
  }
}
layer {
  name: "bottleneck3_0/dim_red/scale"
  type: "Scale"
  bottom: "bottleneck3_0/dim_red/conv"
  top: "bottleneck3_0/dim_red/conv"
  param {
    name: "bottleneck3_0/dim_red/scale/a"
    lr_mult: 1
    decay_mult: 0
  }
  param {
    name: "bottleneck3_0/dim_red/scale/b"
    lr_mult: 2
    decay_mult: 0
  }
  scale_param {
    axis: 1
    filler {
      value: 1
    }
    bias_term: true
    bias_filler {
      value: 0
    }
  }
}
layer {
  name: "bottleneck3_0/dim_red/fn"
  type: "ELU"
  bottom: "bottleneck3_0/dim_red/conv"
  top: "bottleneck3_0/dim_red/conv"
}
layer {
  name: "bottleneck3_0/inner/dw1/conv"
  type: "Convolution"
  bottom: "bottleneck3_0/dim_red/conv"
  top: "bottleneck3_0/inner/dw1/conv"
  param {
    name: "bottleneck3_0/inner/dw1/conv/w"
    lr_mult: 1
    decay_mult: 1
  }
  convolution_param {
    num_output: 32
    bias_term: false
    pad: 1
    kernel_size: 3
    group: 32
    stride: 2
    weight_filler {
      type: "msra"
    }
  }
}
layer {
  name: "bottleneck3_0/inner/dw1/bn"
  type: "BatchNorm"
  bottom: "bottleneck3_0/inner/dw1/conv"
  top: "bottleneck3_0/inner/dw1/conv"
  param {
    lr_mult: 0
    decay_mult: 0
  }
  param {
    lr_mult: 0
    decay_mult: 0
  }
  param {
    lr_mult: 0
    decay_mult: 0
  }
}
layer {
  name: "bottleneck3_0/inner/dw1/scale"
  type: "Scale"
  bottom: "bottleneck3_0/inner/dw1/conv"
  top: "bottleneck3_0/inner/dw1/conv"
  param {
    name: "bottleneck3_0/inner/dw1/scale/a"
    lr_mult: 1
    decay_mult: 0
  }
  param {
    name: "bottleneck3_0/inner/dw1/scale/b"
    lr_mult: 2
    decay_mult: 0
  }
  scale_param {
    axis: 1
    filler {
      value: 1
    }
    bias_term: true
    bias_filler {
      value: 0
    }
  }
}
layer {
  name: "bottleneck3_0/inner/dw1/fn"
  type: "ELU"
  bottom: "bottleneck3_0/inner/dw1/conv"
  top: "bottleneck3_0/inner/dw1/conv"
}
layer {
  name: "bottleneck3_0/dim_inc/conv"
  type: "Convolution"
  bottom: "bottleneck3_0/inner/dw1/conv"
  top: "bottleneck3_0/dim_inc/conv"
  param {
    name: "bottleneck3_0/dim_inc/conv/w"
    lr_mult: 1
    decay_mult: 1
  }
  convolution_param {
    num_output: 128
    bias_term: false
    pad: 0
    kernel_size: 1
    stride: 1
    weight_filler {
      type: "msra"
    }
  }
}
layer {
  name: "bottleneck3_0/dim_inc/bn"
  type: "BatchNorm"
  bottom: "bottleneck3_0/dim_inc/conv"
  top: "bottleneck3_0/dim_inc/conv"
  param {
    lr_mult: 0
    decay_mult: 0
  }
  param {
    lr_mult: 0
    decay_mult: 0
  }
  param {
    lr_mult: 0
    decay_mult: 0
  }
}
layer {
  name: "bottleneck3_0/dim_inc/scale"
  type: "Scale"
  bottom: "bottleneck3_0/dim_inc/conv"
  top: "bottleneck3_0/dim_inc/conv"
  param {
    name: "bottleneck3_0/dim_inc/scale/a"
    lr_mult: 1
    decay_mult: 0
  }
  param {
    name: "bottleneck3_0/dim_inc/scale/b"
    lr_mult: 2
    decay_mult: 0
  }
  scale_param {
    axis: 1
    filler {
      value: 1
    }
    bias_term: true
    bias_filler {
      value: 0
    }
  }
}
layer {
  name: "bottleneck3_0/skip/pooling"
  type: "Pooling"
  bottom: "bottleneck2_8/add"
  top: "bottleneck3_0/skip/pooling"
  pooling_param {
    pool: MAX
    kernel_size: 2
    stride: 2
    pad: 0
  }
}
layer {
  name: "bottleneck3_0/skip/conv"
  type: "Convolution"
  bottom: "bottleneck3_0/skip/pooling"
  top: "bottleneck3_0/skip/conv"
  param {
    name: "bottleneck3_0/skip/conv/w"
    lr_mult: 1
    decay_mult: 1
  }
  convolution_param {
    num_output: 128
    bias_term: false
    pad: 0
    kernel_size: 1
    stride: 1
    weight_filler {
      type: "msra"
    }
  }
}
layer {
  name: "bottleneck3_0/skip/bn"
  type: "BatchNorm"
  bottom: "bottleneck3_0/skip/conv"
  top: "bottleneck3_0/skip/conv"
  param {
    lr_mult: 0
    decay_mult: 0
  }
  param {
    lr_mult: 0
    decay_mult: 0
  }
  param {
    lr_mult: 0
    decay_mult: 0
  }
}
layer {
  name: "bottleneck3_0/skip/scale"
  type: "Scale"
  bottom: "bottleneck3_0/skip/conv"
  top: "bottleneck3_0/skip/conv"
  param {
    name: "bottleneck3_0/skip/scale/a"
    lr_mult: 1
    decay_mult: 0
  }
  param {
    name: "bottleneck3_0/skip/scale/b"
    lr_mult: 2
    decay_mult: 0
  }
  scale_param {
    axis: 1
    filler {
      value: 1
    }
    bias_term: true
    bias_filler {
      value: 0
    }
  }
}
layer {
  name: "bottleneck3_0/add"
  type: "Eltwise"
  bottom: "bottleneck3_0/skip/conv"
  bottom: "bottleneck3_0/dim_inc/conv"
  top: "bottleneck3_0/add"
  eltwise_param {
    operation: SUM
  }
}
layer {
  name: "bottleneck3_0/fn"
  type: "ELU"
  bottom: "bottleneck3_0/add"
  top: "bottleneck3_0/add"
}
layer {
  name: "bottleneck3_1/dim_red/conv"
  type: "Convolution"
  bottom: "bottleneck3_0/add"
  top: "bottleneck3_1/dim_red/conv"
  param {
    name: "bottleneck3_1/dim_red/conv/w"
    lr_mult: 1
    decay_mult: 1
  }
  convolution_param {
    num_output: 32
    bias_term: false
    pad: 0
    kernel_size: 1
    stride: 1
    weight_filler {
      type: "msra"
    }
  }
}
layer {
  name: "bottleneck3_1/dim_red/bn"
  type: "BatchNorm"
  bottom: "bottleneck3_1/dim_red/conv"
  top: "bottleneck3_1/dim_red/conv"
  param {
    lr_mult: 0
    decay_mult: 0
  }
  param {
    lr_mult: 0
    decay_mult: 0
  }
  param {
    lr_mult: 0
    decay_mult: 0
  }
}
layer {
  name: "bottleneck3_1/dim_red/scale"
  type: "Scale"
  bottom: "bottleneck3_1/dim_red/conv"
  top: "bottleneck3_1/dim_red/conv"
  param {
    name: "bottleneck3_1/dim_red/scale/a"
    lr_mult: 1
    decay_mult: 0
  }
  param {
    name: "bottleneck3_1/dim_red/scale/b"
    lr_mult: 2
    decay_mult: 0
  }
  scale_param {
    axis: 1
    filler {
      value: 1
    }
    bias_term: true
    bias_filler {
      value: 0
    }
  }
}
layer {
  name: "bottleneck3_1/dim_red/fn"
  type: "ELU"
  bottom: "bottleneck3_1/dim_red/conv"
  top: "bottleneck3_1/dim_red/conv"
}
layer {
  name: "bottleneck3_1/inner/dw1/conv"
  type: "Convolution"
  bottom: "bottleneck3_1/dim_red/conv"
  top: "bottleneck3_1/inner/dw1/conv"
  param {
    name: "bottleneck3_1/inner/dw1/conv/w"
    lr_mult: 1
    decay_mult: 1
  }
  convolution_param {
    num_output: 32
    bias_term: false
    pad: 1
    kernel_size: 3
    group: 32
    stride: 1
    weight_filler {
      type: "msra"
    }
  }
}
layer {
  name: "bottleneck3_1/inner/dw1/bn"
  type: "BatchNorm"
  bottom: "bottleneck3_1/inner/dw1/conv"
  top: "bottleneck3_1/inner/dw1/conv"
  param {
    lr_mult: 0
    decay_mult: 0
  }
  param {
    lr_mult: 0
    decay_mult: 0
  }
  param {
    lr_mult: 0
    decay_mult: 0
  }
}
layer {
  name: "bottleneck3_1/inner/dw1/scale"
  type: "Scale"
  bottom: "bottleneck3_1/inner/dw1/conv"
  top: "bottleneck3_1/inner/dw1/conv"
  param {
    name: "bottleneck3_1/inner/dw1/scale/a"
    lr_mult: 1
    decay_mult: 0
  }
  param {
    name: "bottleneck3_1/inner/dw1/scale/b"
    lr_mult: 2
    decay_mult: 0
  }
  scale_param {
    axis: 1
    filler {
      value: 1
    }
    bias_term: true
    bias_filler {
      value: 0
    }
  }
}
layer {
  name: "bottleneck3_1/inner/dw1/fn"
  type: "ELU"
  bottom: "bottleneck3_1/inner/dw1/conv"
  top: "bottleneck3_1/inner/dw1/conv"
}
layer {
  name: "bottleneck3_1/dim_inc/conv"
  type: "Convolution"
  bottom: "bottleneck3_1/inner/dw1/conv"
  top: "bottleneck3_1/dim_inc/conv"
  param {
    name: "bottleneck3_1/dim_inc/conv/w"
    lr_mult: 1
    decay_mult: 1
  }
  convolution_param {
    num_output: 128
    bias_term: false
    pad: 0
    kernel_size: 1
    stride: 1
    weight_filler {
      type: "msra"
    }
  }
}
layer {
  name: "bottleneck3_1/dim_inc/bn"
  type: "BatchNorm"
  bottom: "bottleneck3_1/dim_inc/conv"
  top: "bottleneck3_1/dim_inc/conv"
  param {
    lr_mult: 0
    decay_mult: 0
  }
  param {
    lr_mult: 0
    decay_mult: 0
  }
  param {
    lr_mult: 0
    decay_mult: 0
  }
}
layer {
  name: "bottleneck3_1/dim_inc/scale"
  type: "Scale"
  bottom: "bottleneck3_1/dim_inc/conv"
  top: "bottleneck3_1/dim_inc/conv"
  param {
    name: "bottleneck3_1/dim_inc/scale/a"
    lr_mult: 1
    decay_mult: 0
  }
  param {
    name: "bottleneck3_1/dim_inc/scale/b"
    lr_mult: 2
    decay_mult: 0
  }
  scale_param {
    axis: 1
    filler {
      value: 1
    }
    bias_term: true
    bias_filler {
      value: 0
    }
  }
}
layer {
  name: "bottleneck3_1/add"
  type: "Eltwise"
  bottom: "bottleneck3_0/add"
  bottom: "bottleneck3_1/dim_inc/conv"
  top: "bottleneck3_1/add"
  eltwise_param {
    operation: SUM
  }
}
layer {
  name: "bottleneck3_1/fn"
  type: "ELU"
  bottom: "bottleneck3_1/add"
  top: "bottleneck3_1/add"
}
layer {
  name: "bottleneck3_2/dim_red/conv"
  type: "Convolution"
  bottom: "bottleneck3_1/add"
  top: "bottleneck3_2/dim_red/conv"
  param {
    name: "bottleneck3_2/dim_red/conv/w"
    lr_mult: 1
    decay_mult: 1
  }
  convolution_param {
    num_output: 32
    bias_term: false
    pad: 0
    kernel_size: 1
    stride: 1
    weight_filler {
      type: "msra"
    }
  }
}
layer {
  name: "bottleneck3_2/dim_red/bn"
  type: "BatchNorm"
  bottom: "bottleneck3_2/dim_red/conv"
  top: "bottleneck3_2/dim_red/conv"
  param {
    lr_mult: 0
    decay_mult: 0
  }
  param {
    lr_mult: 0
    decay_mult: 0
  }
  param {
    lr_mult: 0
    decay_mult: 0
  }
}
layer {
  name: "bottleneck3_2/dim_red/scale"
  type: "Scale"
  bottom: "bottleneck3_2/dim_red/conv"
  top: "bottleneck3_2/dim_red/conv"
  param {
    name: "bottleneck3_2/dim_red/scale/a"
    lr_mult: 1
    decay_mult: 0
  }
  param {
    name: "bottleneck3_2/dim_red/scale/b"
    lr_mult: 2
    decay_mult: 0
  }
  scale_param {
    axis: 1
    filler {
      value: 1
    }
    bias_term: true
    bias_filler {
      value: 0
    }
  }
}
layer {
  name: "bottleneck3_2/dim_red/fn"
  type: "ELU"
  bottom: "bottleneck3_2/dim_red/conv"
  top: "bottleneck3_2/dim_red/conv"
}
layer {
  name: "bottleneck3_2/inner/dw1/conv"
  type: "Convolution"
  bottom: "bottleneck3_2/dim_red/conv"
  top: "bottleneck3_2/inner/dw1/conv"
  param {
    name: "bottleneck3_2/inner/dw1/conv/w"
    lr_mult: 1
    decay_mult: 1
  }
  convolution_param {
    num_output: 32
    bias_term: false
    pad: 1
    kernel_size: 3
    group: 32
    stride: 1
    weight_filler {
      type: "msra"
    }
  }
}
layer {
  name: "bottleneck3_2/inner/dw1/bn"
  type: "BatchNorm"
  bottom: "bottleneck3_2/inner/dw1/conv"
  top: "bottleneck3_2/inner/dw1/conv"
  param {
    lr_mult: 0
    decay_mult: 0
  }
  param {
    lr_mult: 0
    decay_mult: 0
  }
  param {
    lr_mult: 0
    decay_mult: 0
  }
}
layer {
  name: "bottleneck3_2/inner/dw1/scale"
  type: "Scale"
  bottom: "bottleneck3_2/inner/dw1/conv"
  top: "bottleneck3_2/inner/dw1/conv"
  param {
    name: "bottleneck3_2/inner/dw1/scale/a"
    lr_mult: 1
    decay_mult: 0
  }
  param {
    name: "bottleneck3_2/inner/dw1/scale/b"
    lr_mult: 2
    decay_mult: 0
  }
  scale_param {
    axis: 1
    filler {
      value: 1
    }
    bias_term: true
    bias_filler {
      value: 0
    }
  }
}
layer {
  name: "bottleneck3_2/inner/dw1/fn"
  type: "ELU"
  bottom: "bottleneck3_2/inner/dw1/conv"
  top: "bottleneck3_2/inner/dw1/conv"
}
layer {
  name: "bottleneck3_2/dim_inc/conv"
  type: "Convolution"
  bottom: "bottleneck3_2/inner/dw1/conv"
  top: "bottleneck3_2/dim_inc/conv"
  param {
    name: "bottleneck3_2/dim_inc/conv/w"
    lr_mult: 1
    decay_mult: 1
  }
  convolution_param {
    num_output: 128
    bias_term: false
    pad: 0
    kernel_size: 1
    stride: 1
    weight_filler {
      type: "msra"
    }
  }
}
layer {
  name: "bottleneck3_2/dim_inc/bn"
  type: "BatchNorm"
  bottom: "bottleneck3_2/dim_inc/conv"
  top: "bottleneck3_2/dim_inc/conv"
  param {
    lr_mult: 0
    decay_mult: 0
  }
  param {
    lr_mult: 0
    decay_mult: 0
  }
  param {
    lr_mult: 0
    decay_mult: 0
  }
}
layer {
  name: "bottleneck3_2/dim_inc/scale"
  type: "Scale"
  bottom: "bottleneck3_2/dim_inc/conv"
  top: "bottleneck3_2/dim_inc/conv"
  param {
    name: "bottleneck3_2/dim_inc/scale/a"
    lr_mult: 1
    decay_mult: 0
  }
  param {
    name: "bottleneck3_2/dim_inc/scale/b"
    lr_mult: 2
    decay_mult: 0
  }
  scale_param {
    axis: 1
    filler {
      value: 1
    }
    bias_term: true
    bias_filler {
      value: 0
    }
  }
}
layer {
  name: "bottleneck3_2/add"
  type: "Eltwise"
  bottom: "bottleneck3_1/add"
  bottom: "bottleneck3_2/dim_inc/conv"
  top: "bottleneck3_2/add"
  eltwise_param {
    operation: SUM
  }
}
layer {
  name: "bottleneck3_2/fn"
  type: "ELU"
  bottom: "bottleneck3_2/add"
  top: "bottleneck3_2/add"
}
layer {
  name: "bottleneck3_3/dim_red/conv"
  type: "Convolution"
  bottom: "bottleneck3_2/add"
  top: "bottleneck3_3/dim_red/conv"
  param {
    name: "bottleneck3_3/dim_red/conv/w"
    lr_mult: 1
    decay_mult: 1
  }
  convolution_param {
    num_output: 32
    bias_term: false
    pad: 0
    kernel_size: 1
    stride: 1
    weight_filler {
      type: "msra"
    }
  }
}
layer {
  name: "bottleneck3_3/dim_red/bn"
  type: "BatchNorm"
  bottom: "bottleneck3_3/dim_red/conv"
  top: "bottleneck3_3/dim_red/conv"
  param {
    lr_mult: 0
    decay_mult: 0
  }
  param {
    lr_mult: 0
    decay_mult: 0
  }
  param {
    lr_mult: 0
    decay_mult: 0
  }
}
layer {
  name: "bottleneck3_3/dim_red/scale"
  type: "Scale"
  bottom: "bottleneck3_3/dim_red/conv"
  top: "bottleneck3_3/dim_red/conv"
  param {
    name: "bottleneck3_3/dim_red/scale/a"
    lr_mult: 1
    decay_mult: 0
  }
  param {
    name: "bottleneck3_3/dim_red/scale/b"
    lr_mult: 2
    decay_mult: 0
  }
  scale_param {
    axis: 1
    filler {
      value: 1
    }
    bias_term: true
    bias_filler {
      value: 0
    }
  }
}
layer {
  name: "bottleneck3_3/dim_red/fn"
  type: "ELU"
  bottom: "bottleneck3_3/dim_red/conv"
  top: "bottleneck3_3/dim_red/conv"
}
layer {
  name: "bottleneck3_3/inner/dw1/conv"
  type: "Convolution"
  bottom: "bottleneck3_3/dim_red/conv"
  top: "bottleneck3_3/inner/dw1/conv"
  param {
    name: "bottleneck3_3/inner/dw1/conv/w"
    lr_mult: 1
    decay_mult: 1
  }
  convolution_param {
    num_output: 32
    bias_term: false
    pad: 1
    kernel_size: 3
    group: 32
    stride: 1
    weight_filler {
      type: "msra"
    }
  }
}
layer {
  name: "bottleneck3_3/inner/dw1/bn"
  type: "BatchNorm"
  bottom: "bottleneck3_3/inner/dw1/conv"
  top: "bottleneck3_3/inner/dw1/conv"
  param {
    lr_mult: 0
    decay_mult: 0
  }
  param {
    lr_mult: 0
    decay_mult: 0
  }
  param {
    lr_mult: 0
    decay_mult: 0
  }
}
layer {
  name: "bottleneck3_3/inner/dw1/scale"
  type: "Scale"
  bottom: "bottleneck3_3/inner/dw1/conv"
  top: "bottleneck3_3/inner/dw1/conv"
  param {
    name: "bottleneck3_3/inner/dw1/scale/a"
    lr_mult: 1
    decay_mult: 0
  }
  param {
    name: "bottleneck3_3/inner/dw1/scale/b"
    lr_mult: 2
    decay_mult: 0
  }
  scale_param {
    axis: 1
    filler {
      value: 1
    }
    bias_term: true
    bias_filler {
      value: 0
    }
  }
}
layer {
  name: "bottleneck3_3/inner/dw1/fn"
  type: "ELU"
  bottom: "bottleneck3_3/inner/dw1/conv"
  top: "bottleneck3_3/inner/dw1/conv"
}
layer {
  name: "bottleneck3_3/dim_inc/conv"
  type: "Convolution"
  bottom: "bottleneck3_3/inner/dw1/conv"
  top: "bottleneck3_3/dim_inc/conv"
  param {
    name: "bottleneck3_3/dim_inc/conv/w"
    lr_mult: 1
    decay_mult: 1
  }
  convolution_param {
    num_output: 128
    bias_term: false
    pad: 0
    kernel_size: 1
    stride: 1
    weight_filler {
      type: "msra"
    }
  }
}
layer {
  name: "bottleneck3_3/dim_inc/bn"
  type: "BatchNorm"
  bottom: "bottleneck3_3/dim_inc/conv"
  top: "bottleneck3_3/dim_inc/conv"
  param {
    lr_mult: 0
    decay_mult: 0
  }
  param {
    lr_mult: 0
    decay_mult: 0
  }
  param {
    lr_mult: 0
    decay_mult: 0
  }
}
layer {
  name: "bottleneck3_3/dim_inc/scale"
  type: "Scale"
  bottom: "bottleneck3_3/dim_inc/conv"
  top: "bottleneck3_3/dim_inc/conv"
  param {
    name: "bottleneck3_3/dim_inc/scale/a"
    lr_mult: 1
    decay_mult: 0
  }
  param {
    name: "bottleneck3_3/dim_inc/scale/b"
    lr_mult: 2
    decay_mult: 0
  }
  scale_param {
    axis: 1
    filler {
      value: 1
    }
    bias_term: true
    bias_filler {
      value: 0
    }
  }
}
layer {
  name: "bottleneck3_3/add"
  type: "Eltwise"
  bottom: "bottleneck3_2/add"
  bottom: "bottleneck3_3/dim_inc/conv"
  top: "bottleneck3_3/add"
  eltwise_param {
    operation: SUM
  }
}
layer {
  name: "bottleneck3_3/fn"
  type: "ELU"
  bottom: "bottleneck3_3/add"
  top: "bottleneck3_3/add"
}
layer {
  name: "bottleneck3_4/dim_red/conv"
  type: "Convolution"
  bottom: "bottleneck3_3/add"
  top: "bottleneck3_4/dim_red/conv"
  param {
    name: "bottleneck3_4/dim_red/conv/w"
    lr_mult: 1
    decay_mult: 1
  }
  convolution_param {
    num_output: 32
    bias_term: false
    pad: 0
    kernel_size: 1
    stride: 1
    weight_filler {
      type: "msra"
    }
  }
}
layer {
  name: "bottleneck3_4/dim_red/bn"
  type: "BatchNorm"
  bottom: "bottleneck3_4/dim_red/conv"
  top: "bottleneck3_4/dim_red/conv"
  param {
    lr_mult: 0
    decay_mult: 0
  }
  param {
    lr_mult: 0
    decay_mult: 0
  }
  param {
    lr_mult: 0
    decay_mult: 0
  }
}
layer {
  name: "bottleneck3_4/dim_red/scale"
  type: "Scale"
  bottom: "bottleneck3_4/dim_red/conv"
  top: "bottleneck3_4/dim_red/conv"
  param {
    name: "bottleneck3_4/dim_red/scale/a"
    lr_mult: 1
    decay_mult: 0
  }
  param {
    name: "bottleneck3_4/dim_red/scale/b"
    lr_mult: 2
    decay_mult: 0
  }
  scale_param {
    axis: 1
    filler {
      value: 1
    }
    bias_term: true
    bias_filler {
      value: 0
    }
  }
}
layer {
  name: "bottleneck3_4/dim_red/fn"
  type: "ELU"
  bottom: "bottleneck3_4/dim_red/conv"
  top: "bottleneck3_4/dim_red/conv"
}
layer {
  name: "bottleneck3_4/inner/dw1/conv"
  type: "Convolution"
  bottom: "bottleneck3_4/dim_red/conv"
  top: "bottleneck3_4/inner/dw1/conv"
  param {
    name: "bottleneck3_4/inner/dw1/conv/w"
    lr_mult: 1
    decay_mult: 1
  }
  convolution_param {
    num_output: 32
    bias_term: false
    pad: 1
    kernel_size: 3
    group: 32
    stride: 1
    weight_filler {
      type: "msra"
    }
  }
}
layer {
  name: "bottleneck3_4/inner/dw1/bn"
  type: "BatchNorm"
  bottom: "bottleneck3_4/inner/dw1/conv"
  top: "bottleneck3_4/inner/dw1/conv"
  param {
    lr_mult: 0
    decay_mult: 0
  }
  param {
    lr_mult: 0
    decay_mult: 0
  }
  param {
    lr_mult: 0
    decay_mult: 0
  }
}
layer {
  name: "bottleneck3_4/inner/dw1/scale"
  type: "Scale"
  bottom: "bottleneck3_4/inner/dw1/conv"
  top: "bottleneck3_4/inner/dw1/conv"
  param {
    name: "bottleneck3_4/inner/dw1/scale/a"
    lr_mult: 1
    decay_mult: 0
  }
  param {
    name: "bottleneck3_4/inner/dw1/scale/b"
    lr_mult: 2
    decay_mult: 0
  }
  scale_param {
    axis: 1
    filler {
      value: 1
    }
    bias_term: true
    bias_filler {
      value: 0
    }
  }
}
layer {
  name: "bottleneck3_4/inner/dw1/fn"
  type: "ELU"
  bottom: "bottleneck3_4/inner/dw1/conv"
  top: "bottleneck3_4/inner/dw1/conv"
}
layer {
  name: "bottleneck3_4/dim_inc/conv"
  type: "Convolution"
  bottom: "bottleneck3_4/inner/dw1/conv"
  top: "bottleneck3_4/dim_inc/conv"
  param {
    name: "bottleneck3_4/dim_inc/conv/w"
    lr_mult: 1
    decay_mult: 1
  }
  convolution_param {
    num_output: 128
    bias_term: false
    pad: 0
    kernel_size: 1
    stride: 1
    weight_filler {
      type: "msra"
    }
  }
}
layer {
  name: "bottleneck3_4/dim_inc/bn"
  type: "BatchNorm"
  bottom: "bottleneck3_4/dim_inc/conv"
  top: "bottleneck3_4/dim_inc/conv"
  param {
    lr_mult: 0
    decay_mult: 0
  }
  param {
    lr_mult: 0
    decay_mult: 0
  }
  param {
    lr_mult: 0
    decay_mult: 0
  }
}
layer {
  name: "bottleneck3_4/dim_inc/scale"
  type: "Scale"
  bottom: "bottleneck3_4/dim_inc/conv"
  top: "bottleneck3_4/dim_inc/conv"
  param {
    name: "bottleneck3_4/dim_inc/scale/a"
    lr_mult: 1
    decay_mult: 0
  }
  param {
    name: "bottleneck3_4/dim_inc/scale/b"
    lr_mult: 2
    decay_mult: 0
  }
  scale_param {
    axis: 1
    filler {
      value: 1
    }
    bias_term: true
    bias_filler {
      value: 0
    }
  }
}
layer {
  name: "bottleneck3_4/add"
  type: "Eltwise"
  bottom: "bottleneck3_3/add"
  bottom: "bottleneck3_4/dim_inc/conv"
  top: "bottleneck3_4/add"
  eltwise_param {
    operation: SUM
  }
}
layer {
  name: "bottleneck3_4/fn"
  type: "ELU"
  bottom: "bottleneck3_4/add"
  top: "bottleneck3_4/add"
}
layer {
  name: "bottleneck3_5/dim_red/conv"
  type: "Convolution"
  bottom: "bottleneck3_4/add"
  top: "bottleneck3_5/dim_red/conv"
  param {
    name: "bottleneck3_5/dim_red/conv/w"
    lr_mult: 1
    decay_mult: 1
  }
  convolution_param {
    num_output: 32
    bias_term: false
    pad: 0
    kernel_size: 1
    stride: 1
    weight_filler {
      type: "msra"
    }
  }
}
layer {
  name: "bottleneck3_5/dim_red/bn"
  type: "BatchNorm"
  bottom: "bottleneck3_5/dim_red/conv"
  top: "bottleneck3_5/dim_red/conv"
  param {
    lr_mult: 0
    decay_mult: 0
  }
  param {
    lr_mult: 0
    decay_mult: 0
  }
  param {
    lr_mult: 0
    decay_mult: 0
  }
}
layer {
  name: "bottleneck3_5/dim_red/scale"
  type: "Scale"
  bottom: "bottleneck3_5/dim_red/conv"
  top: "bottleneck3_5/dim_red/conv"
  param {
    name: "bottleneck3_5/dim_red/scale/a"
    lr_mult: 1
    decay_mult: 0
  }
  param {
    name: "bottleneck3_5/dim_red/scale/b"
    lr_mult: 2
    decay_mult: 0
  }
  scale_param {
    axis: 1
    filler {
      value: 1
    }
    bias_term: true
    bias_filler {
      value: 0
    }
  }
}
layer {
  name: "bottleneck3_5/dim_red/fn"
  type: "ELU"
  bottom: "bottleneck3_5/dim_red/conv"
  top: "bottleneck3_5/dim_red/conv"
}
layer {
  name: "bottleneck3_5/inner/dw1/conv"
  type: "Convolution"
  bottom: "bottleneck3_5/dim_red/conv"
  top: "bottleneck3_5/inner/dw1/conv"
  param {
    name: "bottleneck3_5/inner/dw1/conv/w"
    lr_mult: 1
    decay_mult: 1
  }
  convolution_param {
    num_output: 32
    bias_term: false
    pad: 1
    kernel_size: 3
    group: 32
    stride: 1
    weight_filler {
      type: "msra"
    }
  }
}
layer {
  name: "bottleneck3_5/inner/dw1/bn"
  type: "BatchNorm"
  bottom: "bottleneck3_5/inner/dw1/conv"
  top: "bottleneck3_5/inner/dw1/conv"
  param {
    lr_mult: 0
    decay_mult: 0
  }
  param {
    lr_mult: 0
    decay_mult: 0
  }
  param {
    lr_mult: 0
    decay_mult: 0
  }
}
layer {
  name: "bottleneck3_5/inner/dw1/scale"
  type: "Scale"
  bottom: "bottleneck3_5/inner/dw1/conv"
  top: "bottleneck3_5/inner/dw1/conv"
  param {
    name: "bottleneck3_5/inner/dw1/scale/a"
    lr_mult: 1
    decay_mult: 0
  }
  param {
    name: "bottleneck3_5/inner/dw1/scale/b"
    lr_mult: 2
    decay_mult: 0
  }
  scale_param {
    axis: 1
    filler {
      value: 1
    }
    bias_term: true
    bias_filler {
      value: 0
    }
  }
}
layer {
  name: "bottleneck3_5/inner/dw1/fn"
  type: "ELU"
  bottom: "bottleneck3_5/inner/dw1/conv"
  top: "bottleneck3_5/inner/dw1/conv"
}
layer {
  name: "bottleneck3_5/dim_inc/conv"
  type: "Convolution"
  bottom: "bottleneck3_5/inner/dw1/conv"
  top: "bottleneck3_5/dim_inc/conv"
  param {
    name: "bottleneck3_5/dim_inc/conv/w"
    lr_mult: 1
    decay_mult: 1
  }
  convolution_param {
    num_output: 128
    bias_term: false
    pad: 0
    kernel_size: 1
    stride: 1
    weight_filler {
      type: "msra"
    }
  }
}
layer {
  name: "bottleneck3_5/dim_inc/bn"
  type: "BatchNorm"
  bottom: "bottleneck3_5/dim_inc/conv"
  top: "bottleneck3_5/dim_inc/conv"
  param {
    lr_mult: 0
    decay_mult: 0
  }
  param {
    lr_mult: 0
    decay_mult: 0
  }
  param {
    lr_mult: 0
    decay_mult: 0
  }
}
layer {
  name: "bottleneck3_5/dim_inc/scale"
  type: "Scale"
  bottom: "bottleneck3_5/dim_inc/conv"
  top: "bottleneck3_5/dim_inc/conv"
  param {
    name: "bottleneck3_5/dim_inc/scale/a"
    lr_mult: 1
    decay_mult: 0
  }
  param {
    name: "bottleneck3_5/dim_inc/scale/b"
    lr_mult: 2
    decay_mult: 0
  }
  scale_param {
    axis: 1
    filler {
      value: 1
    }
    bias_term: true
    bias_filler {
      value: 0
    }
  }
}
layer {
  name: "bottleneck3_5/add"
  type: "Eltwise"
  bottom: "bottleneck3_4/add"
  bottom: "bottleneck3_5/dim_inc/conv"
  top: "bottleneck3_5/add"
  eltwise_param {
    operation: SUM
  }
}
layer {
  name: "bottleneck3_5/fn"
  type: "ELU"
  bottom: "bottleneck3_5/add"
  top: "bottleneck3_5/add"
}
layer {
  name: "bottleneck3_6/dim_red/conv"
  type: "Convolution"
  bottom: "bottleneck3_5/add"
  top: "bottleneck3_6/dim_red/conv"
  param {
    name: "bottleneck3_6/dim_red/conv/w"
    lr_mult: 1
    decay_mult: 1
  }
  convolution_param {
    num_output: 32
    bias_term: false
    pad: 0
    kernel_size: 1
    stride: 1
    weight_filler {
      type: "msra"
    }
  }
}
layer {
  name: "bottleneck3_6/dim_red/bn"
  type: "BatchNorm"
  bottom: "bottleneck3_6/dim_red/conv"
  top: "bottleneck3_6/dim_red/conv"
  param {
    lr_mult: 0
    decay_mult: 0
  }
  param {
    lr_mult: 0
    decay_mult: 0
  }
  param {
    lr_mult: 0
    decay_mult: 0
  }
}
layer {
  name: "bottleneck3_6/dim_red/scale"
  type: "Scale"
  bottom: "bottleneck3_6/dim_red/conv"
  top: "bottleneck3_6/dim_red/conv"
  param {
    name: "bottleneck3_6/dim_red/scale/a"
    lr_mult: 1
    decay_mult: 0
  }
  param {
    name: "bottleneck3_6/dim_red/scale/b"
    lr_mult: 2
    decay_mult: 0
  }
  scale_param {
    axis: 1
    filler {
      value: 1
    }
    bias_term: true
    bias_filler {
      value: 0
    }
  }
}
layer {
  name: "bottleneck3_6/dim_red/fn"
  type: "ELU"
  bottom: "bottleneck3_6/dim_red/conv"
  top: "bottleneck3_6/dim_red/conv"
}
layer {
  name: "bottleneck3_6/inner/dw1/conv"
  type: "Convolution"
  bottom: "bottleneck3_6/dim_red/conv"
  top: "bottleneck3_6/inner/dw1/conv"
  param {
    name: "bottleneck3_6/inner/dw1/conv/w"
    lr_mult: 1
    decay_mult: 1
  }
  convolution_param {
    num_output: 32
    bias_term: false
    pad: 1
    kernel_size: 3
    group: 32
    stride: 1
    weight_filler {
      type: "msra"
    }
  }
}
layer {
  name: "bottleneck3_6/inner/dw1/bn"
  type: "BatchNorm"
  bottom: "bottleneck3_6/inner/dw1/conv"
  top: "bottleneck3_6/inner/dw1/conv"
  param {
    lr_mult: 0
    decay_mult: 0
  }
  param {
    lr_mult: 0
    decay_mult: 0
  }
  param {
    lr_mult: 0
    decay_mult: 0
  }
}
layer {
  name: "bottleneck3_6/inner/dw1/scale"
  type: "Scale"
  bottom: "bottleneck3_6/inner/dw1/conv"
  top: "bottleneck3_6/inner/dw1/conv"
  param {
    name: "bottleneck3_6/inner/dw1/scale/a"
    lr_mult: 1
    decay_mult: 0
  }
  param {
    name: "bottleneck3_6/inner/dw1/scale/b"
    lr_mult: 2
    decay_mult: 0
  }
  scale_param {
    axis: 1
    filler {
      value: 1
    }
    bias_term: true
    bias_filler {
      value: 0
    }
  }
}
layer {
  name: "bottleneck3_6/inner/dw1/fn"
  type: "ELU"
  bottom: "bottleneck3_6/inner/dw1/conv"
  top: "bottleneck3_6/inner/dw1/conv"
}
layer {
  name: "bottleneck3_6/dim_inc/conv"
  type: "Convolution"
  bottom: "bottleneck3_6/inner/dw1/conv"
  top: "bottleneck3_6/dim_inc/conv"
  param {
    name: "bottleneck3_6/dim_inc/conv/w"
    lr_mult: 1
    decay_mult: 1
  }
  convolution_param {
    num_output: 128
    bias_term: false
    pad: 0
    kernel_size: 1
    stride: 1
    weight_filler {
      type: "msra"
    }
  }
}
layer {
  name: "bottleneck3_6/dim_inc/bn"
  type: "BatchNorm"
  bottom: "bottleneck3_6/dim_inc/conv"
  top: "bottleneck3_6/dim_inc/conv"
  param {
    lr_mult: 0
    decay_mult: 0
  }
  param {
    lr_mult: 0
    decay_mult: 0
  }
  param {
    lr_mult: 0
    decay_mult: 0
  }
}
layer {
  name: "bottleneck3_6/dim_inc/scale"
  type: "Scale"
  bottom: "bottleneck3_6/dim_inc/conv"
  top: "bottleneck3_6/dim_inc/conv"
  param {
    name: "bottleneck3_6/dim_inc/scale/a"
    lr_mult: 1
    decay_mult: 0
  }
  param {
    name: "bottleneck3_6/dim_inc/scale/b"
    lr_mult: 2
    decay_mult: 0
  }
  scale_param {
    axis: 1
    filler {
      value: 1
    }
    bias_term: true
    bias_filler {
      value: 0
    }
  }
}
layer {
  name: "bottleneck3_6/add"
  type: "Eltwise"
  bottom: "bottleneck3_5/add"
  bottom: "bottleneck3_6/dim_inc/conv"
  top: "bottleneck3_6/add"
  eltwise_param {
    operation: SUM
  }
}
layer {
  name: "bottleneck3_6/fn"
  type: "ELU"
  bottom: "bottleneck3_6/add"
  top: "bottleneck3_6/add"
}
layer {
  name: "bottleneck3_7/dim_red/conv"
  type: "Convolution"
  bottom: "bottleneck3_6/add"
  top: "bottleneck3_7/dim_red/conv"
  param {
    name: "bottleneck3_7/dim_red/conv/w"
    lr_mult: 1
    decay_mult: 1
  }
  convolution_param {
    num_output: 32
    bias_term: false
    pad: 0
    kernel_size: 1
    stride: 1
    weight_filler {
      type: "msra"
    }
  }
}
layer {
  name: "bottleneck3_7/dim_red/bn"
  type: "BatchNorm"
  bottom: "bottleneck3_7/dim_red/conv"
  top: "bottleneck3_7/dim_red/conv"
  param {
    lr_mult: 0
    decay_mult: 0
  }
  param {
    lr_mult: 0
    decay_mult: 0
  }
  param {
    lr_mult: 0
    decay_mult: 0
  }
}
layer {
  name: "bottleneck3_7/dim_red/scale"
  type: "Scale"
  bottom: "bottleneck3_7/dim_red/conv"
  top: "bottleneck3_7/dim_red/conv"
  param {
    name: "bottleneck3_7/dim_red/scale/a"
    lr_mult: 1
    decay_mult: 0
  }
  param {
    name: "bottleneck3_7/dim_red/scale/b"
    lr_mult: 2
    decay_mult: 0
  }
  scale_param {
    axis: 1
    filler {
      value: 1
    }
    bias_term: true
    bias_filler {
      value: 0
    }
  }
}
layer {
  name: "bottleneck3_7/dim_red/fn"
  type: "ELU"
  bottom: "bottleneck3_7/dim_red/conv"
  top: "bottleneck3_7/dim_red/conv"
}
layer {
  name: "bottleneck3_7/inner/dw1/conv"
  type: "Convolution"
  bottom: "bottleneck3_7/dim_red/conv"
  top: "bottleneck3_7/inner/dw1/conv"
  param {
    name: "bottleneck3_7/inner/dw1/conv/w"
    lr_mult: 1
    decay_mult: 1
  }
  convolution_param {
    num_output: 32
    bias_term: false
    pad: 1
    kernel_size: 3
    group: 32
    stride: 1
    weight_filler {
      type: "msra"
    }
  }
}
layer {
  name: "bottleneck3_7/inner/dw1/bn"
  type: "BatchNorm"
  bottom: "bottleneck3_7/inner/dw1/conv"
  top: "bottleneck3_7/inner/dw1/conv"
  param {
    lr_mult: 0
    decay_mult: 0
  }
  param {
    lr_mult: 0
    decay_mult: 0
  }
  param {
    lr_mult: 0
    decay_mult: 0
  }
}
layer {
  name: "bottleneck3_7/inner/dw1/scale"
  type: "Scale"
  bottom: "bottleneck3_7/inner/dw1/conv"
  top: "bottleneck3_7/inner/dw1/conv"
  param {
    name: "bottleneck3_7/inner/dw1/scale/a"
    lr_mult: 1
    decay_mult: 0
  }
  param {
    name: "bottleneck3_7/inner/dw1/scale/b"
    lr_mult: 2
    decay_mult: 0
  }
  scale_param {
    axis: 1
    filler {
      value: 1
    }
    bias_term: true
    bias_filler {
      value: 0
    }
  }
}
layer {
  name: "bottleneck3_7/inner/dw1/fn"
  type: "ELU"
  bottom: "bottleneck3_7/inner/dw1/conv"
  top: "bottleneck3_7/inner/dw1/conv"
}
layer {
  name: "bottleneck3_7/dim_inc/conv"
  type: "Convolution"
  bottom: "bottleneck3_7/inner/dw1/conv"
  top: "bottleneck3_7/dim_inc/conv"
  param {
    name: "bottleneck3_7/dim_inc/conv/w"
    lr_mult: 1
    decay_mult: 1
  }
  convolution_param {
    num_output: 128
    bias_term: false
    pad: 0
    kernel_size: 1
    stride: 1
    weight_filler {
      type: "msra"
    }
  }
}
layer {
  name: "bottleneck3_7/dim_inc/bn"
  type: "BatchNorm"
  bottom: "bottleneck3_7/dim_inc/conv"
  top: "bottleneck3_7/dim_inc/conv"
  param {
    lr_mult: 0
    decay_mult: 0
  }
  param {
    lr_mult: 0
    decay_mult: 0
  }
  param {
    lr_mult: 0
    decay_mult: 0
  }
}
layer {
  name: "bottleneck3_7/dim_inc/scale"
  type: "Scale"
  bottom: "bottleneck3_7/dim_inc/conv"
  top: "bottleneck3_7/dim_inc/conv"
  param {
    name: "bottleneck3_7/dim_inc/scale/a"
    lr_mult: 1
    decay_mult: 0
  }
  param {
    name: "bottleneck3_7/dim_inc/scale/b"
    lr_mult: 2
    decay_mult: 0
  }
  scale_param {
    axis: 1
    filler {
      value: 1
    }
    bias_term: true
    bias_filler {
      value: 0
    }
  }
}
layer {
  name: "bottleneck3_7/add"
  type: "Eltwise"
  bottom: "bottleneck3_6/add"
  bottom: "bottleneck3_7/dim_inc/conv"
  top: "bottleneck3_7/add"
  eltwise_param {
    operation: SUM
  }
}
layer {
  name: "bottleneck3_7/fn"
  type: "ELU"
  bottom: "bottleneck3_7/add"
  top: "bottleneck3_7/add"
}
layer {
  name: "bottleneck3_8/dim_red/conv"
  type: "Convolution"
  bottom: "bottleneck3_7/add"
  top: "bottleneck3_8/dim_red/conv"
  param {
    name: "bottleneck3_8/dim_red/conv/w"
    lr_mult: 1
    decay_mult: 1
  }
  convolution_param {
    num_output: 32
    bias_term: false
    pad: 0
    kernel_size: 1
    stride: 1
    weight_filler {
      type: "msra"
    }
  }
}
layer {
  name: "bottleneck3_8/dim_red/bn"
  type: "BatchNorm"
  bottom: "bottleneck3_8/dim_red/conv"
  top: "bottleneck3_8/dim_red/conv"
  param {
    lr_mult: 0
    decay_mult: 0
  }
  param {
    lr_mult: 0
    decay_mult: 0
  }
  param {
    lr_mult: 0
    decay_mult: 0
  }
}
layer {
  name: "bottleneck3_8/dim_red/scale"
  type: "Scale"
  bottom: "bottleneck3_8/dim_red/conv"
  top: "bottleneck3_8/dim_red/conv"
  param {
    name: "bottleneck3_8/dim_red/scale/a"
    lr_mult: 1
    decay_mult: 0
  }
  param {
    name: "bottleneck3_8/dim_red/scale/b"
    lr_mult: 2
    decay_mult: 0
  }
  scale_param {
    axis: 1
    filler {
      value: 1
    }
    bias_term: true
    bias_filler {
      value: 0
    }
  }
}
layer {
  name: "bottleneck3_8/dim_red/fn"
  type: "ELU"
  bottom: "bottleneck3_8/dim_red/conv"
  top: "bottleneck3_8/dim_red/conv"
}
layer {
  name: "bottleneck3_8/inner/dw1/conv"
  type: "Convolution"
  bottom: "bottleneck3_8/dim_red/conv"
  top: "bottleneck3_8/inner/dw1/conv"
  param {
    name: "bottleneck3_8/inner/dw1/conv/w"
    lr_mult: 1
    decay_mult: 1
  }
  convolution_param {
    num_output: 32
    bias_term: false
    pad: 1
    kernel_size: 3
    group: 32
    stride: 1
    weight_filler {
      type: "msra"
    }
  }
}
layer {
  name: "bottleneck3_8/inner/dw1/bn"
  type: "BatchNorm"
  bottom: "bottleneck3_8/inner/dw1/conv"
  top: "bottleneck3_8/inner/dw1/conv"
  param {
    lr_mult: 0
    decay_mult: 0
  }
  param {
    lr_mult: 0
    decay_mult: 0
  }
  param {
    lr_mult: 0
    decay_mult: 0
  }
}
layer {
  name: "bottleneck3_8/inner/dw1/scale"
  type: "Scale"
  bottom: "bottleneck3_8/inner/dw1/conv"
  top: "bottleneck3_8/inner/dw1/conv"
  param {
    name: "bottleneck3_8/inner/dw1/scale/a"
    lr_mult: 1
    decay_mult: 0
  }
  param {
    name: "bottleneck3_8/inner/dw1/scale/b"
    lr_mult: 2
    decay_mult: 0
  }
  scale_param {
    axis: 1
    filler {
      value: 1
    }
    bias_term: true
    bias_filler {
      value: 0
    }
  }
}
layer {
  name: "bottleneck3_8/inner/dw1/fn"
  type: "ELU"
  bottom: "bottleneck3_8/inner/dw1/conv"
  top: "bottleneck3_8/inner/dw1/conv"
}
layer {
  name: "bottleneck3_8/dim_inc/conv"
  type: "Convolution"
  bottom: "bottleneck3_8/inner/dw1/conv"
  top: "bottleneck3_8/dim_inc/conv"
  param {
    name: "bottleneck3_8/dim_inc/conv/w"
    lr_mult: 1
    decay_mult: 1
  }
  convolution_param {
    num_output: 128
    bias_term: false
    pad: 0
    kernel_size: 1
    stride: 1
    weight_filler {
      type: "msra"
    }
  }
}
layer {
  name: "bottleneck3_8/dim_inc/bn"
  type: "BatchNorm"
  bottom: "bottleneck3_8/dim_inc/conv"
  top: "bottleneck3_8/dim_inc/conv"
  param {
    lr_mult: 0
    decay_mult: 0
  }
  param {
    lr_mult: 0
    decay_mult: 0
  }
  param {
    lr_mult: 0
    decay_mult: 0
  }
}
layer {
  name: "bottleneck3_8/dim_inc/scale"
  type: "Scale"
  bottom: "bottleneck3_8/dim_inc/conv"
  top: "bottleneck3_8/dim_inc/conv"
  param {
    name: "bottleneck3_8/dim_inc/scale/a"
    lr_mult: 1
    decay_mult: 0
  }
  param {
    name: "bottleneck3_8/dim_inc/scale/b"
    lr_mult: 2
    decay_mult: 0
  }
  scale_param {
    axis: 1
    filler {
      value: 1
    }
    bias_term: true
    bias_filler {
      value: 0
    }
  }
}
layer {
  name: "bottleneck3_8/add"
  type: "Eltwise"
  bottom: "bottleneck3_7/add"
  bottom: "bottleneck3_8/dim_inc/conv"
  top: "bottleneck3_8/add"
  eltwise_param {
    operation: SUM
  }
}
layer {
  name: "bottleneck3_8/fn"
  type: "ELU"
  bottom: "bottleneck3_8/add"
  top: "bottleneck3_8/add"
}
layer {
  name: "bottleneck3_9/dim_red/conv"
  type: "Convolution"
  bottom: "bottleneck3_8/add"
  top: "bottleneck3_9/dim_red/conv"
  param {
    name: "bottleneck3_9/dim_red/conv/w"
    lr_mult: 1
    decay_mult: 1
  }
  convolution_param {
    num_output: 32
    bias_term: false
    pad: 0
    kernel_size: 1
    stride: 1
    weight_filler {
      type: "msra"
    }
  }
}
layer {
  name: "bottleneck3_9/dim_red/bn"
  type: "BatchNorm"
  bottom: "bottleneck3_9/dim_red/conv"
  top: "bottleneck3_9/dim_red/conv"
  param {
    lr_mult: 0
    decay_mult: 0
  }
  param {
    lr_mult: 0
    decay_mult: 0
  }
  param {
    lr_mult: 0
    decay_mult: 0
  }
}
layer {
  name: "bottleneck3_9/dim_red/scale"
  type: "Scale"
  bottom: "bottleneck3_9/dim_red/conv"
  top: "bottleneck3_9/dim_red/conv"
  param {
    name: "bottleneck3_9/dim_red/scale/a"
    lr_mult: 1
    decay_mult: 0
  }
  param {
    name: "bottleneck3_9/dim_red/scale/b"
    lr_mult: 2
    decay_mult: 0
  }
  scale_param {
    axis: 1
    filler {
      value: 1
    }
    bias_term: true
    bias_filler {
      value: 0
    }
  }
}
layer {
  name: "bottleneck3_9/dim_red/fn"
  type: "ELU"
  bottom: "bottleneck3_9/dim_red/conv"
  top: "bottleneck3_9/dim_red/conv"
}
layer {
  name: "bottleneck3_9/inner/dw1/conv"
  type: "Convolution"
  bottom: "bottleneck3_9/dim_red/conv"
  top: "bottleneck3_9/inner/dw1/conv"
  param {
    name: "bottleneck3_9/inner/dw1/conv/w"
    lr_mult: 1
    decay_mult: 1
  }
  convolution_param {
    num_output: 32
    bias_term: false
    pad: 1
    kernel_size: 3
    group: 32
    stride: 1
    weight_filler {
      type: "msra"
    }
  }
}
layer {
  name: "bottleneck3_9/inner/dw1/bn"
  type: "BatchNorm"
  bottom: "bottleneck3_9/inner/dw1/conv"
  top: "bottleneck3_9/inner/dw1/conv"
  param {
    lr_mult: 0
    decay_mult: 0
  }
  param {
    lr_mult: 0
    decay_mult: 0
  }
  param {
    lr_mult: 0
    decay_mult: 0
  }
}
layer {
  name: "bottleneck3_9/inner/dw1/scale"
  type: "Scale"
  bottom: "bottleneck3_9/inner/dw1/conv"
  top: "bottleneck3_9/inner/dw1/conv"
  param {
    name: "bottleneck3_9/inner/dw1/scale/a"
    lr_mult: 1
    decay_mult: 0
  }
  param {
    name: "bottleneck3_9/inner/dw1/scale/b"
    lr_mult: 2
    decay_mult: 0
  }
  scale_param {
    axis: 1
    filler {
      value: 1
    }
    bias_term: true
    bias_filler {
      value: 0
    }
  }
}
layer {
  name: "bottleneck3_9/inner/dw1/fn"
  type: "ELU"
  bottom: "bottleneck3_9/inner/dw1/conv"
  top: "bottleneck3_9/inner/dw1/conv"
}
layer {
  name: "bottleneck3_9/dim_inc/conv"
  type: "Convolution"
  bottom: "bottleneck3_9/inner/dw1/conv"
  top: "bottleneck3_9/dim_inc/conv"
  param {
    name: "bottleneck3_9/dim_inc/conv/w"
    lr_mult: 1
    decay_mult: 1
  }
  convolution_param {
    num_output: 128
    bias_term: false
    pad: 0
    kernel_size: 1
    stride: 1
    weight_filler {
      type: "msra"
    }
  }
}
layer {
  name: "bottleneck3_9/dim_inc/bn"
  type: "BatchNorm"
  bottom: "bottleneck3_9/dim_inc/conv"
  top: "bottleneck3_9/dim_inc/conv"
  param {
    lr_mult: 0
    decay_mult: 0
  }
  param {
    lr_mult: 0
    decay_mult: 0
  }
  param {
    lr_mult: 0
    decay_mult: 0
  }
}
layer {
  name: "bottleneck3_9/dim_inc/scale"
  type: "Scale"
  bottom: "bottleneck3_9/dim_inc/conv"
  top: "bottleneck3_9/dim_inc/conv"
  param {
    name: "bottleneck3_9/dim_inc/scale/a"
    lr_mult: 1
    decay_mult: 0
  }
  param {
    name: "bottleneck3_9/dim_inc/scale/b"
    lr_mult: 2
    decay_mult: 0
  }
  scale_param {
    axis: 1
    filler {
      value: 1
    }
    bias_term: true
    bias_filler {
      value: 0
    }
  }
}
layer {
  name: "bottleneck3_9/add"
  type: "Eltwise"
  bottom: "bottleneck3_8/add"
  bottom: "bottleneck3_9/dim_inc/conv"
  top: "bottleneck3_9/add"
  eltwise_param {
    operation: SUM
  }
}
layer {
  name: "bottleneck3_9/fn"
  type: "ELU"
  bottom: "bottleneck3_9/add"
  top: "bottleneck3_9/add"
}
layer {
  name: "bottleneck3_10/dim_red/conv"
  type: "Convolution"
  bottom: "bottleneck3_9/add"
  top: "bottleneck3_10/dim_red/conv"
  param {
    name: "bottleneck3_10/dim_red/conv/w"
    lr_mult: 1
    decay_mult: 1
  }
  convolution_param {
    num_output: 32
    bias_term: false
    pad: 0
    kernel_size: 1
    stride: 1
    weight_filler {
      type: "msra"
    }
  }
}
layer {
  name: "bottleneck3_10/dim_red/bn"
  type: "BatchNorm"
  bottom: "bottleneck3_10/dim_red/conv"
  top: "bottleneck3_10/dim_red/conv"
  param {
    lr_mult: 0
    decay_mult: 0
  }
  param {
    lr_mult: 0
    decay_mult: 0
  }
  param {
    lr_mult: 0
    decay_mult: 0
  }
}
layer {
  name: "bottleneck3_10/dim_red/scale"
  type: "Scale"
  bottom: "bottleneck3_10/dim_red/conv"
  top: "bottleneck3_10/dim_red/conv"
  param {
    name: "bottleneck3_10/dim_red/scale/a"
    lr_mult: 1
    decay_mult: 0
  }
  param {
    name: "bottleneck3_10/dim_red/scale/b"
    lr_mult: 2
    decay_mult: 0
  }
  scale_param {
    axis: 1
    filler {
      value: 1
    }
    bias_term: true
    bias_filler {
      value: 0
    }
  }
}
layer {
  name: "bottleneck3_10/dim_red/fn"
  type: "ELU"
  bottom: "bottleneck3_10/dim_red/conv"
  top: "bottleneck3_10/dim_red/conv"
}
layer {
  name: "bottleneck3_10/inner/dw1/conv"
  type: "Convolution"
  bottom: "bottleneck3_10/dim_red/conv"
  top: "bottleneck3_10/inner/dw1/conv"
  param {
    name: "bottleneck3_10/inner/dw1/conv/w"
    lr_mult: 1
    decay_mult: 1
  }
  convolution_param {
    num_output: 32
    bias_term: false
    pad: 1
    kernel_size: 3
    group: 32
    stride: 1
    weight_filler {
      type: "msra"
    }
  }
}
layer {
  name: "bottleneck3_10/inner/dw1/bn"
  type: "BatchNorm"
  bottom: "bottleneck3_10/inner/dw1/conv"
  top: "bottleneck3_10/inner/dw1/conv"
  param {
    lr_mult: 0
    decay_mult: 0
  }
  param {
    lr_mult: 0
    decay_mult: 0
  }
  param {
    lr_mult: 0
    decay_mult: 0
  }
}
layer {
  name: "bottleneck3_10/inner/dw1/scale"
  type: "Scale"
  bottom: "bottleneck3_10/inner/dw1/conv"
  top: "bottleneck3_10/inner/dw1/conv"
  param {
    name: "bottleneck3_10/inner/dw1/scale/a"
    lr_mult: 1
    decay_mult: 0
  }
  param {
    name: "bottleneck3_10/inner/dw1/scale/b"
    lr_mult: 2
    decay_mult: 0
  }
  scale_param {
    axis: 1
    filler {
      value: 1
    }
    bias_term: true
    bias_filler {
      value: 0
    }
  }
}
layer {
  name: "bottleneck3_10/inner/dw1/fn"
  type: "ELU"
  bottom: "bottleneck3_10/inner/dw1/conv"
  top: "bottleneck3_10/inner/dw1/conv"
}
layer {
  name: "bottleneck3_10/dim_inc/conv"
  type: "Convolution"
  bottom: "bottleneck3_10/inner/dw1/conv"
  top: "bottleneck3_10/dim_inc/conv"
  param {
    name: "bottleneck3_10/dim_inc/conv/w"
    lr_mult: 1
    decay_mult: 1
  }
  convolution_param {
    num_output: 128
    bias_term: false
    pad: 0
    kernel_size: 1
    stride: 1
    weight_filler {
      type: "msra"
    }
  }
}
layer {
  name: "bottleneck3_10/dim_inc/bn"
  type: "BatchNorm"
  bottom: "bottleneck3_10/dim_inc/conv"
  top: "bottleneck3_10/dim_inc/conv"
  param {
    lr_mult: 0
    decay_mult: 0
  }
  param {
    lr_mult: 0
    decay_mult: 0
  }
  param {
    lr_mult: 0
    decay_mult: 0
  }
}
layer {
  name: "bottleneck3_10/dim_inc/scale"
  type: "Scale"
  bottom: "bottleneck3_10/dim_inc/conv"
  top: "bottleneck3_10/dim_inc/conv"
  param {
    name: "bottleneck3_10/dim_inc/scale/a"
    lr_mult: 1
    decay_mult: 0
  }
  param {
    name: "bottleneck3_10/dim_inc/scale/b"
    lr_mult: 2
    decay_mult: 0
  }
  scale_param {
    axis: 1
    filler {
      value: 1
    }
    bias_term: true
    bias_filler {
      value: 0
    }
  }
}
layer {
  name: "bottleneck3_10/add"
  type: "Eltwise"
  bottom: "bottleneck3_9/add"
  bottom: "bottleneck3_10/dim_inc/conv"
  top: "bottleneck3_10/add"
  eltwise_param {
    operation: SUM
  }
}
layer {
  name: "bottleneck3_10/fn"
  type: "ELU"
  bottom: "bottleneck3_10/add"
  top: "bottleneck3_10/add"
}
layer {
  name: "bottleneck4_0/dim_red/conv"
  type: "Convolution"
  bottom: "bottleneck3_10/add"
  top: "bottleneck4_0/dim_red/conv"
  param {
    name: "bottleneck4_0/dim_red/conv/w"
    lr_mult: 1
    decay_mult: 1
  }
  convolution_param {
    num_output: 64
    bias_term: false
    pad: 0
    kernel_size: 1
    stride: 1
    weight_filler {
      type: "msra"
    }
  }
}
layer {
  name: "bottleneck4_0/dim_red/bn"
  type: "BatchNorm"
  bottom: "bottleneck4_0/dim_red/conv"
  top: "bottleneck4_0/dim_red/conv"
  param {
    lr_mult: 0
    decay_mult: 0
  }
  param {
    lr_mult: 0
    decay_mult: 0
  }
  param {
    lr_mult: 0
    decay_mult: 0
  }
}
layer {
  name: "bottleneck4_0/dim_red/scale"
  type: "Scale"
  bottom: "bottleneck4_0/dim_red/conv"
  top: "bottleneck4_0/dim_red/conv"
  param {
    name: "bottleneck4_0/dim_red/scale/a"
    lr_mult: 1
    decay_mult: 0
  }
  param {
    name: "bottleneck4_0/dim_red/scale/b"
    lr_mult: 2
    decay_mult: 0
  }
  scale_param {
    axis: 1
    filler {
      value: 1
    }
    bias_term: true
    bias_filler {
      value: 0
    }
  }
}
layer {
  name: "bottleneck4_0/dim_red/fn"
  type: "ELU"
  bottom: "bottleneck4_0/dim_red/conv"
  top: "bottleneck4_0/dim_red/conv"
}
layer {
  name: "bottleneck4_0/inner/dw1/conv"
  type: "Convolution"
  bottom: "bottleneck4_0/dim_red/conv"
  top: "bottleneck4_0/inner/dw1/conv"
  param {
    name: "bottleneck4_0/inner/dw1/conv/w"
    lr_mult: 1
    decay_mult: 1
  }
  convolution_param {
    num_output: 64
    bias_term: false
    pad: 1
    kernel_size: 3
    group: 64
    stride: 2
    weight_filler {
      type: "msra"
    }
  }
}
layer {
  name: "bottleneck4_0/inner/dw1/bn"
  type: "BatchNorm"
  bottom: "bottleneck4_0/inner/dw1/conv"
  top: "bottleneck4_0/inner/dw1/conv"
  param {
    lr_mult: 0
    decay_mult: 0
  }
  param {
    lr_mult: 0
    decay_mult: 0
  }
  param {
    lr_mult: 0
    decay_mult: 0
  }
}
layer {
  name: "bottleneck4_0/inner/dw1/scale"
  type: "Scale"
  bottom: "bottleneck4_0/inner/dw1/conv"
  top: "bottleneck4_0/inner/dw1/conv"
  param {
    name: "bottleneck4_0/inner/dw1/scale/a"
    lr_mult: 1
    decay_mult: 0
  }
  param {
    name: "bottleneck4_0/inner/dw1/scale/b"
    lr_mult: 2
    decay_mult: 0
  }
  scale_param {
    axis: 1
    filler {
      value: 1
    }
    bias_term: true
    bias_filler {
      value: 0
    }
  }
}
layer {
  name: "bottleneck4_0/inner/dw1/fn"
  type: "ELU"
  bottom: "bottleneck4_0/inner/dw1/conv"
  top: "bottleneck4_0/inner/dw1/conv"
}
layer {
  name: "bottleneck4_0/dim_inc/conv"
  type: "Convolution"
  bottom: "bottleneck4_0/inner/dw1/conv"
  top: "bottleneck4_0/dim_inc/conv"
  param {
    name: "bottleneck4_0/dim_inc/conv/w"
    lr_mult: 1
    decay_mult: 1
  }
  convolution_param {
    num_output: 256
    bias_term: false
    pad: 0
    kernel_size: 1
    stride: 1
    weight_filler {
      type: "msra"
    }
  }
}
layer {
  name: "bottleneck4_0/dim_inc/bn"
  type: "BatchNorm"
  bottom: "bottleneck4_0/dim_inc/conv"
  top: "bottleneck4_0/dim_inc/conv"
  param {
    lr_mult: 0
    decay_mult: 0
  }
  param {
    lr_mult: 0
    decay_mult: 0
  }
  param {
    lr_mult: 0
    decay_mult: 0
  }
}
layer {
  name: "bottleneck4_0/dim_inc/scale"
  type: "Scale"
  bottom: "bottleneck4_0/dim_inc/conv"
  top: "bottleneck4_0/dim_inc/conv"
  param {
    name: "bottleneck4_0/dim_inc/scale/a"
    lr_mult: 1
    decay_mult: 0
  }
  param {
    name: "bottleneck4_0/dim_inc/scale/b"
    lr_mult: 2
    decay_mult: 0
  }
  scale_param {
    axis: 1
    filler {
      value: 1
    }
    bias_term: true
    bias_filler {
      value: 0
    }
  }
}
layer {
  name: "bottleneck4_0/skip/pooling"
  type: "Pooling"
  bottom: "bottleneck3_10/add"
  top: "bottleneck4_0/skip/pooling"
  pooling_param {
    pool: MAX
    kernel_size: 2
    stride: 2
    pad: 0
  }
}
layer {
  name: "bottleneck4_0/skip/conv"
  type: "Convolution"
  bottom: "bottleneck4_0/skip/pooling"
  top: "bottleneck4_0/skip/conv"
  param {
    name: "bottleneck4_0/skip/conv/w"
    lr_mult: 1
    decay_mult: 1
  }
  convolution_param {
    num_output: 256
    bias_term: false
    pad: 0
    kernel_size: 1
    stride: 1
    weight_filler {
      type: "msra"
    }
  }
}
layer {
  name: "bottleneck4_0/skip/bn"
  type: "BatchNorm"
  bottom: "bottleneck4_0/skip/conv"
  top: "bottleneck4_0/skip/conv"
  param {
    lr_mult: 0
    decay_mult: 0
  }
  param {
    lr_mult: 0
    decay_mult: 0
  }
  param {
    lr_mult: 0
    decay_mult: 0
  }
}
layer {
  name: "bottleneck4_0/skip/scale"
  type: "Scale"
  bottom: "bottleneck4_0/skip/conv"
  top: "bottleneck4_0/skip/conv"
  param {
    name: "bottleneck4_0/skip/scale/a"
    lr_mult: 1
    decay_mult: 0
  }
  param {
    name: "bottleneck4_0/skip/scale/b"
    lr_mult: 2
    decay_mult: 0
  }
  scale_param {
    axis: 1
    filler {
      value: 1
    }
    bias_term: true
    bias_filler {
      value: 0
    }
  }
}
layer {
  name: "bottleneck4_0/add"
  type: "Eltwise"
  bottom: "bottleneck4_0/skip/conv"
  bottom: "bottleneck4_0/dim_inc/conv"
  top: "bottleneck4_0/add"
  eltwise_param {
    operation: SUM
  }
}
layer {
  name: "bottleneck4_0/fn"
  type: "ELU"
  bottom: "bottleneck4_0/add"
  top: "bottleneck4_0/add"
}
layer {
  name: "bottleneck4_1/dim_red/conv"
  type: "Convolution"
  bottom: "bottleneck4_0/add"
  top: "bottleneck4_1/dim_red/conv"
  param {
    name: "bottleneck4_1/dim_red/conv/w"
    lr_mult: 1
    decay_mult: 1
  }
  convolution_param {
    num_output: 64
    bias_term: false
    pad: 0
    kernel_size: 1
    stride: 1
    weight_filler {
      type: "msra"
    }
  }
}
layer {
  name: "bottleneck4_1/dim_red/bn"
  type: "BatchNorm"
  bottom: "bottleneck4_1/dim_red/conv"
  top: "bottleneck4_1/dim_red/conv"
  param {
    lr_mult: 0
    decay_mult: 0
  }
  param {
    lr_mult: 0
    decay_mult: 0
  }
  param {
    lr_mult: 0
    decay_mult: 0
  }
}
layer {
  name: "bottleneck4_1/dim_red/scale"
  type: "Scale"
  bottom: "bottleneck4_1/dim_red/conv"
  top: "bottleneck4_1/dim_red/conv"
  param {
    name: "bottleneck4_1/dim_red/scale/a"
    lr_mult: 1
    decay_mult: 0
  }
  param {
    name: "bottleneck4_1/dim_red/scale/b"
    lr_mult: 2
    decay_mult: 0
  }
  scale_param {
    axis: 1
    filler {
      value: 1
    }
    bias_term: true
    bias_filler {
      value: 0
    }
  }
}
layer {
  name: "bottleneck4_1/dim_red/fn"
  type: "ELU"
  bottom: "bottleneck4_1/dim_red/conv"
  top: "bottleneck4_1/dim_red/conv"
}
layer {
  name: "bottleneck4_1/inner/dw1/conv"
  type: "Convolution"
  bottom: "bottleneck4_1/dim_red/conv"
  top: "bottleneck4_1/inner/dw1/conv"
  param {
    name: "bottleneck4_1/inner/dw1/conv/w"
    lr_mult: 1
    decay_mult: 1
  }
  convolution_param {
    num_output: 64
    bias_term: false
    pad: 1
    kernel_size: 3
    group: 64
    stride: 1
    weight_filler {
      type: "msra"
    }
  }
}
layer {
  name: "bottleneck4_1/inner/dw1/bn"
  type: "BatchNorm"
  bottom: "bottleneck4_1/inner/dw1/conv"
  top: "bottleneck4_1/inner/dw1/conv"
  param {
    lr_mult: 0
    decay_mult: 0
  }
  param {
    lr_mult: 0
    decay_mult: 0
  }
  param {
    lr_mult: 0
    decay_mult: 0
  }
}
layer {
  name: "bottleneck4_1/inner/dw1/scale"
  type: "Scale"
  bottom: "bottleneck4_1/inner/dw1/conv"
  top: "bottleneck4_1/inner/dw1/conv"
  param {
    name: "bottleneck4_1/inner/dw1/scale/a"
    lr_mult: 1
    decay_mult: 0
  }
  param {
    name: "bottleneck4_1/inner/dw1/scale/b"
    lr_mult: 2
    decay_mult: 0
  }
  scale_param {
    axis: 1
    filler {
      value: 1
    }
    bias_term: true
    bias_filler {
      value: 0
    }
  }
}
layer {
  name: "bottleneck4_1/inner/dw1/fn"
  type: "ELU"
  bottom: "bottleneck4_1/inner/dw1/conv"
  top: "bottleneck4_1/inner/dw1/conv"
}
layer {
  name: "bottleneck4_1/dim_inc/conv"
  type: "Convolution"
  bottom: "bottleneck4_1/inner/dw1/conv"
  top: "bottleneck4_1/dim_inc/conv"
  param {
    name: "bottleneck4_1/dim_inc/conv/w"
    lr_mult: 1
    decay_mult: 1
  }
  convolution_param {
    num_output: 256
    bias_term: false
    pad: 0
    kernel_size: 1
    stride: 1
    weight_filler {
      type: "msra"
    }
  }
}
layer {
  name: "bottleneck4_1/dim_inc/bn"
  type: "BatchNorm"
  bottom: "bottleneck4_1/dim_inc/conv"
  top: "bottleneck4_1/dim_inc/conv"
  param {
    lr_mult: 0
    decay_mult: 0
  }
  param {
    lr_mult: 0
    decay_mult: 0
  }
  param {
    lr_mult: 0
    decay_mult: 0
  }
}
layer {
  name: "bottleneck4_1/dim_inc/scale"
  type: "Scale"
  bottom: "bottleneck4_1/dim_inc/conv"
  top: "bottleneck4_1/dim_inc/conv"
  param {
    name: "bottleneck4_1/dim_inc/scale/a"
    lr_mult: 1
    decay_mult: 0
  }
  param {
    name: "bottleneck4_1/dim_inc/scale/b"
    lr_mult: 2
    decay_mult: 0
  }
  scale_param {
    axis: 1
    filler {
      value: 1
    }
    bias_term: true
    bias_filler {
      value: 0
    }
  }
}
layer {
  name: "bottleneck4_1/add"
  type: "Eltwise"
  bottom: "bottleneck4_0/add"
  bottom: "bottleneck4_1/dim_inc/conv"
  top: "bottleneck4_1/add"
  eltwise_param {
    operation: SUM
  }
}
layer {
  name: "bottleneck4_1/fn"
  type: "ELU"
  bottom: "bottleneck4_1/add"
  top: "bottleneck4_1/add"
}
layer {
  name: "bottleneck4_2/dim_red/conv"
  type: "Convolution"
  bottom: "bottleneck4_1/add"
  top: "bottleneck4_2/dim_red/conv"
  param {
    name: "bottleneck4_2/dim_red/conv/w"
    lr_mult: 1
    decay_mult: 1
  }
  convolution_param {
    num_output: 64
    bias_term: false
    pad: 0
    kernel_size: 1
    stride: 1
    weight_filler {
      type: "msra"
    }
  }
}
layer {
  name: "bottleneck4_2/dim_red/bn"
  type: "BatchNorm"
  bottom: "bottleneck4_2/dim_red/conv"
  top: "bottleneck4_2/dim_red/conv"
  param {
    lr_mult: 0
    decay_mult: 0
  }
  param {
    lr_mult: 0
    decay_mult: 0
  }
  param {
    lr_mult: 0
    decay_mult: 0
  }
}
layer {
  name: "bottleneck4_2/dim_red/scale"
  type: "Scale"
  bottom: "bottleneck4_2/dim_red/conv"
  top: "bottleneck4_2/dim_red/conv"
  param {
    name: "bottleneck4_2/dim_red/scale/a"
    lr_mult: 1
    decay_mult: 0
  }
  param {
    name: "bottleneck4_2/dim_red/scale/b"
    lr_mult: 2
    decay_mult: 0
  }
  scale_param {
    axis: 1
    filler {
      value: 1
    }
    bias_term: true
    bias_filler {
      value: 0
    }
  }
}
layer {
  name: "bottleneck4_2/dim_red/fn"
  type: "ELU"
  bottom: "bottleneck4_2/dim_red/conv"
  top: "bottleneck4_2/dim_red/conv"
}
layer {
  name: "bottleneck4_2/inner/dw1/conv"
  type: "Convolution"
  bottom: "bottleneck4_2/dim_red/conv"
  top: "bottleneck4_2/inner/dw1/conv"
  param {
    name: "bottleneck4_2/inner/dw1/conv/w"
    lr_mult: 1
    decay_mult: 1
  }
  convolution_param {
    num_output: 64
    bias_term: false
    pad: 1
    kernel_size: 3
    group: 64
    stride: 1
    weight_filler {
      type: "msra"
    }
  }
}
layer {
  name: "bottleneck4_2/inner/dw1/bn"
  type: "BatchNorm"
  bottom: "bottleneck4_2/inner/dw1/conv"
  top: "bottleneck4_2/inner/dw1/conv"
  param {
    lr_mult: 0
    decay_mult: 0
  }
  param {
    lr_mult: 0
    decay_mult: 0
  }
  param {
    lr_mult: 0
    decay_mult: 0
  }
}
layer {
  name: "bottleneck4_2/inner/dw1/scale"
  type: "Scale"
  bottom: "bottleneck4_2/inner/dw1/conv"
  top: "bottleneck4_2/inner/dw1/conv"
  param {
    name: "bottleneck4_2/inner/dw1/scale/a"
    lr_mult: 1
    decay_mult: 0
  }
  param {
    name: "bottleneck4_2/inner/dw1/scale/b"
    lr_mult: 2
    decay_mult: 0
  }
  scale_param {
    axis: 1
    filler {
      value: 1
    }
    bias_term: true
    bias_filler {
      value: 0
    }
  }
}
layer {
  name: "bottleneck4_2/inner/dw1/fn"
  type: "ELU"
  bottom: "bottleneck4_2/inner/dw1/conv"
  top: "bottleneck4_2/inner/dw1/conv"
}
layer {
  name: "bottleneck4_2/dim_inc/conv"
  type: "Convolution"
  bottom: "bottleneck4_2/inner/dw1/conv"
  top: "bottleneck4_2/dim_inc/conv"
  param {
    name: "bottleneck4_2/dim_inc/conv/w"
    lr_mult: 1
    decay_mult: 1
  }
  convolution_param {
    num_output: 256
    bias_term: false
    pad: 0
    kernel_size: 1
    stride: 1
    weight_filler {
      type: "msra"
    }
  }
}
layer {
  name: "bottleneck4_2/dim_inc/bn"
  type: "BatchNorm"
  bottom: "bottleneck4_2/dim_inc/conv"
  top: "bottleneck4_2/dim_inc/conv"
  param {
    lr_mult: 0
    decay_mult: 0
  }
  param {
    lr_mult: 0
    decay_mult: 0
  }
  param {
    lr_mult: 0
    decay_mult: 0
  }
}
layer {
  name: "bottleneck4_2/dim_inc/scale"
  type: "Scale"
  bottom: "bottleneck4_2/dim_inc/conv"
  top: "bottleneck4_2/dim_inc/conv"
  param {
    name: "bottleneck4_2/dim_inc/scale/a"
    lr_mult: 1
    decay_mult: 0
  }
  param {
    name: "bottleneck4_2/dim_inc/scale/b"
    lr_mult: 2
    decay_mult: 0
  }
  scale_param {
    axis: 1
    filler {
      value: 1
    }
    bias_term: true
    bias_filler {
      value: 0
    }
  }
}
layer {
  name: "bottleneck4_2/add"
  type: "Eltwise"
  bottom: "bottleneck4_1/add"
  bottom: "bottleneck4_2/dim_inc/conv"
  top: "bottleneck4_2/add"
  eltwise_param {
    operation: SUM
  }
}
layer {
  name: "bottleneck4_2/fn"
  type: "ELU"
  bottom: "bottleneck4_2/add"
  top: "bottleneck4_2/add"
}
layer {
  name: "bottleneck4_3/dim_red/conv"
  type: "Convolution"
  bottom: "bottleneck4_2/add"
  top: "bottleneck4_3/dim_red/conv"
  param {
    name: "bottleneck4_3/dim_red/conv/w"
    lr_mult: 1
    decay_mult: 1
  }
  convolution_param {
    num_output: 64
    bias_term: false
    pad: 0
    kernel_size: 1
    stride: 1
    weight_filler {
      type: "msra"
    }
  }
}
layer {
  name: "bottleneck4_3/dim_red/bn"
  type: "BatchNorm"
  bottom: "bottleneck4_3/dim_red/conv"
  top: "bottleneck4_3/dim_red/conv"
  param {
    lr_mult: 0
    decay_mult: 0
  }
  param {
    lr_mult: 0
    decay_mult: 0
  }
  param {
    lr_mult: 0
    decay_mult: 0
  }
}
layer {
  name: "bottleneck4_3/dim_red/scale"
  type: "Scale"
  bottom: "bottleneck4_3/dim_red/conv"
  top: "bottleneck4_3/dim_red/conv"
  param {
    name: "bottleneck4_3/dim_red/scale/a"
    lr_mult: 1
    decay_mult: 0
  }
  param {
    name: "bottleneck4_3/dim_red/scale/b"
    lr_mult: 2
    decay_mult: 0
  }
  scale_param {
    axis: 1
    filler {
      value: 1
    }
    bias_term: true
    bias_filler {
      value: 0
    }
  }
}
layer {
  name: "bottleneck4_3/dim_red/fn"
  type: "ELU"
  bottom: "bottleneck4_3/dim_red/conv"
  top: "bottleneck4_3/dim_red/conv"
}
layer {
  name: "bottleneck4_3/inner/dw1/conv"
  type: "Convolution"
  bottom: "bottleneck4_3/dim_red/conv"
  top: "bottleneck4_3/inner/dw1/conv"
  param {
    name: "bottleneck4_3/inner/dw1/conv/w"
    lr_mult: 1
    decay_mult: 1
  }
  convolution_param {
    num_output: 64
    bias_term: false
    pad: 1
    kernel_size: 3
    group: 64
    stride: 1
    weight_filler {
      type: "msra"
    }
  }
}
layer {
  name: "bottleneck4_3/inner/dw1/bn"
  type: "BatchNorm"
  bottom: "bottleneck4_3/inner/dw1/conv"
  top: "bottleneck4_3/inner/dw1/conv"
  param {
    lr_mult: 0
    decay_mult: 0
  }
  param {
    lr_mult: 0
    decay_mult: 0
  }
  param {
    lr_mult: 0
    decay_mult: 0
  }
}
layer {
  name: "bottleneck4_3/inner/dw1/scale"
  type: "Scale"
  bottom: "bottleneck4_3/inner/dw1/conv"
  top: "bottleneck4_3/inner/dw1/conv"
  param {
    name: "bottleneck4_3/inner/dw1/scale/a"
    lr_mult: 1
    decay_mult: 0
  }
  param {
    name: "bottleneck4_3/inner/dw1/scale/b"
    lr_mult: 2
    decay_mult: 0
  }
  scale_param {
    axis: 1
    filler {
      value: 1
    }
    bias_term: true
    bias_filler {
      value: 0
    }
  }
}
layer {
  name: "bottleneck4_3/inner/dw1/fn"
  type: "ELU"
  bottom: "bottleneck4_3/inner/dw1/conv"
  top: "bottleneck4_3/inner/dw1/conv"
}
layer {
  name: "bottleneck4_3/dim_inc/conv"
  type: "Convolution"
  bottom: "bottleneck4_3/inner/dw1/conv"
  top: "bottleneck4_3/dim_inc/conv"
  param {
    name: "bottleneck4_3/dim_inc/conv/w"
    lr_mult: 1
    decay_mult: 1
  }
  convolution_param {
    num_output: 256
    bias_term: false
    pad: 0
    kernel_size: 1
    stride: 1
    weight_filler {
      type: "msra"
    }
  }
}
layer {
  name: "bottleneck4_3/dim_inc/bn"
  type: "BatchNorm"
  bottom: "bottleneck4_3/dim_inc/conv"
  top: "bottleneck4_3/dim_inc/conv"
  param {
    lr_mult: 0
    decay_mult: 0
  }
  param {
    lr_mult: 0
    decay_mult: 0
  }
  param {
    lr_mult: 0
    decay_mult: 0
  }
}
layer {
  name: "bottleneck4_3/dim_inc/scale"
  type: "Scale"
  bottom: "bottleneck4_3/dim_inc/conv"
  top: "bottleneck4_3/dim_inc/conv"
  param {
    name: "bottleneck4_3/dim_inc/scale/a"
    lr_mult: 1
    decay_mult: 0
  }
  param {
    name: "bottleneck4_3/dim_inc/scale/b"
    lr_mult: 2
    decay_mult: 0
  }
  scale_param {
    axis: 1
    filler {
      value: 1
    }
    bias_term: true
    bias_filler {
      value: 0
    }
  }
}
layer {
  name: "bottleneck4_3/add"
  type: "Eltwise"
  bottom: "bottleneck4_2/add"
  bottom: "bottleneck4_3/dim_inc/conv"
  top: "bottleneck4_3/add"
  eltwise_param {
    operation: SUM
  }
}
layer {
  name: "bottleneck4_3/fn"
  type: "ELU"
  bottom: "bottleneck4_3/add"
  top: "bottleneck4_3/add"
}
layer {
  name: "bottleneck4_4/dim_red/conv"
  type: "Convolution"
  bottom: "bottleneck4_3/add"
  top: "bottleneck4_4/dim_red/conv"
  param {
    name: "bottleneck4_4/dim_red/conv/w"
    lr_mult: 1
    decay_mult: 1
  }
  convolution_param {
    num_output: 64
    bias_term: false
    pad: 0
    kernel_size: 1
    stride: 1
    weight_filler {
      type: "msra"
    }
  }
}
layer {
  name: "bottleneck4_4/dim_red/bn"
  type: "BatchNorm"
  bottom: "bottleneck4_4/dim_red/conv"
  top: "bottleneck4_4/dim_red/conv"
  param {
    lr_mult: 0
    decay_mult: 0
  }
  param {
    lr_mult: 0
    decay_mult: 0
  }
  param {
    lr_mult: 0
    decay_mult: 0
  }
}
layer {
  name: "bottleneck4_4/dim_red/scale"
  type: "Scale"
  bottom: "bottleneck4_4/dim_red/conv"
  top: "bottleneck4_4/dim_red/conv"
  param {
    name: "bottleneck4_4/dim_red/scale/a"
    lr_mult: 1
    decay_mult: 0
  }
  param {
    name: "bottleneck4_4/dim_red/scale/b"
    lr_mult: 2
    decay_mult: 0
  }
  scale_param {
    axis: 1
    filler {
      value: 1
    }
    bias_term: true
    bias_filler {
      value: 0
    }
  }
}
layer {
  name: "bottleneck4_4/dim_red/fn"
  type: "ELU"
  bottom: "bottleneck4_4/dim_red/conv"
  top: "bottleneck4_4/dim_red/conv"
}
layer {
  name: "bottleneck4_4/inner/dw1/conv"
  type: "Convolution"
  bottom: "bottleneck4_4/dim_red/conv"
  top: "bottleneck4_4/inner/dw1/conv"
  param {
    name: "bottleneck4_4/inner/dw1/conv/w"
    lr_mult: 1
    decay_mult: 1
  }
  convolution_param {
    num_output: 64
    bias_term: false
    pad: 1
    kernel_size: 3
    group: 64
    stride: 1
    weight_filler {
      type: "msra"
    }
  }
}
layer {
  name: "bottleneck4_4/inner/dw1/bn"
  type: "BatchNorm"
  bottom: "bottleneck4_4/inner/dw1/conv"
  top: "bottleneck4_4/inner/dw1/conv"
  param {
    lr_mult: 0
    decay_mult: 0
  }
  param {
    lr_mult: 0
    decay_mult: 0
  }
  param {
    lr_mult: 0
    decay_mult: 0
  }
}
layer {
  name: "bottleneck4_4/inner/dw1/scale"
  type: "Scale"
  bottom: "bottleneck4_4/inner/dw1/conv"
  top: "bottleneck4_4/inner/dw1/conv"
  param {
    name: "bottleneck4_4/inner/dw1/scale/a"
    lr_mult: 1
    decay_mult: 0
  }
  param {
    name: "bottleneck4_4/inner/dw1/scale/b"
    lr_mult: 2
    decay_mult: 0
  }
  scale_param {
    axis: 1
    filler {
      value: 1
    }
    bias_term: true
    bias_filler {
      value: 0
    }
  }
}
layer {
  name: "bottleneck4_4/inner/dw1/fn"
  type: "ELU"
  bottom: "bottleneck4_4/inner/dw1/conv"
  top: "bottleneck4_4/inner/dw1/conv"
}
layer {
  name: "bottleneck4_4/dim_inc/conv"
  type: "Convolution"
  bottom: "bottleneck4_4/inner/dw1/conv"
  top: "bottleneck4_4/dim_inc/conv"
  param {
    name: "bottleneck4_4/dim_inc/conv/w"
    lr_mult: 1
    decay_mult: 1
  }
  convolution_param {
    num_output: 256
    bias_term: false
    pad: 0
    kernel_size: 1
    stride: 1
    weight_filler {
      type: "msra"
    }
  }
}
layer {
  name: "bottleneck4_4/dim_inc/bn"
  type: "BatchNorm"
  bottom: "bottleneck4_4/dim_inc/conv"
  top: "bottleneck4_4/dim_inc/conv"
  param {
    lr_mult: 0
    decay_mult: 0
  }
  param {
    lr_mult: 0
    decay_mult: 0
  }
  param {
    lr_mult: 0
    decay_mult: 0
  }
}
layer {
  name: "bottleneck4_4/dim_inc/scale"
  type: "Scale"
  bottom: "bottleneck4_4/dim_inc/conv"
  top: "bottleneck4_4/dim_inc/conv"
  param {
    name: "bottleneck4_4/dim_inc/scale/a"
    lr_mult: 1
    decay_mult: 0
  }
  param {
    name: "bottleneck4_4/dim_inc/scale/b"
    lr_mult: 2
    decay_mult: 0
  }
  scale_param {
    axis: 1
    filler {
      value: 1
    }
    bias_term: true
    bias_filler {
      value: 0
    }
  }
}
layer {
  name: "bottleneck4_4/add"
  type: "Eltwise"
  bottom: "bottleneck4_3/add"
  bottom: "bottleneck4_4/dim_inc/conv"
  top: "bottleneck4_4/add"
  eltwise_param {
    operation: SUM
  }
}
layer {
  name: "bottleneck4_4/fn"
  type: "ELU"
  bottom: "bottleneck4_4/add"
  top: "bottleneck4_4/add"
}
layer {
  name: "bottleneck4_5/dim_red/conv"
  type: "Convolution"
  bottom: "bottleneck4_4/add"
  top: "bottleneck4_5/dim_red/conv"
  param {
    name: "bottleneck4_5/dim_red/conv/w"
    lr_mult: 1
    decay_mult: 1
  }
  convolution_param {
    num_output: 64
    bias_term: false
    pad: 0
    kernel_size: 1
    stride: 1
    weight_filler {
      type: "msra"
    }
  }
}
layer {
  name: "bottleneck4_5/dim_red/bn"
  type: "BatchNorm"
  bottom: "bottleneck4_5/dim_red/conv"
  top: "bottleneck4_5/dim_red/conv"
  param {
    lr_mult: 0
    decay_mult: 0
  }
  param {
    lr_mult: 0
    decay_mult: 0
  }
  param {
    lr_mult: 0
    decay_mult: 0
  }
}
layer {
  name: "bottleneck4_5/dim_red/scale"
  type: "Scale"
  bottom: "bottleneck4_5/dim_red/conv"
  top: "bottleneck4_5/dim_red/conv"
  param {
    name: "bottleneck4_5/dim_red/scale/a"
    lr_mult: 1
    decay_mult: 0
  }
  param {
    name: "bottleneck4_5/dim_red/scale/b"
    lr_mult: 2
    decay_mult: 0
  }
  scale_param {
    axis: 1
    filler {
      value: 1
    }
    bias_term: true
    bias_filler {
      value: 0
    }
  }
}
layer {
  name: "bottleneck4_5/dim_red/fn"
  type: "ELU"
  bottom: "bottleneck4_5/dim_red/conv"
  top: "bottleneck4_5/dim_red/conv"
}
layer {
  name: "bottleneck4_5/inner/dw1/conv"
  type: "Convolution"
  bottom: "bottleneck4_5/dim_red/conv"
  top: "bottleneck4_5/inner/dw1/conv"
  param {
    name: "bottleneck4_5/inner/dw1/conv/w"
    lr_mult: 1
    decay_mult: 1
  }
  convolution_param {
    num_output: 64
    bias_term: false
    pad: 1
    kernel_size: 3
    group: 64
    stride: 1
    weight_filler {
      type: "msra"
    }
  }
}
layer {
  name: "bottleneck4_5/inner/dw1/bn"
  type: "BatchNorm"
  bottom: "bottleneck4_5/inner/dw1/conv"
  top: "bottleneck4_5/inner/dw1/conv"
  param {
    lr_mult: 0
    decay_mult: 0
  }
  param {
    lr_mult: 0
    decay_mult: 0
  }
  param {
    lr_mult: 0
    decay_mult: 0
  }
}
layer {
  name: "bottleneck4_5/inner/dw1/scale"
  type: "Scale"
  bottom: "bottleneck4_5/inner/dw1/conv"
  top: "bottleneck4_5/inner/dw1/conv"
  param {
    name: "bottleneck4_5/inner/dw1/scale/a"
    lr_mult: 1
    decay_mult: 0
  }
  param {
    name: "bottleneck4_5/inner/dw1/scale/b"
    lr_mult: 2
    decay_mult: 0
  }
  scale_param {
    axis: 1
    filler {
      value: 1
    }
    bias_term: true
    bias_filler {
      value: 0
    }
  }
}
layer {
  name: "bottleneck4_5/inner/dw1/fn"
  type: "ELU"
  bottom: "bottleneck4_5/inner/dw1/conv"
  top: "bottleneck4_5/inner/dw1/conv"
}
layer {
  name: "bottleneck4_5/dim_inc/conv"
  type: "Convolution"
  bottom: "bottleneck4_5/inner/dw1/conv"
  top: "bottleneck4_5/dim_inc/conv"
  param {
    name: "bottleneck4_5/dim_inc/conv/w"
    lr_mult: 1
    decay_mult: 1
  }
  convolution_param {
    num_output: 256
    bias_term: false
    pad: 0
    kernel_size: 1
    stride: 1
    weight_filler {
      type: "msra"
    }
  }
}
layer {
  name: "bottleneck4_5/dim_inc/bn"
  type: "BatchNorm"
  bottom: "bottleneck4_5/dim_inc/conv"
  top: "bottleneck4_5/dim_inc/conv"
  param {
    lr_mult: 0
    decay_mult: 0
  }
  param {
    lr_mult: 0
    decay_mult: 0
  }
  param {
    lr_mult: 0
    decay_mult: 0
  }
}
layer {
  name: "bottleneck4_5/dim_inc/scale"
  type: "Scale"
  bottom: "bottleneck4_5/dim_inc/conv"
  top: "bottleneck4_5/dim_inc/conv"
  param {
    name: "bottleneck4_5/dim_inc/scale/a"
    lr_mult: 1
    decay_mult: 0
  }
  param {
    name: "bottleneck4_5/dim_inc/scale/b"
    lr_mult: 2
    decay_mult: 0
  }
  scale_param {
    axis: 1
    filler {
      value: 1
    }
    bias_term: true
    bias_filler {
      value: 0
    }
  }
}
layer {
  name: "bottleneck4_5/add"
  type: "Eltwise"
  bottom: "bottleneck4_4/add"
  bottom: "bottleneck4_5/dim_inc/conv"
  top: "bottleneck4_5/add"
  eltwise_param {
    operation: SUM
  }
}
layer {
  name: "bottleneck4_5/fn"
  type: "ELU"
  bottom: "bottleneck4_5/add"
  top: "bottleneck4_5/add"
}
layer {
  name: "bottleneck4_6/dim_red/conv"
  type: "Convolution"
  bottom: "bottleneck4_5/add"
  top: "bottleneck4_6/dim_red/conv"
  param {
    name: "bottleneck4_6/dim_red/conv/w"
    lr_mult: 1
    decay_mult: 1
  }
  convolution_param {
    num_output: 64
    bias_term: false
    pad: 0
    kernel_size: 1
    stride: 1
    weight_filler {
      type: "msra"
    }
  }
}
layer {
  name: "bottleneck4_6/dim_red/bn"
  type: "BatchNorm"
  bottom: "bottleneck4_6/dim_red/conv"
  top: "bottleneck4_6/dim_red/conv"
  param {
    lr_mult: 0
    decay_mult: 0
  }
  param {
    lr_mult: 0
    decay_mult: 0
  }
  param {
    lr_mult: 0
    decay_mult: 0
  }
}
layer {
  name: "bottleneck4_6/dim_red/scale"
  type: "Scale"
  bottom: "bottleneck4_6/dim_red/conv"
  top: "bottleneck4_6/dim_red/conv"
  param {
    name: "bottleneck4_6/dim_red/scale/a"
    lr_mult: 1
    decay_mult: 0
  }
  param {
    name: "bottleneck4_6/dim_red/scale/b"
    lr_mult: 2
    decay_mult: 0
  }
  scale_param {
    axis: 1
    filler {
      value: 1
    }
    bias_term: true
    bias_filler {
      value: 0
    }
  }
}
layer {
  name: "bottleneck4_6/dim_red/fn"
  type: "ELU"
  bottom: "bottleneck4_6/dim_red/conv"
  top: "bottleneck4_6/dim_red/conv"
}
layer {
  name: "bottleneck4_6/inner/dw1/conv"
  type: "Convolution"
  bottom: "bottleneck4_6/dim_red/conv"
  top: "bottleneck4_6/inner/dw1/conv"
  param {
    name: "bottleneck4_6/inner/dw1/conv/w"
    lr_mult: 1
    decay_mult: 1
  }
  convolution_param {
    num_output: 64
    bias_term: false
    pad: 1
    kernel_size: 3
    group: 64
    stride: 1
    weight_filler {
      type: "msra"
    }
  }
}
layer {
  name: "bottleneck4_6/inner/dw1/bn"
  type: "BatchNorm"
  bottom: "bottleneck4_6/inner/dw1/conv"
  top: "bottleneck4_6/inner/dw1/conv"
  param {
    lr_mult: 0
    decay_mult: 0
  }
  param {
    lr_mult: 0
    decay_mult: 0
  }
  param {
    lr_mult: 0
    decay_mult: 0
  }
}
layer {
  name: "bottleneck4_6/inner/dw1/scale"
  type: "Scale"
  bottom: "bottleneck4_6/inner/dw1/conv"
  top: "bottleneck4_6/inner/dw1/conv"
  param {
    name: "bottleneck4_6/inner/dw1/scale/a"
    lr_mult: 1
    decay_mult: 0
  }
  param {
    name: "bottleneck4_6/inner/dw1/scale/b"
    lr_mult: 2
    decay_mult: 0
  }
  scale_param {
    axis: 1
    filler {
      value: 1
    }
    bias_term: true
    bias_filler {
      value: 0
    }
  }
}
layer {
  name: "bottleneck4_6/inner/dw1/fn"
  type: "ELU"
  bottom: "bottleneck4_6/inner/dw1/conv"
  top: "bottleneck4_6/inner/dw1/conv"
}
layer {
  name: "bottleneck4_6/dim_inc/conv"
  type: "Convolution"
  bottom: "bottleneck4_6/inner/dw1/conv"
  top: "bottleneck4_6/dim_inc/conv"
  param {
    name: "bottleneck4_6/dim_inc/conv/w"
    lr_mult: 1
    decay_mult: 1
  }
  convolution_param {
    num_output: 256
    bias_term: false
    pad: 0
    kernel_size: 1
    stride: 1
    weight_filler {
      type: "msra"
    }
  }
}
layer {
  name: "bottleneck4_6/dim_inc/bn"
  type: "BatchNorm"
  bottom: "bottleneck4_6/dim_inc/conv"
  top: "bottleneck4_6/dim_inc/conv"
  param {
    lr_mult: 0
    decay_mult: 0
  }
  param {
    lr_mult: 0
    decay_mult: 0
  }
  param {
    lr_mult: 0
    decay_mult: 0
  }
}
layer {
  name: "bottleneck4_6/dim_inc/scale"
  type: "Scale"
  bottom: "bottleneck4_6/dim_inc/conv"
  top: "bottleneck4_6/dim_inc/conv"
  param {
    name: "bottleneck4_6/dim_inc/scale/a"
    lr_mult: 1
    decay_mult: 0
  }
  param {
    name: "bottleneck4_6/dim_inc/scale/b"
    lr_mult: 2
    decay_mult: 0
  }
  scale_param {
    axis: 1
    filler {
      value: 1
    }
    bias_term: true
    bias_filler {
      value: 0
    }
  }
}
layer {
  name: "bottleneck4_6/add"
  type: "Eltwise"
  bottom: "bottleneck4_5/add"
  bottom: "bottleneck4_6/dim_inc/conv"
  top: "bottleneck4_6/add"
  eltwise_param {
    operation: SUM
  }
}
layer {
  name: "bottleneck4_6/fn"
  type: "ELU"
  bottom: "bottleneck4_6/add"
  top: "bottleneck4_6/add"
}
layer {
  name: "bottleneck4_7/dim_red/conv"
  type: "Convolution"
  bottom: "bottleneck4_6/add"
  top: "bottleneck4_7/dim_red/conv"
  param {
    name: "bottleneck4_7/dim_red/conv/w"
    lr_mult: 1
    decay_mult: 1
  }
  convolution_param {
    num_output: 64
    bias_term: false
    pad: 0
    kernel_size: 1
    stride: 1
    weight_filler {
      type: "msra"
    }
  }
}
layer {
  name: "bottleneck4_7/dim_red/bn"
  type: "BatchNorm"
  bottom: "bottleneck4_7/dim_red/conv"
  top: "bottleneck4_7/dim_red/conv"
  param {
    lr_mult: 0
    decay_mult: 0
  }
  param {
    lr_mult: 0
    decay_mult: 0
  }
  param {
    lr_mult: 0
    decay_mult: 0
  }
}
layer {
  name: "bottleneck4_7/dim_red/scale"
  type: "Scale"
  bottom: "bottleneck4_7/dim_red/conv"
  top: "bottleneck4_7/dim_red/conv"
  param {
    name: "bottleneck4_7/dim_red/scale/a"
    lr_mult: 1
    decay_mult: 0
  }
  param {
    name: "bottleneck4_7/dim_red/scale/b"
    lr_mult: 2
    decay_mult: 0
  }
  scale_param {
    axis: 1
    filler {
      value: 1
    }
    bias_term: true
    bias_filler {
      value: 0
    }
  }
}
layer {
  name: "bottleneck4_7/dim_red/fn"
  type: "ELU"
  bottom: "bottleneck4_7/dim_red/conv"
  top: "bottleneck4_7/dim_red/conv"
}
layer {
  name: "bottleneck4_7/inner/dw1/conv"
  type: "Convolution"
  bottom: "bottleneck4_7/dim_red/conv"
  top: "bottleneck4_7/inner/dw1/conv"
  param {
    name: "bottleneck4_7/inner/dw1/conv/w"
    lr_mult: 1
    decay_mult: 1
  }
  convolution_param {
    num_output: 64
    bias_term: false
    pad: 1
    kernel_size: 3
    group: 64
    stride: 1
    weight_filler {
      type: "msra"
    }
  }
}
layer {
  name: "bottleneck4_7/inner/dw1/bn"
  type: "BatchNorm"
  bottom: "bottleneck4_7/inner/dw1/conv"
  top: "bottleneck4_7/inner/dw1/conv"
  param {
    lr_mult: 0
    decay_mult: 0
  }
  param {
    lr_mult: 0
    decay_mult: 0
  }
  param {
    lr_mult: 0
    decay_mult: 0
  }
}
layer {
  name: "bottleneck4_7/inner/dw1/scale"
  type: "Scale"
  bottom: "bottleneck4_7/inner/dw1/conv"
  top: "bottleneck4_7/inner/dw1/conv"
  param {
    name: "bottleneck4_7/inner/dw1/scale/a"
    lr_mult: 1
    decay_mult: 0
  }
  param {
    name: "bottleneck4_7/inner/dw1/scale/b"
    lr_mult: 2
    decay_mult: 0
  }
  scale_param {
    axis: 1
    filler {
      value: 1
    }
    bias_term: true
    bias_filler {
      value: 0
    }
  }
}
layer {
  name: "bottleneck4_7/inner/dw1/fn"
  type: "ELU"
  bottom: "bottleneck4_7/inner/dw1/conv"
  top: "bottleneck4_7/inner/dw1/conv"
}
layer {
  name: "bottleneck4_7/dim_inc/conv"
  type: "Convolution"
  bottom: "bottleneck4_7/inner/dw1/conv"
  top: "bottleneck4_7/dim_inc/conv"
  param {
    name: "bottleneck4_7/dim_inc/conv/w"
    lr_mult: 1
    decay_mult: 1
  }
  convolution_param {
    num_output: 256
    bias_term: false
    pad: 0
    kernel_size: 1
    stride: 1
    weight_filler {
      type: "msra"
    }
  }
}
layer {
  name: "bottleneck4_7/dim_inc/bn"
  type: "BatchNorm"
  bottom: "bottleneck4_7/dim_inc/conv"
  top: "bottleneck4_7/dim_inc/conv"
  param {
    lr_mult: 0
    decay_mult: 0
  }
  param {
    lr_mult: 0
    decay_mult: 0
  }
  param {
    lr_mult: 0
    decay_mult: 0
  }
}
layer {
  name: "bottleneck4_7/dim_inc/scale"
  type: "Scale"
  bottom: "bottleneck4_7/dim_inc/conv"
  top: "bottleneck4_7/dim_inc/conv"
  param {
    name: "bottleneck4_7/dim_inc/scale/a"
    lr_mult: 1
    decay_mult: 0
  }
  param {
    name: "bottleneck4_7/dim_inc/scale/b"
    lr_mult: 2
    decay_mult: 0
  }
  scale_param {
    axis: 1
    filler {
      value: 1
    }
    bias_term: true
    bias_filler {
      value: 0
    }
  }
}
layer {
  name: "bottleneck4_7/add"
  type: "Eltwise"
  bottom: "bottleneck4_6/add"
  bottom: "bottleneck4_7/dim_inc/conv"
  top: "bottleneck4_7/add"
  eltwise_param {
    operation: SUM
  }
}
layer {
  name: "bottleneck4_7/fn"
  type: "ELU"
  bottom: "bottleneck4_7/add"
  top: "bottleneck4_7/add"
}
layer {
  name: "bottleneck4_8/dim_red/conv"
  type: "Convolution"
  bottom: "bottleneck4_7/add"
  top: "bottleneck4_8/dim_red/conv"
  param {
    name: "bottleneck4_8/dim_red/conv/w"
    lr_mult: 1
    decay_mult: 1
  }
  convolution_param {
    num_output: 64
    bias_term: false
    pad: 0
    kernel_size: 1
    stride: 1
    weight_filler {
      type: "msra"
    }
  }
}
layer {
  name: "bottleneck4_8/dim_red/bn"
  type: "BatchNorm"
  bottom: "bottleneck4_8/dim_red/conv"
  top: "bottleneck4_8/dim_red/conv"
  param {
    lr_mult: 0
    decay_mult: 0
  }
  param {
    lr_mult: 0
    decay_mult: 0
  }
  param {
    lr_mult: 0
    decay_mult: 0
  }
}
layer {
  name: "bottleneck4_8/dim_red/scale"
  type: "Scale"
  bottom: "bottleneck4_8/dim_red/conv"
  top: "bottleneck4_8/dim_red/conv"
  param {
    name: "bottleneck4_8/dim_red/scale/a"
    lr_mult: 1
    decay_mult: 0
  }
  param {
    name: "bottleneck4_8/dim_red/scale/b"
    lr_mult: 2
    decay_mult: 0
  }
  scale_param {
    axis: 1
    filler {
      value: 1
    }
    bias_term: true
    bias_filler {
      value: 0
    }
  }
}
layer {
  name: "bottleneck4_8/dim_red/fn"
  type: "ELU"
  bottom: "bottleneck4_8/dim_red/conv"
  top: "bottleneck4_8/dim_red/conv"
}
layer {
  name: "bottleneck4_8/inner/dw1/conv"
  type: "Convolution"
  bottom: "bottleneck4_8/dim_red/conv"
  top: "bottleneck4_8/inner/dw1/conv"
  param {
    name: "bottleneck4_8/inner/dw1/conv/w"
    lr_mult: 1
    decay_mult: 1
  }
  convolution_param {
    num_output: 64
    bias_term: false
    pad: 1
    kernel_size: 3
    group: 64
    stride: 1
    weight_filler {
      type: "msra"
    }
  }
}
layer {
  name: "bottleneck4_8/inner/dw1/bn"
  type: "BatchNorm"
  bottom: "bottleneck4_8/inner/dw1/conv"
  top: "bottleneck4_8/inner/dw1/conv"
  param {
    lr_mult: 0
    decay_mult: 0
  }
  param {
    lr_mult: 0
    decay_mult: 0
  }
  param {
    lr_mult: 0
    decay_mult: 0
  }
}
layer {
  name: "bottleneck4_8/inner/dw1/scale"
  type: "Scale"
  bottom: "bottleneck4_8/inner/dw1/conv"
  top: "bottleneck4_8/inner/dw1/conv"
  param {
    name: "bottleneck4_8/inner/dw1/scale/a"
    lr_mult: 1
    decay_mult: 0
  }
  param {
    name: "bottleneck4_8/inner/dw1/scale/b"
    lr_mult: 2
    decay_mult: 0
  }
  scale_param {
    axis: 1
    filler {
      value: 1
    }
    bias_term: true
    bias_filler {
      value: 0
    }
  }
}
layer {
  name: "bottleneck4_8/inner/dw1/fn"
  type: "ELU"
  bottom: "bottleneck4_8/inner/dw1/conv"
  top: "bottleneck4_8/inner/dw1/conv"
}
layer {
  name: "bottleneck4_8/dim_inc/conv"
  type: "Convolution"
  bottom: "bottleneck4_8/inner/dw1/conv"
  top: "bottleneck4_8/dim_inc/conv"
  param {
    name: "bottleneck4_8/dim_inc/conv/w"
    lr_mult: 1
    decay_mult: 1
  }
  convolution_param {
    num_output: 256
    bias_term: false
    pad: 0
    kernel_size: 1
    stride: 1
    weight_filler {
      type: "msra"
    }
  }
}
layer {
  name: "bottleneck4_8/dim_inc/bn"
  type: "BatchNorm"
  bottom: "bottleneck4_8/dim_inc/conv"
  top: "bottleneck4_8/dim_inc/conv"
  param {
    lr_mult: 0
    decay_mult: 0
  }
  param {
    lr_mult: 0
    decay_mult: 0
  }
  param {
    lr_mult: 0
    decay_mult: 0
  }
}
layer {
  name: "bottleneck4_8/dim_inc/scale"
  type: "Scale"
  bottom: "bottleneck4_8/dim_inc/conv"
  top: "bottleneck4_8/dim_inc/conv"
  param {
    name: "bottleneck4_8/dim_inc/scale/a"
    lr_mult: 1
    decay_mult: 0
  }
  param {
    name: "bottleneck4_8/dim_inc/scale/b"
    lr_mult: 2
    decay_mult: 0
  }
  scale_param {
    axis: 1
    filler {
      value: 1
    }
    bias_term: true
    bias_filler {
      value: 0
    }
  }
}
layer {
  name: "bottleneck4_8/add"
  type: "Eltwise"
  bottom: "bottleneck4_7/add"
  bottom: "bottleneck4_8/dim_inc/conv"
  top: "bottleneck4_8/add"
  eltwise_param {
    operation: SUM
  }
}
layer {
  name: "bottleneck4_8/fn"
  type: "ELU"
  bottom: "bottleneck4_8/add"
  top: "bottleneck4_8/add"
}
layer {
  name: "bottleneck4_9/dim_red/conv"
  type: "Convolution"
  bottom: "bottleneck4_8/add"
  top: "bottleneck4_9/dim_red/conv"
  param {
    name: "bottleneck4_9/dim_red/conv/w"
    lr_mult: 1
    decay_mult: 1
  }
  convolution_param {
    num_output: 64
    bias_term: false
    pad: 0
    kernel_size: 1
    stride: 1
    weight_filler {
      type: "msra"
    }
  }
}
layer {
  name: "bottleneck4_9/dim_red/bn"
  type: "BatchNorm"
  bottom: "bottleneck4_9/dim_red/conv"
  top: "bottleneck4_9/dim_red/conv"
  param {
    lr_mult: 0
    decay_mult: 0
  }
  param {
    lr_mult: 0
    decay_mult: 0
  }
  param {
    lr_mult: 0
    decay_mult: 0
  }
}
layer {
  name: "bottleneck4_9/dim_red/scale"
  type: "Scale"
  bottom: "bottleneck4_9/dim_red/conv"
  top: "bottleneck4_9/dim_red/conv"
  param {
    name: "bottleneck4_9/dim_red/scale/a"
    lr_mult: 1
    decay_mult: 0
  }
  param {
    name: "bottleneck4_9/dim_red/scale/b"
    lr_mult: 2
    decay_mult: 0
  }
  scale_param {
    axis: 1
    filler {
      value: 1
    }
    bias_term: true
    bias_filler {
      value: 0
    }
  }
}
layer {
  name: "bottleneck4_9/dim_red/fn"
  type: "ELU"
  bottom: "bottleneck4_9/dim_red/conv"
  top: "bottleneck4_9/dim_red/conv"
}
layer {
  name: "bottleneck4_9/inner/dw1/conv"
  type: "Convolution"
  bottom: "bottleneck4_9/dim_red/conv"
  top: "bottleneck4_9/inner/dw1/conv"
  param {
    name: "bottleneck4_9/inner/dw1/conv/w"
    lr_mult: 1
    decay_mult: 1
  }
  convolution_param {
    num_output: 64
    bias_term: false
    pad: 1
    kernel_size: 3
    group: 64
    stride: 1
    weight_filler {
      type: "msra"
    }
  }
}
layer {
  name: "bottleneck4_9/inner/dw1/bn"
  type: "BatchNorm"
  bottom: "bottleneck4_9/inner/dw1/conv"
  top: "bottleneck4_9/inner/dw1/conv"
  param {
    lr_mult: 0
    decay_mult: 0
  }
  param {
    lr_mult: 0
    decay_mult: 0
  }
  param {
    lr_mult: 0
    decay_mult: 0
  }
}
layer {
  name: "bottleneck4_9/inner/dw1/scale"
  type: "Scale"
  bottom: "bottleneck4_9/inner/dw1/conv"
  top: "bottleneck4_9/inner/dw1/conv"
  param {
    name: "bottleneck4_9/inner/dw1/scale/a"
    lr_mult: 1
    decay_mult: 0
  }
  param {
    name: "bottleneck4_9/inner/dw1/scale/b"
    lr_mult: 2
    decay_mult: 0
  }
  scale_param {
    axis: 1
    filler {
      value: 1
    }
    bias_term: true
    bias_filler {
      value: 0
    }
  }
}
layer {
  name: "bottleneck4_9/inner/dw1/fn"
  type: "ELU"
  bottom: "bottleneck4_9/inner/dw1/conv"
  top: "bottleneck4_9/inner/dw1/conv"
}
layer {
  name: "bottleneck4_9/dim_inc/conv"
  type: "Convolution"
  bottom: "bottleneck4_9/inner/dw1/conv"
  top: "bottleneck4_9/dim_inc/conv"
  param {
    name: "bottleneck4_9/dim_inc/conv/w"
    lr_mult: 1
    decay_mult: 1
  }
  convolution_param {
    num_output: 256
    bias_term: false
    pad: 0
    kernel_size: 1
    stride: 1
    weight_filler {
      type: "msra"
    }
  }
}
layer {
  name: "bottleneck4_9/dim_inc/bn"
  type: "BatchNorm"
  bottom: "bottleneck4_9/dim_inc/conv"
  top: "bottleneck4_9/dim_inc/conv"
  param {
    lr_mult: 0
    decay_mult: 0
  }
  param {
    lr_mult: 0
    decay_mult: 0
  }
  param {
    lr_mult: 0
    decay_mult: 0
  }
}
layer {
  name: "bottleneck4_9/dim_inc/scale"
  type: "Scale"
  bottom: "bottleneck4_9/dim_inc/conv"
  top: "bottleneck4_9/dim_inc/conv"
  param {
    name: "bottleneck4_9/dim_inc/scale/a"
    lr_mult: 1
    decay_mult: 0
  }
  param {
    name: "bottleneck4_9/dim_inc/scale/b"
    lr_mult: 2
    decay_mult: 0
  }
  scale_param {
    axis: 1
    filler {
      value: 1
    }
    bias_term: true
    bias_filler {
      value: 0
    }
  }
}
layer {
  name: "bottleneck4_9/add"
  type: "Eltwise"
  bottom: "bottleneck4_8/add"
  bottom: "bottleneck4_9/dim_inc/conv"
  top: "bottleneck4_9/add"
  eltwise_param {
    operation: SUM
  }
}
layer {
  name: "bottleneck4_9/fn"
  type: "ELU"
  bottom: "bottleneck4_9/add"
  top: "bottleneck4_9/add"
}
layer {
  name: "bottleneck4_10/dim_red/conv"
  type: "Convolution"
  bottom: "bottleneck4_9/add"
  top: "bottleneck4_10/dim_red/conv"
  param {
    name: "bottleneck4_10/dim_red/conv/w"
    lr_mult: 1
    decay_mult: 1
  }
  convolution_param {
    num_output: 64
    bias_term: false
    pad: 0
    kernel_size: 1
    stride: 1
    weight_filler {
      type: "msra"
    }
  }
}
layer {
  name: "bottleneck4_10/dim_red/bn"
  type: "BatchNorm"
  bottom: "bottleneck4_10/dim_red/conv"
  top: "bottleneck4_10/dim_red/conv"
  param {
    lr_mult: 0
    decay_mult: 0
  }
  param {
    lr_mult: 0
    decay_mult: 0
  }
  param {
    lr_mult: 0
    decay_mult: 0
  }
}
layer {
  name: "bottleneck4_10/dim_red/scale"
  type: "Scale"
  bottom: "bottleneck4_10/dim_red/conv"
  top: "bottleneck4_10/dim_red/conv"
  param {
    name: "bottleneck4_10/dim_red/scale/a"
    lr_mult: 1
    decay_mult: 0
  }
  param {
    name: "bottleneck4_10/dim_red/scale/b"
    lr_mult: 2
    decay_mult: 0
  }
  scale_param {
    axis: 1
    filler {
      value: 1
    }
    bias_term: true
    bias_filler {
      value: 0
    }
  }
}
layer {
  name: "bottleneck4_10/dim_red/fn"
  type: "ELU"
  bottom: "bottleneck4_10/dim_red/conv"
  top: "bottleneck4_10/dim_red/conv"
}
layer {
  name: "bottleneck4_10/inner/dw1/conv"
  type: "Convolution"
  bottom: "bottleneck4_10/dim_red/conv"
  top: "bottleneck4_10/inner/dw1/conv"
  param {
    name: "bottleneck4_10/inner/dw1/conv/w"
    lr_mult: 1
    decay_mult: 1
  }
  convolution_param {
    num_output: 64
    bias_term: false
    pad: 1
    kernel_size: 3
    group: 64
    stride: 1
    weight_filler {
      type: "msra"
    }
  }
}
layer {
  name: "bottleneck4_10/inner/dw1/bn"
  type: "BatchNorm"
  bottom: "bottleneck4_10/inner/dw1/conv"
  top: "bottleneck4_10/inner/dw1/conv"
  param {
    lr_mult: 0
    decay_mult: 0
  }
  param {
    lr_mult: 0
    decay_mult: 0
  }
  param {
    lr_mult: 0
    decay_mult: 0
  }
}
layer {
  name: "bottleneck4_10/inner/dw1/scale"
  type: "Scale"
  bottom: "bottleneck4_10/inner/dw1/conv"
  top: "bottleneck4_10/inner/dw1/conv"
  param {
    name: "bottleneck4_10/inner/dw1/scale/a"
    lr_mult: 1
    decay_mult: 0
  }
  param {
    name: "bottleneck4_10/inner/dw1/scale/b"
    lr_mult: 2
    decay_mult: 0
  }
  scale_param {
    axis: 1
    filler {
      value: 1
    }
    bias_term: true
    bias_filler {
      value: 0
    }
  }
}
layer {
  name: "bottleneck4_10/inner/dw1/fn"
  type: "ELU"
  bottom: "bottleneck4_10/inner/dw1/conv"
  top: "bottleneck4_10/inner/dw1/conv"
}
layer {
  name: "bottleneck4_10/dim_inc/conv"
  type: "Convolution"
  bottom: "bottleneck4_10/inner/dw1/conv"
  top: "bottleneck4_10/dim_inc/conv"
  param {
    name: "bottleneck4_10/dim_inc/conv/w"
    lr_mult: 1
    decay_mult: 1
  }
  convolution_param {
    num_output: 256
    bias_term: false
    pad: 0
    kernel_size: 1
    stride: 1
    weight_filler {
      type: "msra"
    }
  }
}
layer {
  name: "bottleneck4_10/dim_inc/bn"
  type: "BatchNorm"
  bottom: "bottleneck4_10/dim_inc/conv"
  top: "bottleneck4_10/dim_inc/conv"
  param {
    lr_mult: 0
    decay_mult: 0
  }
  param {
    lr_mult: 0
    decay_mult: 0
  }
  param {
    lr_mult: 0
    decay_mult: 0
  }
}
layer {
  name: "bottleneck4_10/dim_inc/scale"
  type: "Scale"
  bottom: "bottleneck4_10/dim_inc/conv"
  top: "bottleneck4_10/dim_inc/conv"
  param {
    name: "bottleneck4_10/dim_inc/scale/a"
    lr_mult: 1
    decay_mult: 0
  }
  param {
    name: "bottleneck4_10/dim_inc/scale/b"
    lr_mult: 2
    decay_mult: 0
  }
  scale_param {
    axis: 1
    filler {
      value: 1
    }
    bias_term: true
    bias_filler {
      value: 0
    }
  }
}
layer {
  name: "bottleneck4_10/add"
  type: "Eltwise"
  bottom: "bottleneck4_9/add"
  bottom: "bottleneck4_10/dim_inc/conv"
  top: "bottleneck4_10/add"
  eltwise_param {
    operation: SUM
  }
}
layer {
  name: "bottleneck4_10/fn"
  type: "ELU"
  bottom: "bottleneck4_10/add"
  top: "bottleneck4_10/add"
}
layer {
  name: "bottleneck4_11/dim_red/conv"
  type: "Convolution"
  bottom: "bottleneck4_10/add"
  top: "bottleneck4_11/dim_red/conv"
  param {
    name: "bottleneck4_11/dim_red/conv/w"
    lr_mult: 1
    decay_mult: 1
  }
  convolution_param {
    num_output: 64
    bias_term: false
    pad: 0
    kernel_size: 1
    stride: 1
    weight_filler {
      type: "msra"
    }
  }
}
layer {
  name: "bottleneck4_11/dim_red/bn"
  type: "BatchNorm"
  bottom: "bottleneck4_11/dim_red/conv"
  top: "bottleneck4_11/dim_red/conv"
  param {
    lr_mult: 0
    decay_mult: 0
  }
  param {
    lr_mult: 0
    decay_mult: 0
  }
  param {
    lr_mult: 0
    decay_mult: 0
  }
}
layer {
  name: "bottleneck4_11/dim_red/scale"
  type: "Scale"
  bottom: "bottleneck4_11/dim_red/conv"
  top: "bottleneck4_11/dim_red/conv"
  param {
    name: "bottleneck4_11/dim_red/scale/a"
    lr_mult: 1
    decay_mult: 0
  }
  param {
    name: "bottleneck4_11/dim_red/scale/b"
    lr_mult: 2
    decay_mult: 0
  }
  scale_param {
    axis: 1
    filler {
      value: 1
    }
    bias_term: true
    bias_filler {
      value: 0
    }
  }
}
layer {
  name: "bottleneck4_11/dim_red/fn"
  type: "ELU"
  bottom: "bottleneck4_11/dim_red/conv"
  top: "bottleneck4_11/dim_red/conv"
}
layer {
  name: "bottleneck4_11/inner/dw1/conv"
  type: "Convolution"
  bottom: "bottleneck4_11/dim_red/conv"
  top: "bottleneck4_11/inner/dw1/conv"
  param {
    name: "bottleneck4_11/inner/dw1/conv/w"
    lr_mult: 1
    decay_mult: 1
  }
  convolution_param {
    num_output: 64
    bias_term: false
    pad: 1
    kernel_size: 3
    group: 64
    stride: 1
    weight_filler {
      type: "msra"
    }
  }
}
layer {
  name: "bottleneck4_11/inner/dw1/bn"
  type: "BatchNorm"
  bottom: "bottleneck4_11/inner/dw1/conv"
  top: "bottleneck4_11/inner/dw1/conv"
  param {
    lr_mult: 0
    decay_mult: 0
  }
  param {
    lr_mult: 0
    decay_mult: 0
  }
  param {
    lr_mult: 0
    decay_mult: 0
  }
}
layer {
  name: "bottleneck4_11/inner/dw1/scale"
  type: "Scale"
  bottom: "bottleneck4_11/inner/dw1/conv"
  top: "bottleneck4_11/inner/dw1/conv"
  param {
    name: "bottleneck4_11/inner/dw1/scale/a"
    lr_mult: 1
    decay_mult: 0
  }
  param {
    name: "bottleneck4_11/inner/dw1/scale/b"
    lr_mult: 2
    decay_mult: 0
  }
  scale_param {
    axis: 1
    filler {
      value: 1
    }
    bias_term: true
    bias_filler {
      value: 0
    }
  }
}
layer {
  name: "bottleneck4_11/inner/dw1/fn"
  type: "ELU"
  bottom: "bottleneck4_11/inner/dw1/conv"
  top: "bottleneck4_11/inner/dw1/conv"
}
layer {
  name: "bottleneck4_11/dim_inc/conv"
  type: "Convolution"
  bottom: "bottleneck4_11/inner/dw1/conv"
  top: "bottleneck4_11/dim_inc/conv"
  param {
    name: "bottleneck4_11/dim_inc/conv/w"
    lr_mult: 1
    decay_mult: 1
  }
  convolution_param {
    num_output: 256
    bias_term: false
    pad: 0
    kernel_size: 1
    stride: 1
    weight_filler {
      type: "msra"
    }
  }
}
layer {
  name: "bottleneck4_11/dim_inc/bn"
  type: "BatchNorm"
  bottom: "bottleneck4_11/dim_inc/conv"
  top: "bottleneck4_11/dim_inc/conv"
  param {
    lr_mult: 0
    decay_mult: 0
  }
  param {
    lr_mult: 0
    decay_mult: 0
  }
  param {
    lr_mult: 0
    decay_mult: 0
  }
}
layer {
  name: "bottleneck4_11/dim_inc/scale"
  type: "Scale"
  bottom: "bottleneck4_11/dim_inc/conv"
  top: "bottleneck4_11/dim_inc/conv"
  param {
    name: "bottleneck4_11/dim_inc/scale/a"
    lr_mult: 1
    decay_mult: 0
  }
  param {
    name: "bottleneck4_11/dim_inc/scale/b"
    lr_mult: 2
    decay_mult: 0
  }
  scale_param {
    axis: 1
    filler {
      value: 1
    }
    bias_term: true
    bias_filler {
      value: 0
    }
  }
}
layer {
  name: "bottleneck4_11/add"
  type: "Eltwise"
  bottom: "bottleneck4_10/add"
  bottom: "bottleneck4_11/dim_inc/conv"
  top: "bottleneck4_11/add"
  eltwise_param {
    operation: SUM
  }
}
layer {
  name: "bottleneck4_11/fn"
  type: "ELU"
  bottom: "bottleneck4_11/add"
  top: "bottleneck4_11/add"
}

###################################################
################# Embedding Head ##################
###################################################

layer {
  name: "pooling/out"
  type: "Pooling"
  bottom: "bottleneck4_11/add"
  top: "pooling/out"
  pooling_param {
    pool: MAX
    global_pooling: true
  }
}
layer {
  name: "embd/dim_inc/conv"
  type: "Convolution"
  bottom: "pooling/out"
  top: "embd/dim_inc/conv"
  param {
    lr_mult: 1.0
    decay_mult: 1.0
  }
  convolution_param {
    num_output: 512
    bias_term: false
    pad: 0
    kernel_size: 1
    stride: 1
    weight_filler {
      type: "msra"
    }
  }
}
layer {
  name: "embd/dim_inc/bn"
  type: "BatchNorm"
  bottom: "embd/dim_inc/conv"
  top: "embd/dim_inc/conv"
  param {
    lr_mult: 0.0
    decay_mult: 0.0
  }
  param {
    lr_mult: 0.0
    decay_mult: 0.0
  }
  param {
    lr_mult: 0.0
    decay_mult: 0.0
  }
}
layer {
  name: "embd/dim_inc/scale"
  type: "Scale"
  bottom: "embd/dim_inc/conv"
  top: "embd/dim_inc/conv"
  param {
    lr_mult: 1.0
    decay_mult: 0.0
  }
  param {
    lr_mult: 2.0
    decay_mult: 0.0
  }
  scale_param {
    axis: 1
    filler {
      value: 1.0
    }
    bias_term: true
    bias_filler {
      value: 0.0
    }
  }
}
layer {
  name: "embd/dim_inc/fn"
  type: "ELU"
  bottom: "embd/dim_inc/conv"
  top: "embd/dim_inc/conv"
}

layer {
  name: "embd/dim_red/conv"
  type: "Convolution"
  bottom: "embd/dim_inc/conv"
  top: "embd/dim_red/conv"
  param {
    lr_mult: 1.0
    decay_mult: 1.0
  }
  convolution_param {
    num_output: 256
    bias_term: false
    pad: 0
    kernel_size: 1
    stride: 1
    weight_filler {
      type: "msra"
    }
  }
}
layer {
  name: "embd/dim_red/bn"
  type: "BatchNorm"
  bottom: "embd/dim_red/conv"
  top: "embd/dim_red/conv"
  param {
    lr_mult: 0.0
    decay_mult: 0.0
  }
  param {
    lr_mult: 0.0
    decay_mult: 0.0
  }
  param {
    lr_mult: 0.0
    decay_mult: 0.0
  }
}
layer {
  name: "embd/dim_red/scale"
  type: "Scale"
  bottom: "embd/dim_red/conv"
  top: "embd/dim_red/conv"
  param {
    lr_mult: 1.0
    decay_mult: 0.0
  }
  param {
    lr_mult: 2.0
    decay_mult: 0.0
  }
  scale_param {
    axis: 1
    filler {
      value: 1.0
    }
    bias_term: true
    bias_filler {
      value: 0.0
    }
  }
}

