<?xml version="1.0" ?>
<net name="mstcn_online" version="10">
	<layers>
		<layer id="0" name="fhis_in_3" type="Parameter" version="opset1">
			<data element_type="f32" shape="11, 64, 2048"/>
			<output>
				<port id="0" names="fhis_in_3" precision="FP32">
					<dim>11</dim>
					<dim>64</dim>
					<dim>2048</dim>
				</port>
			</output>
		</layer>
		<layer id="1" name="fhis_in_2" type="Parameter" version="opset1">
			<data element_type="f32" shape="11, 64, 2048"/>
			<output>
				<port id="0" names="fhis_in_2" precision="FP32">
					<dim>11</dim>
					<dim>64</dim>
					<dim>2048</dim>
				</port>
			</output>
		</layer>
		<layer id="2" name="fhis_in_1" type="Parameter" version="opset1">
			<data element_type="f32" shape="11, 64, 2048"/>
			<output>
				<port id="0" names="fhis_in_1" precision="FP32">
					<dim>11</dim>
					<dim>64</dim>
					<dim>2048</dim>
				</port>
			</output>
		</layer>
		<layer id="3" name="input" type="Parameter" version="opset1">
			<data element_type="f32" shape="1, 2048, 24"/>
			<output>
				<port id="0" names="input" precision="FP32">
					<dim>1</dim>
					<dim>2048</dim>
					<dim>24</dim>
				</port>
			</output>
		</layer>
		<layer id="4" name="fhis_in_0" type="Parameter" version="opset1">
			<data element_type="f32" shape="12, 64, 2048"/>
			<output>
				<port id="0" names="fhis_in_0" precision="FP32">
					<dim>12</dim>
					<dim>64</dim>
					<dim>2048</dim>
				</port>
			</output>
		</layer>
		<layer id="5" name="tmp_fhis_in_3_0/Split_input_port_1/value" type="Const" version="opset1">
			<data element_type="i64" offset="0" shape="" size="8"/>
			<output>
				<port id="0" precision="I64"/>
			</output>
		</layer>
		<layer id="6" name="tmp_fhis_in_3_0/Split" type="Split" version="opset1">
			<data num_splits="11"/>
			<input>
				<port id="0" precision="FP32">
					<dim>11</dim>
					<dim>64</dim>
					<dim>2048</dim>
				</port>
				<port id="1" precision="I64"/>
			</input>
			<output>
				<port id="2" names="tmp_fhis_in_3_0" precision="FP32">
					<dim>1</dim>
					<dim>64</dim>
					<dim>2048</dim>
				</port>
				<port id="3" names="tmp_fhis_in_3_1" precision="FP32">
					<dim>1</dim>
					<dim>64</dim>
					<dim>2048</dim>
				</port>
				<port id="4" names="tmp_fhis_in_3_2" precision="FP32">
					<dim>1</dim>
					<dim>64</dim>
					<dim>2048</dim>
				</port>
				<port id="5" names="tmp_fhis_in_3_3" precision="FP32">
					<dim>1</dim>
					<dim>64</dim>
					<dim>2048</dim>
				</port>
				<port id="6" names="tmp_fhis_in_3_4" precision="FP32">
					<dim>1</dim>
					<dim>64</dim>
					<dim>2048</dim>
				</port>
				<port id="7" names="tmp_fhis_in_3_5" precision="FP32">
					<dim>1</dim>
					<dim>64</dim>
					<dim>2048</dim>
				</port>
				<port id="8" names="tmp_fhis_in_3_6" precision="FP32">
					<dim>1</dim>
					<dim>64</dim>
					<dim>2048</dim>
				</port>
				<port id="9" names="tmp_fhis_in_3_7" precision="FP32">
					<dim>1</dim>
					<dim>64</dim>
					<dim>2048</dim>
				</port>
				<port id="10" names="tmp_fhis_in_3_8" precision="FP32">
					<dim>1</dim>
					<dim>64</dim>
					<dim>2048</dim>
				</port>
				<port id="11" names="tmp_fhis_in_3_9" precision="FP32">
					<dim>1</dim>
					<dim>64</dim>
					<dim>2048</dim>
				</port>
				<port id="12" names="tmp_fhis_in_3_10" precision="FP32">
					<dim>1</dim>
					<dim>64</dim>
					<dim>2048</dim>
				</port>
			</output>
		</layer>
		<layer id="7" name="tmp_fhis_in_0_0/Split_input_port_1/value" type="Const" version="opset1">
			<data element_type="i64" offset="0" shape="" size="8"/>
			<output>
				<port id="0" precision="I64"/>
			</output>
		</layer>
		<layer id="8" name="tmp_fhis_in_0_0/Split" type="Split" version="opset1">
			<data num_splits="12"/>
			<input>
				<port id="0" precision="FP32">
					<dim>12</dim>
					<dim>64</dim>
					<dim>2048</dim>
				</port>
				<port id="1" precision="I64"/>
			</input>
			<output>
				<port id="2" names="tmp_fhis_in_0_0" precision="FP32">
					<dim>1</dim>
					<dim>64</dim>
					<dim>2048</dim>
				</port>
				<port id="3" names="tmp_fhis_in_0_1" precision="FP32">
					<dim>1</dim>
					<dim>64</dim>
					<dim>2048</dim>
				</port>
				<port id="4" names="tmp_fhis_in_0_2" precision="FP32">
					<dim>1</dim>
					<dim>64</dim>
					<dim>2048</dim>
				</port>
				<port id="5" names="tmp_fhis_in_0_3" precision="FP32">
					<dim>1</dim>
					<dim>64</dim>
					<dim>2048</dim>
				</port>
				<port id="6" names="tmp_fhis_in_0_4" precision="FP32">
					<dim>1</dim>
					<dim>64</dim>
					<dim>2048</dim>
				</port>
				<port id="7" names="tmp_fhis_in_0_5" precision="FP32">
					<dim>1</dim>
					<dim>64</dim>
					<dim>2048</dim>
				</port>
				<port id="8" names="tmp_fhis_in_0_6" precision="FP32">
					<dim>1</dim>
					<dim>64</dim>
					<dim>2048</dim>
				</port>
				<port id="9" names="tmp_fhis_in_0_7" precision="FP32">
					<dim>1</dim>
					<dim>64</dim>
					<dim>2048</dim>
				</port>
				<port id="10" names="tmp_fhis_in_0_8" precision="FP32">
					<dim>1</dim>
					<dim>64</dim>
					<dim>2048</dim>
				</port>
				<port id="11" names="tmp_fhis_in_0_9" precision="FP32">
					<dim>1</dim>
					<dim>64</dim>
					<dim>2048</dim>
				</port>
				<port id="12" names="tmp_fhis_in_0_10" precision="FP32">
					<dim>1</dim>
					<dim>64</dim>
					<dim>2048</dim>
				</port>
				<port id="13" names="tmp_fhis_in_0_11" precision="FP32">
					<dim>1</dim>
					<dim>64</dim>
					<dim>2048</dim>
				</port>
			</output>
		</layer>
		<layer id="9" name="Slice_251/Concat1312643475" type="Const" version="opset1">
			<data element_type="i64" offset="8" shape="3" size="24"/>
			<output>
				<port id="0" precision="I64">
					<dim>3</dim>
				</port>
			</output>
		</layer>
		<layer id="10" name="Slice_251/Concat131121312744750" type="Const" version="opset1">
			<data element_type="i64" offset="32" shape="3" size="24"/>
			<output>
				<port id="0" precision="I64">
					<dim>3</dim>
				</port>
			</output>
		</layer>
		<layer id="11" name="Slice_251/Strides1312844642" type="Const" version="opset1">
			<data element_type="i64" offset="56" shape="3" size="24"/>
			<output>
				<port id="0" precision="I64">
					<dim>3</dim>
				</port>
			</output>
		</layer>
		<layer id="12" name="Slice_251" type="StridedSlice" version="opset1">
			<data begin_mask="1, 1, 0" ellipsis_mask="0, 0, 0" end_mask="1, 1, 0" new_axis_mask="0, 0, 0" shrink_axis_mask="0, 0, 0"/>
			<input>
				<port id="0" precision="FP32">
					<dim>1</dim>
					<dim>64</dim>
					<dim>2048</dim>
				</port>
				<port id="1" precision="I64">
					<dim>3</dim>
				</port>
				<port id="2" precision="I64">
					<dim>3</dim>
				</port>
				<port id="3" precision="I64">
					<dim>3</dim>
				</port>
			</input>
			<output>
				<port id="4" names="603" precision="FP32">
					<dim>1</dim>
					<dim>64</dim>
					<dim>2</dim>
				</port>
			</output>
		</layer>
		<layer id="13" name="Slice_227/Concat1299444753" type="Const" version="opset1">
			<data element_type="i64" offset="80" shape="3" size="24"/>
			<output>
				<port id="0" precision="I64">
					<dim>3</dim>
				</port>
			</output>
		</layer>
		<layer id="14" name="Slice_227/Concat129801299544015" type="Const" version="opset1">
			<data element_type="i64" offset="32" shape="3" size="24"/>
			<output>
				<port id="0" precision="I64">
					<dim>3</dim>
				</port>
			</output>
		</layer>
		<layer id="15" name="Slice_227/Strides1299643853" type="Const" version="opset1">
			<data element_type="i64" offset="56" shape="3" size="24"/>
			<output>
				<port id="0" precision="I64">
					<dim>3</dim>
				</port>
			</output>
		</layer>
		<layer id="16" name="Slice_227" type="StridedSlice" version="opset1">
			<data begin_mask="1, 1, 0" ellipsis_mask="0, 0, 0" end_mask="1, 1, 0" new_axis_mask="0, 0, 0" shrink_axis_mask="0, 0, 0"/>
			<input>
				<port id="0" precision="FP32">
					<dim>1</dim>
					<dim>64</dim>
					<dim>2048</dim>
				</port>
				<port id="1" precision="I64">
					<dim>3</dim>
				</port>
				<port id="2" precision="I64">
					<dim>3</dim>
				</port>
				<port id="3" precision="I64">
					<dim>3</dim>
				</port>
			</input>
			<output>
				<port id="4" names="579" precision="FP32">
					<dim>1</dim>
					<dim>64</dim>
					<dim>4</dim>
				</port>
			</output>
		</layer>
		<layer id="17" name="Slice_203/Concat1286243679" type="Const" version="opset1">
			<data element_type="i64" offset="104" shape="3" size="24"/>
			<output>
				<port id="0" precision="I64">
					<dim>3</dim>
				</port>
			</output>
		</layer>
		<layer id="18" name="Slice_203/Concat128481286344513" type="Const" version="opset1">
			<data element_type="i64" offset="32" shape="3" size="24"/>
			<output>
				<port id="0" precision="I64">
					<dim>3</dim>
				</port>
			</output>
		</layer>
		<layer id="19" name="Slice_203/Strides1286444861" type="Const" version="opset1">
			<data element_type="i64" offset="56" shape="3" size="24"/>
			<output>
				<port id="0" precision="I64">
					<dim>3</dim>
				</port>
			</output>
		</layer>
		<layer id="20" name="Slice_203" type="StridedSlice" version="opset1">
			<data begin_mask="1, 1, 0" ellipsis_mask="0, 0, 0" end_mask="1, 1, 0" new_axis_mask="0, 0, 0" shrink_axis_mask="0, 0, 0"/>
			<input>
				<port id="0" precision="FP32">
					<dim>1</dim>
					<dim>64</dim>
					<dim>2048</dim>
				</port>
				<port id="1" precision="I64">
					<dim>3</dim>
				</port>
				<port id="2" precision="I64">
					<dim>3</dim>
				</port>
				<port id="3" precision="I64">
					<dim>3</dim>
				</port>
			</input>
			<output>
				<port id="4" names="555" precision="FP32">
					<dim>1</dim>
					<dim>64</dim>
					<dim>8</dim>
				</port>
			</output>
		</layer>
		<layer id="21" name="Slice_179/Concat1273043838" type="Const" version="opset1">
			<data element_type="i64" offset="128" shape="3" size="24"/>
			<output>
				<port id="0" precision="I64">
					<dim>3</dim>
				</port>
			</output>
		</layer>
		<layer id="22" name="Slice_179/Concat127161273144273" type="Const" version="opset1">
			<data element_type="i64" offset="32" shape="3" size="24"/>
			<output>
				<port id="0" precision="I64">
					<dim>3</dim>
				</port>
			</output>
		</layer>
		<layer id="23" name="Slice_179/Strides1273243667" type="Const" version="opset1">
			<data element_type="i64" offset="56" shape="3" size="24"/>
			<output>
				<port id="0" precision="I64">
					<dim>3</dim>
				</port>
			</output>
		</layer>
		<layer id="24" name="Slice_179" type="StridedSlice" version="opset1">
			<data begin_mask="1, 1, 0" ellipsis_mask="0, 0, 0" end_mask="1, 1, 0" new_axis_mask="0, 0, 0" shrink_axis_mask="0, 0, 0"/>
			<input>
				<port id="0" precision="FP32">
					<dim>1</dim>
					<dim>64</dim>
					<dim>2048</dim>
				</port>
				<port id="1" precision="I64">
					<dim>3</dim>
				</port>
				<port id="2" precision="I64">
					<dim>3</dim>
				</port>
				<port id="3" precision="I64">
					<dim>3</dim>
				</port>
			</input>
			<output>
				<port id="4" names="531" precision="FP32">
					<dim>1</dim>
					<dim>64</dim>
					<dim>16</dim>
				</port>
			</output>
		</layer>
		<layer id="25" name="Slice_155/Concat1259844351" type="Const" version="opset1">
			<data element_type="i64" offset="152" shape="3" size="24"/>
			<output>
				<port id="0" precision="I64">
					<dim>3</dim>
				</port>
			</output>
		</layer>
		<layer id="26" name="Slice_155/Concat125841259944420" type="Const" version="opset1">
			<data element_type="i64" offset="32" shape="3" size="24"/>
			<output>
				<port id="0" precision="I64">
					<dim>3</dim>
				</port>
			</output>
		</layer>
		<layer id="27" name="Slice_155/Strides1260043847" type="Const" version="opset1">
			<data element_type="i64" offset="56" shape="3" size="24"/>
			<output>
				<port id="0" precision="I64">
					<dim>3</dim>
				</port>
			</output>
		</layer>
		<layer id="28" name="Slice_155" type="StridedSlice" version="opset1">
			<data begin_mask="1, 1, 0" ellipsis_mask="0, 0, 0" end_mask="1, 1, 0" new_axis_mask="0, 0, 0" shrink_axis_mask="0, 0, 0"/>
			<input>
				<port id="0" precision="FP32">
					<dim>1</dim>
					<dim>64</dim>
					<dim>2048</dim>
				</port>
				<port id="1" precision="I64">
					<dim>3</dim>
				</port>
				<port id="2" precision="I64">
					<dim>3</dim>
				</port>
				<port id="3" precision="I64">
					<dim>3</dim>
				</port>
			</input>
			<output>
				<port id="4" names="507" precision="FP32">
					<dim>1</dim>
					<dim>64</dim>
					<dim>32</dim>
				</port>
			</output>
		</layer>
		<layer id="29" name="Slice_131/Concat1246644855" type="Const" version="opset1">
			<data element_type="i64" offset="176" shape="3" size="24"/>
			<output>
				<port id="0" precision="I64">
					<dim>3</dim>
				</port>
			</output>
		</layer>
		<layer id="30" name="Slice_131/Concat124521246743742" type="Const" version="opset1">
			<data element_type="i64" offset="32" shape="3" size="24"/>
			<output>
				<port id="0" precision="I64">
					<dim>3</dim>
				</port>
			</output>
		</layer>
		<layer id="31" name="Slice_131/Strides1246844384" type="Const" version="opset1">
			<data element_type="i64" offset="56" shape="3" size="24"/>
			<output>
				<port id="0" precision="I64">
					<dim>3</dim>
				</port>
			</output>
		</layer>
		<layer id="32" name="Slice_131" type="StridedSlice" version="opset1">
			<data begin_mask="1, 1, 0" ellipsis_mask="0, 0, 0" end_mask="1, 1, 0" new_axis_mask="0, 0, 0" shrink_axis_mask="0, 0, 0"/>
			<input>
				<port id="0" precision="FP32">
					<dim>1</dim>
					<dim>64</dim>
					<dim>2048</dim>
				</port>
				<port id="1" precision="I64">
					<dim>3</dim>
				</port>
				<port id="2" precision="I64">
					<dim>3</dim>
				</port>
				<port id="3" precision="I64">
					<dim>3</dim>
				</port>
			</input>
			<output>
				<port id="4" names="483" precision="FP32">
					<dim>1</dim>
					<dim>64</dim>
					<dim>64</dim>
				</port>
			</output>
		</layer>
		<layer id="33" name="Slice_107/Concat1233443907" type="Const" version="opset1">
			<data element_type="i64" offset="200" shape="3" size="24"/>
			<output>
				<port id="0" precision="I64">
					<dim>3</dim>
				</port>
			</output>
		</layer>
		<layer id="34" name="Slice_107/Concat123201233544054" type="Const" version="opset1">
			<data element_type="i64" offset="32" shape="3" size="24"/>
			<output>
				<port id="0" precision="I64">
					<dim>3</dim>
				</port>
			</output>
		</layer>
		<layer id="35" name="Slice_107/Strides1233644018" type="Const" version="opset1">
			<data element_type="i64" offset="56" shape="3" size="24"/>
			<output>
				<port id="0" precision="I64">
					<dim>3</dim>
				</port>
			</output>
		</layer>
		<layer id="36" name="Slice_107" type="StridedSlice" version="opset1">
			<data begin_mask="1, 1, 0" ellipsis_mask="0, 0, 0" end_mask="1, 1, 0" new_axis_mask="0, 0, 0" shrink_axis_mask="0, 0, 0"/>
			<input>
				<port id="0" precision="FP32">
					<dim>1</dim>
					<dim>64</dim>
					<dim>2048</dim>
				</port>
				<port id="1" precision="I64">
					<dim>3</dim>
				</port>
				<port id="2" precision="I64">
					<dim>3</dim>
				</port>
				<port id="3" precision="I64">
					<dim>3</dim>
				</port>
			</input>
			<output>
				<port id="4" names="459" precision="FP32">
					<dim>1</dim>
					<dim>64</dim>
					<dim>128</dim>
				</port>
			</output>
		</layer>
		<layer id="37" name="Slice_83/Concat1220243544" type="Const" version="opset1">
			<data element_type="i64" offset="224" shape="3" size="24"/>
			<output>
				<port id="0" precision="I64">
					<dim>3</dim>
				</port>
			</output>
		</layer>
		<layer id="38" name="Slice_83/Concat121881220344240" type="Const" version="opset1">
			<data element_type="i64" offset="32" shape="3" size="24"/>
			<output>
				<port id="0" precision="I64">
					<dim>3</dim>
				</port>
			</output>
		</layer>
		<layer id="39" name="Slice_83/Strides1220443685" type="Const" version="opset1">
			<data element_type="i64" offset="56" shape="3" size="24"/>
			<output>
				<port id="0" precision="I64">
					<dim>3</dim>
				</port>
			</output>
		</layer>
		<layer id="40" name="Slice_83" type="StridedSlice" version="opset1">
			<data begin_mask="1, 1, 0" ellipsis_mask="0, 0, 0" end_mask="1, 1, 0" new_axis_mask="0, 0, 0" shrink_axis_mask="0, 0, 0"/>
			<input>
				<port id="0" precision="FP32">
					<dim>1</dim>
					<dim>64</dim>
					<dim>2048</dim>
				</port>
				<port id="1" precision="I64">
					<dim>3</dim>
				</port>
				<port id="2" precision="I64">
					<dim>3</dim>
				</port>
				<port id="3" precision="I64">
					<dim>3</dim>
				</port>
			</input>
			<output>
				<port id="4" names="435" precision="FP32">
					<dim>1</dim>
					<dim>64</dim>
					<dim>256</dim>
				</port>
			</output>
		</layer>
		<layer id="41" name="Slice_59/Concat1207044771" type="Const" version="opset1">
			<data element_type="i64" offset="248" shape="3" size="24"/>
			<output>
				<port id="0" precision="I64">
					<dim>3</dim>
				</port>
			</output>
		</layer>
		<layer id="42" name="Slice_59/Concat120561207143511" type="Const" version="opset1">
			<data element_type="i64" offset="32" shape="3" size="24"/>
			<output>
				<port id="0" precision="I64">
					<dim>3</dim>
				</port>
			</output>
		</layer>
		<layer id="43" name="Slice_59/Strides1207244687" type="Const" version="opset1">
			<data element_type="i64" offset="56" shape="3" size="24"/>
			<output>
				<port id="0" precision="I64">
					<dim>3</dim>
				</port>
			</output>
		</layer>
		<layer id="44" name="Slice_59" type="StridedSlice" version="opset1">
			<data begin_mask="1, 1, 0" ellipsis_mask="0, 0, 0" end_mask="1, 1, 0" new_axis_mask="0, 0, 0" shrink_axis_mask="0, 0, 0"/>
			<input>
				<port id="0" precision="FP32">
					<dim>1</dim>
					<dim>64</dim>
					<dim>2048</dim>
				</port>
				<port id="1" precision="I64">
					<dim>3</dim>
				</port>
				<port id="2" precision="I64">
					<dim>3</dim>
				</port>
				<port id="3" precision="I64">
					<dim>3</dim>
				</port>
			</input>
			<output>
				<port id="4" names="411" precision="FP32">
					<dim>1</dim>
					<dim>64</dim>
					<dim>512</dim>
				</port>
			</output>
		</layer>
		<layer id="45" name="Slice_35/Concat1193844696" type="Const" version="opset1">
			<data element_type="i64" offset="272" shape="3" size="24"/>
			<output>
				<port id="0" precision="I64">
					<dim>3</dim>
				</port>
			</output>
		</layer>
		<layer id="46" name="Slice_35/Concat119241193943844" type="Const" version="opset1">
			<data element_type="i64" offset="32" shape="3" size="24"/>
			<output>
				<port id="0" precision="I64">
					<dim>3</dim>
				</port>
			</output>
		</layer>
		<layer id="47" name="Slice_35/Strides1194044156" type="Const" version="opset1">
			<data element_type="i64" offset="56" shape="3" size="24"/>
			<output>
				<port id="0" precision="I64">
					<dim>3</dim>
				</port>
			</output>
		</layer>
		<layer id="48" name="Slice_35" type="StridedSlice" version="opset1">
			<data begin_mask="1, 1, 0" ellipsis_mask="0, 0, 0" end_mask="1, 1, 0" new_axis_mask="0, 0, 0" shrink_axis_mask="0, 0, 0"/>
			<input>
				<port id="0" precision="FP32">
					<dim>1</dim>
					<dim>64</dim>
					<dim>2048</dim>
				</port>
				<port id="1" precision="I64">
					<dim>3</dim>
				</port>
				<port id="2" precision="I64">
					<dim>3</dim>
				</port>
				<port id="3" precision="I64">
					<dim>3</dim>
				</port>
			</input>
			<output>
				<port id="4" names="387" precision="FP32">
					<dim>1</dim>
					<dim>64</dim>
					<dim>1024</dim>
				</port>
			</output>
		</layer>
		<layer id="49" name="Slice_11/Concat1180644693" type="Const" version="opset1">
			<data element_type="i64" offset="296" shape="3" size="24"/>
			<output>
				<port id="0" precision="I64">
					<dim>3</dim>
				</port>
			</output>
		</layer>
		<layer id="50" name="Slice_11/Concat117921180744777" type="Const" version="opset1">
			<data element_type="i64" offset="32" shape="3" size="24"/>
			<output>
				<port id="0" precision="I64">
					<dim>3</dim>
				</port>
			</output>
		</layer>
		<layer id="51" name="Slice_11/Strides1180844057" type="Const" version="opset1">
			<data element_type="i64" offset="56" shape="3" size="24"/>
			<output>
				<port id="0" precision="I64">
					<dim>3</dim>
				</port>
			</output>
		</layer>
		<layer id="52" name="Slice_11" type="StridedSlice" version="opset1">
			<data begin_mask="1, 1, 0" ellipsis_mask="0, 0, 0" end_mask="1, 1, 0" new_axis_mask="0, 0, 0" shrink_axis_mask="0, 0, 0"/>
			<input>
				<port id="0" precision="FP32">
					<dim>1</dim>
					<dim>64</dim>
					<dim>2048</dim>
				</port>
				<port id="1" precision="I64">
					<dim>3</dim>
				</port>
				<port id="2" precision="I64">
					<dim>3</dim>
				</port>
				<port id="3" precision="I64">
					<dim>3</dim>
				</port>
			</input>
			<output>
				<port id="4" names="363" precision="FP32">
					<dim>1</dim>
					<dim>64</dim>
					<dim>2048</dim>
				</port>
			</output>
		</layer>
		<layer id="53" name="PG.conv_1x1_in.weight" type="Const" version="opset1">
			<data element_type="f32" offset="320" shape="64, 2048, 1" size="524288"/>
			<output>
				<port id="0" names="PG.conv_1x1_in.weight" precision="FP32">
					<dim>64</dim>
					<dim>2048</dim>
					<dim>1</dim>
				</port>
			</output>
		</layer>
		<layer id="54" name="Conv_0/WithoutBiases" type="Convolution" version="opset1">
			<data auto_pad="explicit" dilations="1" pads_begin="0" pads_end="0" strides="1"/>
			<input>
				<port id="0" precision="FP32">
					<dim>1</dim>
					<dim>2048</dim>
					<dim>24</dim>
				</port>
				<port id="1" precision="FP32">
					<dim>64</dim>
					<dim>2048</dim>
					<dim>1</dim>
				</port>
			</input>
			<output>
				<port id="2" precision="FP32">
					<dim>1</dim>
					<dim>64</dim>
					<dim>24</dim>
				</port>
			</output>
		</layer>
		<layer id="55" name="Conv_0/Dims10616" type="Const" version="opset1">
			<data element_type="f32" offset="524608" shape="1, 64, 1" size="256"/>
			<output>
				<port id="0" precision="FP32">
					<dim>1</dim>
					<dim>64</dim>
					<dim>1</dim>
				</port>
			</output>
		</layer>
		<layer id="56" name="Conv_0" type="Add" version="opset1">
			<data auto_broadcast="numpy"/>
			<input>
				<port id="0" precision="FP32">
					<dim>1</dim>
					<dim>64</dim>
					<dim>24</dim>
				</port>
				<port id="1" precision="FP32">
					<dim>1</dim>
					<dim>64</dim>
					<dim>1</dim>
				</port>
			</input>
			<output>
				<port id="2" names="352" precision="FP32">
					<dim>1</dim>
					<dim>64</dim>
					<dim>24</dim>
				</port>
			</output>
		</layer>
		<layer id="57" name="Concat_12" type="Concat" version="opset1">
			<data axis="2"/>
			<input>
				<port id="0" precision="FP32">
					<dim>1</dim>
					<dim>64</dim>
					<dim>2048</dim>
				</port>
				<port id="1" precision="FP32">
					<dim>1</dim>
					<dim>64</dim>
					<dim>24</dim>
				</port>
			</input>
			<output>
				<port id="2" names="364" precision="FP32">
					<dim>1</dim>
					<dim>64</dim>
					<dim>2072</dim>
				</port>
			</output>
		</layer>
		<layer id="58" name="PG.conv_dilated_online_1.0.weight" type="Const" version="opset1">
			<data element_type="f32" offset="524864" shape="64, 64, 3" size="49152"/>
			<output>
				<port id="0" names="PG.conv_dilated_online_1.0.weight" precision="FP32">
					<dim>64</dim>
					<dim>64</dim>
					<dim>3</dim>
				</port>
			</output>
		</layer>
		<layer id="59" name="Conv_19/WithoutBiases" type="Convolution" version="opset1">
			<data auto_pad="explicit" dilations="1024" pads_begin="0" pads_end="0" strides="1"/>
			<input>
				<port id="0" precision="FP32">
					<dim>1</dim>
					<dim>64</dim>
					<dim>2072</dim>
				</port>
				<port id="1" precision="FP32">
					<dim>64</dim>
					<dim>64</dim>
					<dim>3</dim>
				</port>
			</input>
			<output>
				<port id="2" precision="FP32">
					<dim>1</dim>
					<dim>64</dim>
					<dim>24</dim>
				</port>
			</output>
		</layer>
		<layer id="60" name="Conv_19/Dims10562" type="Const" version="opset1">
			<data element_type="f32" offset="574016" shape="1, 64, 1" size="256"/>
			<output>
				<port id="0" precision="FP32">
					<dim>1</dim>
					<dim>64</dim>
					<dim>1</dim>
				</port>
			</output>
		</layer>
		<layer id="61" name="Conv_19" type="Add" version="opset1">
			<data auto_broadcast="numpy"/>
			<input>
				<port id="0" precision="FP32">
					<dim>1</dim>
					<dim>64</dim>
					<dim>24</dim>
				</port>
				<port id="1" precision="FP32">
					<dim>1</dim>
					<dim>64</dim>
					<dim>1</dim>
				</port>
			</input>
			<output>
				<port id="2" names="371" precision="FP32">
					<dim>1</dim>
					<dim>64</dim>
					<dim>24</dim>
				</port>
			</output>
		</layer>
		<layer id="62" name="Slice_17/Concat1185044675" type="Const" version="opset1">
			<data element_type="i64" offset="8" shape="3" size="24"/>
			<output>
				<port id="0" precision="I64">
					<dim>3</dim>
				</port>
			</output>
		</layer>
		<layer id="63" name="Slice_17/Concat118361185144201" type="Const" version="opset1">
			<data element_type="i64" offset="32" shape="3" size="24"/>
			<output>
				<port id="0" precision="I64">
					<dim>3</dim>
				</port>
			</output>
		</layer>
		<layer id="64" name="Slice_17/Strides1185244807" type="Const" version="opset1">
			<data element_type="i64" offset="56" shape="3" size="24"/>
			<output>
				<port id="0" precision="I64">
					<dim>3</dim>
				</port>
			</output>
		</layer>
		<layer id="65" name="Slice_17" type="StridedSlice" version="opset1">
			<data begin_mask="1, 1, 0" ellipsis_mask="0, 0, 0" end_mask="1, 1, 0" new_axis_mask="0, 0, 0" shrink_axis_mask="0, 0, 0"/>
			<input>
				<port id="0" precision="FP32">
					<dim>1</dim>
					<dim>64</dim>
					<dim>2048</dim>
				</port>
				<port id="1" precision="I64">
					<dim>3</dim>
				</port>
				<port id="2" precision="I64">
					<dim>3</dim>
				</port>
				<port id="3" precision="I64">
					<dim>3</dim>
				</port>
			</input>
			<output>
				<port id="4" names="369" precision="FP32">
					<dim>1</dim>
					<dim>64</dim>
					<dim>2</dim>
				</port>
			</output>
		</layer>
		<layer id="66" name="Concat_18" type="Concat" version="opset1">
			<data axis="2"/>
			<input>
				<port id="0" precision="FP32">
					<dim>1</dim>
					<dim>64</dim>
					<dim>2</dim>
				</port>
				<port id="1" precision="FP32">
					<dim>1</dim>
					<dim>64</dim>
					<dim>24</dim>
				</port>
			</input>
			<output>
				<port id="2" names="370" precision="FP32">
					<dim>1</dim>
					<dim>64</dim>
					<dim>26</dim>
				</port>
			</output>
		</layer>
		<layer id="67" name="PG.conv_dilated_online_2.0.weight" type="Const" version="opset1">
			<data element_type="f32" offset="574272" shape="64, 64, 3" size="49152"/>
			<output>
				<port id="0" names="PG.conv_dilated_online_2.0.weight" precision="FP32">
					<dim>64</dim>
					<dim>64</dim>
					<dim>3</dim>
				</port>
			</output>
		</layer>
		<layer id="68" name="Conv_20/WithoutBiases" type="Convolution" version="opset1">
			<data auto_pad="explicit" dilations="1" pads_begin="0" pads_end="0" strides="1"/>
			<input>
				<port id="0" precision="FP32">
					<dim>1</dim>
					<dim>64</dim>
					<dim>26</dim>
				</port>
				<port id="1" precision="FP32">
					<dim>64</dim>
					<dim>64</dim>
					<dim>3</dim>
				</port>
			</input>
			<output>
				<port id="2" precision="FP32">
					<dim>1</dim>
					<dim>64</dim>
					<dim>24</dim>
				</port>
			</output>
		</layer>
		<layer id="69" name="Conv_20/Dims10676" type="Const" version="opset1">
			<data element_type="f32" offset="623424" shape="1, 64, 1" size="256"/>
			<output>
				<port id="0" precision="FP32">
					<dim>1</dim>
					<dim>64</dim>
					<dim>1</dim>
				</port>
			</output>
		</layer>
		<layer id="70" name="Conv_20" type="Add" version="opset1">
			<data auto_broadcast="numpy"/>
			<input>
				<port id="0" precision="FP32">
					<dim>1</dim>
					<dim>64</dim>
					<dim>24</dim>
				</port>
				<port id="1" precision="FP32">
					<dim>1</dim>
					<dim>64</dim>
					<dim>1</dim>
				</port>
			</input>
			<output>
				<port id="2" names="372" precision="FP32">
					<dim>1</dim>
					<dim>64</dim>
					<dim>24</dim>
				</port>
			</output>
		</layer>
		<layer id="71" name="Concat_21" type="Concat" version="opset1">
			<data axis="1"/>
			<input>
				<port id="0" precision="FP32">
					<dim>1</dim>
					<dim>64</dim>
					<dim>24</dim>
				</port>
				<port id="1" precision="FP32">
					<dim>1</dim>
					<dim>64</dim>
					<dim>24</dim>
				</port>
			</input>
			<output>
				<port id="2" names="373" precision="FP32">
					<dim>1</dim>
					<dim>128</dim>
					<dim>24</dim>
				</port>
			</output>
		</layer>
		<layer id="72" name="PG.conv_fusion.0.weight" type="Const" version="opset1">
			<data element_type="f32" offset="623680" shape="64, 128, 1" size="32768"/>
			<output>
				<port id="0" names="PG.conv_fusion.0.weight" precision="FP32">
					<dim>64</dim>
					<dim>128</dim>
					<dim>1</dim>
				</port>
			</output>
		</layer>
		<layer id="73" name="Conv_22/WithoutBiases" type="Convolution" version="opset1">
			<data auto_pad="explicit" dilations="1" pads_begin="0" pads_end="0" strides="1"/>
			<input>
				<port id="0" precision="FP32">
					<dim>1</dim>
					<dim>128</dim>
					<dim>24</dim>
				</port>
				<port id="1" precision="FP32">
					<dim>64</dim>
					<dim>128</dim>
					<dim>1</dim>
				</port>
			</input>
			<output>
				<port id="2" precision="FP32">
					<dim>1</dim>
					<dim>64</dim>
					<dim>24</dim>
				</port>
			</output>
		</layer>
		<layer id="74" name="Conv_22/Dims10964" type="Const" version="opset1">
			<data element_type="f32" offset="656448" shape="1, 64, 1" size="256"/>
			<output>
				<port id="0" precision="FP32">
					<dim>1</dim>
					<dim>64</dim>
					<dim>1</dim>
				</port>
			</output>
		</layer>
		<layer id="75" name="Conv_22" type="Add" version="opset1">
			<data auto_broadcast="numpy"/>
			<input>
				<port id="0" precision="FP32">
					<dim>1</dim>
					<dim>64</dim>
					<dim>24</dim>
				</port>
				<port id="1" precision="FP32">
					<dim>1</dim>
					<dim>64</dim>
					<dim>1</dim>
				</port>
			</input>
			<output>
				<port id="2" names="374" precision="FP32">
					<dim>1</dim>
					<dim>64</dim>
					<dim>24</dim>
				</port>
			</output>
		</layer>
		<layer id="76" name="Relu_23" type="ReLU" version="opset1">
			<input>
				<port id="0" precision="FP32">
					<dim>1</dim>
					<dim>64</dim>
					<dim>24</dim>
				</port>
			</input>
			<output>
				<port id="1" names="375" precision="FP32">
					<dim>1</dim>
					<dim>64</dim>
					<dim>24</dim>
				</port>
			</output>
		</layer>
		<layer id="77" name="Add_24" type="Add" version="opset1">
			<data auto_broadcast="numpy"/>
			<input>
				<port id="0" precision="FP32">
					<dim>1</dim>
					<dim>64</dim>
					<dim>24</dim>
				</port>
				<port id="1" precision="FP32">
					<dim>1</dim>
					<dim>64</dim>
					<dim>24</dim>
				</port>
			</input>
			<output>
				<port id="2" names="376" precision="FP32">
					<dim>1</dim>
					<dim>64</dim>
					<dim>24</dim>
				</port>
			</output>
		</layer>
		<layer id="78" name="Concat_36" type="Concat" version="opset1">
			<data axis="2"/>
			<input>
				<port id="0" precision="FP32">
					<dim>1</dim>
					<dim>64</dim>
					<dim>1024</dim>
				</port>
				<port id="1" precision="FP32">
					<dim>1</dim>
					<dim>64</dim>
					<dim>24</dim>
				</port>
			</input>
			<output>
				<port id="2" names="388" precision="FP32">
					<dim>1</dim>
					<dim>64</dim>
					<dim>1048</dim>
				</port>
			</output>
		</layer>
		<layer id="79" name="PG.conv_dilated_online_1.1.weight" type="Const" version="opset1">
			<data element_type="f32" offset="656704" shape="64, 64, 3" size="49152"/>
			<output>
				<port id="0" names="PG.conv_dilated_online_1.1.weight" precision="FP32">
					<dim>64</dim>
					<dim>64</dim>
					<dim>3</dim>
				</port>
			</output>
		</layer>
		<layer id="80" name="Conv_43/WithoutBiases" type="Convolution" version="opset1">
			<data auto_pad="explicit" dilations="512" pads_begin="0" pads_end="0" strides="1"/>
			<input>
				<port id="0" precision="FP32">
					<dim>1</dim>
					<dim>64</dim>
					<dim>1048</dim>
				</port>
				<port id="1" precision="FP32">
					<dim>64</dim>
					<dim>64</dim>
					<dim>3</dim>
				</port>
			</input>
			<output>
				<port id="2" precision="FP32">
					<dim>1</dim>
					<dim>64</dim>
					<dim>24</dim>
				</port>
			</output>
		</layer>
		<layer id="81" name="Conv_43/Dims11060" type="Const" version="opset1">
			<data element_type="f32" offset="705856" shape="1, 64, 1" size="256"/>
			<output>
				<port id="0" precision="FP32">
					<dim>1</dim>
					<dim>64</dim>
					<dim>1</dim>
				</port>
			</output>
		</layer>
		<layer id="82" name="Conv_43" type="Add" version="opset1">
			<data auto_broadcast="numpy"/>
			<input>
				<port id="0" precision="FP32">
					<dim>1</dim>
					<dim>64</dim>
					<dim>24</dim>
				</port>
				<port id="1" precision="FP32">
					<dim>1</dim>
					<dim>64</dim>
					<dim>1</dim>
				</port>
			</input>
			<output>
				<port id="2" names="395" precision="FP32">
					<dim>1</dim>
					<dim>64</dim>
					<dim>24</dim>
				</port>
			</output>
		</layer>
		<layer id="83" name="Slice_41/Concat1198244639" type="Const" version="opset1">
			<data element_type="i64" offset="80" shape="3" size="24"/>
			<output>
				<port id="0" precision="I64">
					<dim>3</dim>
				</port>
			</output>
		</layer>
		<layer id="84" name="Slice_41/Concat119681198344381" type="Const" version="opset1">
			<data element_type="i64" offset="32" shape="3" size="24"/>
			<output>
				<port id="0" precision="I64">
					<dim>3</dim>
				</port>
			</output>
		</layer>
		<layer id="85" name="Slice_41/Strides1198443733" type="Const" version="opset1">
			<data element_type="i64" offset="56" shape="3" size="24"/>
			<output>
				<port id="0" precision="I64">
					<dim>3</dim>
				</port>
			</output>
		</layer>
		<layer id="86" name="Slice_41" type="StridedSlice" version="opset1">
			<data begin_mask="1, 1, 0" ellipsis_mask="0, 0, 0" end_mask="1, 1, 0" new_axis_mask="0, 0, 0" shrink_axis_mask="0, 0, 0"/>
			<input>
				<port id="0" precision="FP32">
					<dim>1</dim>
					<dim>64</dim>
					<dim>2048</dim>
				</port>
				<port id="1" precision="I64">
					<dim>3</dim>
				</port>
				<port id="2" precision="I64">
					<dim>3</dim>
				</port>
				<port id="3" precision="I64">
					<dim>3</dim>
				</port>
			</input>
			<output>
				<port id="4" names="393" precision="FP32">
					<dim>1</dim>
					<dim>64</dim>
					<dim>4</dim>
				</port>
			</output>
		</layer>
		<layer id="87" name="Concat_42" type="Concat" version="opset1">
			<data axis="2"/>
			<input>
				<port id="0" precision="FP32">
					<dim>1</dim>
					<dim>64</dim>
					<dim>4</dim>
				</port>
				<port id="1" precision="FP32">
					<dim>1</dim>
					<dim>64</dim>
					<dim>24</dim>
				</port>
			</input>
			<output>
				<port id="2" names="394" precision="FP32">
					<dim>1</dim>
					<dim>64</dim>
					<dim>28</dim>
				</port>
			</output>
		</layer>
		<layer id="88" name="PG.conv_dilated_online_2.1.weight" type="Const" version="opset1">
			<data element_type="f32" offset="706112" shape="64, 64, 3" size="49152"/>
			<output>
				<port id="0" names="PG.conv_dilated_online_2.1.weight" precision="FP32">
					<dim>64</dim>
					<dim>64</dim>
					<dim>3</dim>
				</port>
			</output>
		</layer>
		<layer id="89" name="Conv_44/WithoutBiases" type="Convolution" version="opset1">
			<data auto_pad="explicit" dilations="2" pads_begin="0" pads_end="0" strides="1"/>
			<input>
				<port id="0" precision="FP32">
					<dim>1</dim>
					<dim>64</dim>
					<dim>28</dim>
				</port>
				<port id="1" precision="FP32">
					<dim>64</dim>
					<dim>64</dim>
					<dim>3</dim>
				</port>
			</input>
			<output>
				<port id="2" precision="FP32">
					<dim>1</dim>
					<dim>64</dim>
					<dim>24</dim>
				</port>
			</output>
		</layer>
		<layer id="90" name="Conv_44/Dims11006" type="Const" version="opset1">
			<data element_type="f32" offset="755264" shape="1, 64, 1" size="256"/>
			<output>
				<port id="0" precision="FP32">
					<dim>1</dim>
					<dim>64</dim>
					<dim>1</dim>
				</port>
			</output>
		</layer>
		<layer id="91" name="Conv_44" type="Add" version="opset1">
			<data auto_broadcast="numpy"/>
			<input>
				<port id="0" precision="FP32">
					<dim>1</dim>
					<dim>64</dim>
					<dim>24</dim>
				</port>
				<port id="1" precision="FP32">
					<dim>1</dim>
					<dim>64</dim>
					<dim>1</dim>
				</port>
			</input>
			<output>
				<port id="2" names="396" precision="FP32">
					<dim>1</dim>
					<dim>64</dim>
					<dim>24</dim>
				</port>
			</output>
		</layer>
		<layer id="92" name="Concat_45" type="Concat" version="opset1">
			<data axis="1"/>
			<input>
				<port id="0" precision="FP32">
					<dim>1</dim>
					<dim>64</dim>
					<dim>24</dim>
				</port>
				<port id="1" precision="FP32">
					<dim>1</dim>
					<dim>64</dim>
					<dim>24</dim>
				</port>
			</input>
			<output>
				<port id="2" names="397" precision="FP32">
					<dim>1</dim>
					<dim>128</dim>
					<dim>24</dim>
				</port>
			</output>
		</layer>
		<layer id="93" name="PG.conv_fusion.1.weight" type="Const" version="opset1">
			<data element_type="f32" offset="755520" shape="64, 128, 1" size="32768"/>
			<output>
				<port id="0" names="PG.conv_fusion.1.weight" precision="FP32">
					<dim>64</dim>
					<dim>128</dim>
					<dim>1</dim>
				</port>
			</output>
		</layer>
		<layer id="94" name="Conv_46/WithoutBiases" type="Convolution" version="opset1">
			<data auto_pad="explicit" dilations="1" pads_begin="0" pads_end="0" strides="1"/>
			<input>
				<port id="0" precision="FP32">
					<dim>1</dim>
					<dim>128</dim>
					<dim>24</dim>
				</port>
				<port id="1" precision="FP32">
					<dim>64</dim>
					<dim>128</dim>
					<dim>1</dim>
				</port>
			</input>
			<output>
				<port id="2" precision="FP32">
					<dim>1</dim>
					<dim>64</dim>
					<dim>24</dim>
				</port>
			</output>
		</layer>
		<layer id="95" name="Conv_46/Dims10976" type="Const" version="opset1">
			<data element_type="f32" offset="788288" shape="1, 64, 1" size="256"/>
			<output>
				<port id="0" precision="FP32">
					<dim>1</dim>
					<dim>64</dim>
					<dim>1</dim>
				</port>
			</output>
		</layer>
		<layer id="96" name="Conv_46" type="Add" version="opset1">
			<data auto_broadcast="numpy"/>
			<input>
				<port id="0" precision="FP32">
					<dim>1</dim>
					<dim>64</dim>
					<dim>24</dim>
				</port>
				<port id="1" precision="FP32">
					<dim>1</dim>
					<dim>64</dim>
					<dim>1</dim>
				</port>
			</input>
			<output>
				<port id="2" names="398" precision="FP32">
					<dim>1</dim>
					<dim>64</dim>
					<dim>24</dim>
				</port>
			</output>
		</layer>
		<layer id="97" name="Relu_47" type="ReLU" version="opset1">
			<input>
				<port id="0" precision="FP32">
					<dim>1</dim>
					<dim>64</dim>
					<dim>24</dim>
				</port>
			</input>
			<output>
				<port id="1" names="399" precision="FP32">
					<dim>1</dim>
					<dim>64</dim>
					<dim>24</dim>
				</port>
			</output>
		</layer>
		<layer id="98" name="Add_48" type="Add" version="opset1">
			<data auto_broadcast="numpy"/>
			<input>
				<port id="0" precision="FP32">
					<dim>1</dim>
					<dim>64</dim>
					<dim>24</dim>
				</port>
				<port id="1" precision="FP32">
					<dim>1</dim>
					<dim>64</dim>
					<dim>24</dim>
				</port>
			</input>
			<output>
				<port id="2" names="400" precision="FP32">
					<dim>1</dim>
					<dim>64</dim>
					<dim>24</dim>
				</port>
			</output>
		</layer>
		<layer id="99" name="Concat_60" type="Concat" version="opset1">
			<data axis="2"/>
			<input>
				<port id="0" precision="FP32">
					<dim>1</dim>
					<dim>64</dim>
					<dim>512</dim>
				</port>
				<port id="1" precision="FP32">
					<dim>1</dim>
					<dim>64</dim>
					<dim>24</dim>
				</port>
			</input>
			<output>
				<port id="2" names="412" precision="FP32">
					<dim>1</dim>
					<dim>64</dim>
					<dim>536</dim>
				</port>
			</output>
		</layer>
		<layer id="100" name="PG.conv_dilated_online_1.2.weight" type="Const" version="opset1">
			<data element_type="f32" offset="788544" shape="64, 64, 3" size="49152"/>
			<output>
				<port id="0" names="PG.conv_dilated_online_1.2.weight" precision="FP32">
					<dim>64</dim>
					<dim>64</dim>
					<dim>3</dim>
				</port>
			</output>
		</layer>
		<layer id="101" name="Conv_67/WithoutBiases" type="Convolution" version="opset1">
			<data auto_pad="explicit" dilations="256" pads_begin="0" pads_end="0" strides="1"/>
			<input>
				<port id="0" precision="FP32">
					<dim>1</dim>
					<dim>64</dim>
					<dim>536</dim>
				</port>
				<port id="1" precision="FP32">
					<dim>64</dim>
					<dim>64</dim>
					<dim>3</dim>
				</port>
			</input>
			<output>
				<port id="2" precision="FP32">
					<dim>1</dim>
					<dim>64</dim>
					<dim>24</dim>
				</port>
			</output>
		</layer>
		<layer id="102" name="Conv_67/Dims10742" type="Const" version="opset1">
			<data element_type="f32" offset="837696" shape="1, 64, 1" size="256"/>
			<output>
				<port id="0" precision="FP32">
					<dim>1</dim>
					<dim>64</dim>
					<dim>1</dim>
				</port>
			</output>
		</layer>
		<layer id="103" name="Conv_67" type="Add" version="opset1">
			<data auto_broadcast="numpy"/>
			<input>
				<port id="0" precision="FP32">
					<dim>1</dim>
					<dim>64</dim>
					<dim>24</dim>
				</port>
				<port id="1" precision="FP32">
					<dim>1</dim>
					<dim>64</dim>
					<dim>1</dim>
				</port>
			</input>
			<output>
				<port id="2" names="419" precision="FP32">
					<dim>1</dim>
					<dim>64</dim>
					<dim>24</dim>
				</port>
			</output>
		</layer>
		<layer id="104" name="Slice_65/Concat1211443487" type="Const" version="opset1">
			<data element_type="i64" offset="104" shape="3" size="24"/>
			<output>
				<port id="0" precision="I64">
					<dim>3</dim>
				</port>
			</output>
		</layer>
		<layer id="105" name="Slice_65/Concat121001211543370" type="Const" version="opset1">
			<data element_type="i64" offset="32" shape="3" size="24"/>
			<output>
				<port id="0" precision="I64">
					<dim>3</dim>
				</port>
			</output>
		</layer>
		<layer id="106" name="Slice_65/Strides1211644123" type="Const" version="opset1">
			<data element_type="i64" offset="56" shape="3" size="24"/>
			<output>
				<port id="0" precision="I64">
					<dim>3</dim>
				</port>
			</output>
		</layer>
		<layer id="107" name="Slice_65" type="StridedSlice" version="opset1">
			<data begin_mask="1, 1, 0" ellipsis_mask="0, 0, 0" end_mask="1, 1, 0" new_axis_mask="0, 0, 0" shrink_axis_mask="0, 0, 0"/>
			<input>
				<port id="0" precision="FP32">
					<dim>1</dim>
					<dim>64</dim>
					<dim>2048</dim>
				</port>
				<port id="1" precision="I64">
					<dim>3</dim>
				</port>
				<port id="2" precision="I64">
					<dim>3</dim>
				</port>
				<port id="3" precision="I64">
					<dim>3</dim>
				</port>
			</input>
			<output>
				<port id="4" names="417" precision="FP32">
					<dim>1</dim>
					<dim>64</dim>
					<dim>8</dim>
				</port>
			</output>
		</layer>
		<layer id="108" name="Concat_66" type="Concat" version="opset1">
			<data axis="2"/>
			<input>
				<port id="0" precision="FP32">
					<dim>1</dim>
					<dim>64</dim>
					<dim>8</dim>
				</port>
				<port id="1" precision="FP32">
					<dim>1</dim>
					<dim>64</dim>
					<dim>24</dim>
				</port>
			</input>
			<output>
				<port id="2" names="418" precision="FP32">
					<dim>1</dim>
					<dim>64</dim>
					<dim>32</dim>
				</port>
			</output>
		</layer>
		<layer id="109" name="PG.conv_dilated_online_2.2.weight" type="Const" version="opset1">
			<data element_type="f32" offset="837952" shape="64, 64, 3" size="49152"/>
			<output>
				<port id="0" names="PG.conv_dilated_online_2.2.weight" precision="FP32">
					<dim>64</dim>
					<dim>64</dim>
					<dim>3</dim>
				</port>
			</output>
		</layer>
		<layer id="110" name="Conv_68/WithoutBiases" type="Convolution" version="opset1">
			<data auto_pad="explicit" dilations="4" pads_begin="0" pads_end="0" strides="1"/>
			<input>
				<port id="0" precision="FP32">
					<dim>1</dim>
					<dim>64</dim>
					<dim>32</dim>
				</port>
				<port id="1" precision="FP32">
					<dim>64</dim>
					<dim>64</dim>
					<dim>3</dim>
				</port>
			</input>
			<output>
				<port id="2" precision="FP32">
					<dim>1</dim>
					<dim>64</dim>
					<dim>24</dim>
				</port>
			</output>
		</layer>
		<layer id="111" name="Conv_68/Dims10520" type="Const" version="opset1">
			<data element_type="f32" offset="887104" shape="1, 64, 1" size="256"/>
			<output>
				<port id="0" precision="FP32">
					<dim>1</dim>
					<dim>64</dim>
					<dim>1</dim>
				</port>
			</output>
		</layer>
		<layer id="112" name="Conv_68" type="Add" version="opset1">
			<data auto_broadcast="numpy"/>
			<input>
				<port id="0" precision="FP32">
					<dim>1</dim>
					<dim>64</dim>
					<dim>24</dim>
				</port>
				<port id="1" precision="FP32">
					<dim>1</dim>
					<dim>64</dim>
					<dim>1</dim>
				</port>
			</input>
			<output>
				<port id="2" names="420" precision="FP32">
					<dim>1</dim>
					<dim>64</dim>
					<dim>24</dim>
				</port>
			</output>
		</layer>
		<layer id="113" name="Concat_69" type="Concat" version="opset1">
			<data axis="1"/>
			<input>
				<port id="0" precision="FP32">
					<dim>1</dim>
					<dim>64</dim>
					<dim>24</dim>
				</port>
				<port id="1" precision="FP32">
					<dim>1</dim>
					<dim>64</dim>
					<dim>24</dim>
				</port>
			</input>
			<output>
				<port id="2" names="421" precision="FP32">
					<dim>1</dim>
					<dim>128</dim>
					<dim>24</dim>
				</port>
			</output>
		</layer>
		<layer id="114" name="PG.conv_fusion.2.weight" type="Const" version="opset1">
			<data element_type="f32" offset="887360" shape="64, 128, 1" size="32768"/>
			<output>
				<port id="0" names="PG.conv_fusion.2.weight" precision="FP32">
					<dim>64</dim>
					<dim>128</dim>
					<dim>1</dim>
				</port>
			</output>
		</layer>
		<layer id="115" name="Conv_70/WithoutBiases" type="Convolution" version="opset1">
			<data auto_pad="explicit" dilations="1" pads_begin="0" pads_end="0" strides="1"/>
			<input>
				<port id="0" precision="FP32">
					<dim>1</dim>
					<dim>128</dim>
					<dim>24</dim>
				</port>
				<port id="1" precision="FP32">
					<dim>64</dim>
					<dim>128</dim>
					<dim>1</dim>
				</port>
			</input>
			<output>
				<port id="2" precision="FP32">
					<dim>1</dim>
					<dim>64</dim>
					<dim>24</dim>
				</port>
			</output>
		</layer>
		<layer id="116" name="Conv_70/Dims11114" type="Const" version="opset1">
			<data element_type="f32" offset="920128" shape="1, 64, 1" size="256"/>
			<output>
				<port id="0" precision="FP32">
					<dim>1</dim>
					<dim>64</dim>
					<dim>1</dim>
				</port>
			</output>
		</layer>
		<layer id="117" name="Conv_70" type="Add" version="opset1">
			<data auto_broadcast="numpy"/>
			<input>
				<port id="0" precision="FP32">
					<dim>1</dim>
					<dim>64</dim>
					<dim>24</dim>
				</port>
				<port id="1" precision="FP32">
					<dim>1</dim>
					<dim>64</dim>
					<dim>1</dim>
				</port>
			</input>
			<output>
				<port id="2" names="422" precision="FP32">
					<dim>1</dim>
					<dim>64</dim>
					<dim>24</dim>
				</port>
			</output>
		</layer>
		<layer id="118" name="Relu_71" type="ReLU" version="opset1">
			<input>
				<port id="0" precision="FP32">
					<dim>1</dim>
					<dim>64</dim>
					<dim>24</dim>
				</port>
			</input>
			<output>
				<port id="1" names="423" precision="FP32">
					<dim>1</dim>
					<dim>64</dim>
					<dim>24</dim>
				</port>
			</output>
		</layer>
		<layer id="119" name="Add_72" type="Add" version="opset1">
			<data auto_broadcast="numpy"/>
			<input>
				<port id="0" precision="FP32">
					<dim>1</dim>
					<dim>64</dim>
					<dim>24</dim>
				</port>
				<port id="1" precision="FP32">
					<dim>1</dim>
					<dim>64</dim>
					<dim>24</dim>
				</port>
			</input>
			<output>
				<port id="2" names="424" precision="FP32">
					<dim>1</dim>
					<dim>64</dim>
					<dim>24</dim>
				</port>
			</output>
		</layer>
		<layer id="120" name="Concat_84" type="Concat" version="opset1">
			<data axis="2"/>
			<input>
				<port id="0" precision="FP32">
					<dim>1</dim>
					<dim>64</dim>
					<dim>256</dim>
				</port>
				<port id="1" precision="FP32">
					<dim>1</dim>
					<dim>64</dim>
					<dim>24</dim>
				</port>
			</input>
			<output>
				<port id="2" names="436" precision="FP32">
					<dim>1</dim>
					<dim>64</dim>
					<dim>280</dim>
				</port>
			</output>
		</layer>
		<layer id="121" name="PG.conv_dilated_online_1.3.weight" type="Const" version="opset1">
			<data element_type="f32" offset="920384" shape="64, 64, 3" size="49152"/>
			<output>
				<port id="0" names="PG.conv_dilated_online_1.3.weight" precision="FP32">
					<dim>64</dim>
					<dim>64</dim>
					<dim>3</dim>
				</port>
			</output>
		</layer>
		<layer id="122" name="Conv_91/WithoutBiases" type="Convolution" version="opset1">
			<data auto_pad="explicit" dilations="128" pads_begin="0" pads_end="0" strides="1"/>
			<input>
				<port id="0" precision="FP32">
					<dim>1</dim>
					<dim>64</dim>
					<dim>280</dim>
				</port>
				<port id="1" precision="FP32">
					<dim>64</dim>
					<dim>64</dim>
					<dim>3</dim>
				</port>
			</input>
			<output>
				<port id="2" precision="FP32">
					<dim>1</dim>
					<dim>64</dim>
					<dim>24</dim>
				</port>
			</output>
		</layer>
		<layer id="123" name="Conv_91/Dims11024" type="Const" version="opset1">
			<data element_type="f32" offset="969536" shape="1, 64, 1" size="256"/>
			<output>
				<port id="0" precision="FP32">
					<dim>1</dim>
					<dim>64</dim>
					<dim>1</dim>
				</port>
			</output>
		</layer>
		<layer id="124" name="Conv_91" type="Add" version="opset1">
			<data auto_broadcast="numpy"/>
			<input>
				<port id="0" precision="FP32">
					<dim>1</dim>
					<dim>64</dim>
					<dim>24</dim>
				</port>
				<port id="1" precision="FP32">
					<dim>1</dim>
					<dim>64</dim>
					<dim>1</dim>
				</port>
			</input>
			<output>
				<port id="2" names="443" precision="FP32">
					<dim>1</dim>
					<dim>64</dim>
					<dim>24</dim>
				</port>
			</output>
		</layer>
		<layer id="125" name="Slice_89/Concat1224643850" type="Const" version="opset1">
			<data element_type="i64" offset="128" shape="3" size="24"/>
			<output>
				<port id="0" precision="I64">
					<dim>3</dim>
				</port>
			</output>
		</layer>
		<layer id="126" name="Slice_89/Concat122321224744129" type="Const" version="opset1">
			<data element_type="i64" offset="32" shape="3" size="24"/>
			<output>
				<port id="0" precision="I64">
					<dim>3</dim>
				</port>
			</output>
		</layer>
		<layer id="127" name="Slice_89/Strides1224844612" type="Const" version="opset1">
			<data element_type="i64" offset="56" shape="3" size="24"/>
			<output>
				<port id="0" precision="I64">
					<dim>3</dim>
				</port>
			</output>
		</layer>
		<layer id="128" name="Slice_89" type="StridedSlice" version="opset1">
			<data begin_mask="1, 1, 0" ellipsis_mask="0, 0, 0" end_mask="1, 1, 0" new_axis_mask="0, 0, 0" shrink_axis_mask="0, 0, 0"/>
			<input>
				<port id="0" precision="FP32">
					<dim>1</dim>
					<dim>64</dim>
					<dim>2048</dim>
				</port>
				<port id="1" precision="I64">
					<dim>3</dim>
				</port>
				<port id="2" precision="I64">
					<dim>3</dim>
				</port>
				<port id="3" precision="I64">
					<dim>3</dim>
				</port>
			</input>
			<output>
				<port id="4" names="441" precision="FP32">
					<dim>1</dim>
					<dim>64</dim>
					<dim>16</dim>
				</port>
			</output>
		</layer>
		<layer id="129" name="Concat_90" type="Concat" version="opset1">
			<data axis="2"/>
			<input>
				<port id="0" precision="FP32">
					<dim>1</dim>
					<dim>64</dim>
					<dim>16</dim>
				</port>
				<port id="1" precision="FP32">
					<dim>1</dim>
					<dim>64</dim>
					<dim>24</dim>
				</port>
			</input>
			<output>
				<port id="2" names="442" precision="FP32">
					<dim>1</dim>
					<dim>64</dim>
					<dim>40</dim>
				</port>
			</output>
		</layer>
		<layer id="130" name="PG.conv_dilated_online_2.3.weight" type="Const" version="opset1">
			<data element_type="f32" offset="969792" shape="64, 64, 3" size="49152"/>
			<output>
				<port id="0" names="PG.conv_dilated_online_2.3.weight" precision="FP32">
					<dim>64</dim>
					<dim>64</dim>
					<dim>3</dim>
				</port>
			</output>
		</layer>
		<layer id="131" name="Conv_92/WithoutBiases" type="Convolution" version="opset1">
			<data auto_pad="explicit" dilations="8" pads_begin="0" pads_end="0" strides="1"/>
			<input>
				<port id="0" precision="FP32">
					<dim>1</dim>
					<dim>64</dim>
					<dim>40</dim>
				</port>
				<port id="1" precision="FP32">
					<dim>64</dim>
					<dim>64</dim>
					<dim>3</dim>
				</port>
			</input>
			<output>
				<port id="2" precision="FP32">
					<dim>1</dim>
					<dim>64</dim>
					<dim>24</dim>
				</port>
			</output>
		</layer>
		<layer id="132" name="Conv_92/Dims11108" type="Const" version="opset1">
			<data element_type="f32" offset="1018944" shape="1, 64, 1" size="256"/>
			<output>
				<port id="0" precision="FP32">
					<dim>1</dim>
					<dim>64</dim>
					<dim>1</dim>
				</port>
			</output>
		</layer>
		<layer id="133" name="Conv_92" type="Add" version="opset1">
			<data auto_broadcast="numpy"/>
			<input>
				<port id="0" precision="FP32">
					<dim>1</dim>
					<dim>64</dim>
					<dim>24</dim>
				</port>
				<port id="1" precision="FP32">
					<dim>1</dim>
					<dim>64</dim>
					<dim>1</dim>
				</port>
			</input>
			<output>
				<port id="2" names="444" precision="FP32">
					<dim>1</dim>
					<dim>64</dim>
					<dim>24</dim>
				</port>
			</output>
		</layer>
		<layer id="134" name="Concat_93" type="Concat" version="opset1">
			<data axis="1"/>
			<input>
				<port id="0" precision="FP32">
					<dim>1</dim>
					<dim>64</dim>
					<dim>24</dim>
				</port>
				<port id="1" precision="FP32">
					<dim>1</dim>
					<dim>64</dim>
					<dim>24</dim>
				</port>
			</input>
			<output>
				<port id="2" names="445" precision="FP32">
					<dim>1</dim>
					<dim>128</dim>
					<dim>24</dim>
				</port>
			</output>
		</layer>
		<layer id="135" name="PG.conv_fusion.3.weight" type="Const" version="opset1">
			<data element_type="f32" offset="1019200" shape="64, 128, 1" size="32768"/>
			<output>
				<port id="0" names="PG.conv_fusion.3.weight" precision="FP32">
					<dim>64</dim>
					<dim>128</dim>
					<dim>1</dim>
				</port>
			</output>
		</layer>
		<layer id="136" name="Conv_94/WithoutBiases" type="Convolution" version="opset1">
			<data auto_pad="explicit" dilations="1" pads_begin="0" pads_end="0" strides="1"/>
			<input>
				<port id="0" precision="FP32">
					<dim>1</dim>
					<dim>128</dim>
					<dim>24</dim>
				</port>
				<port id="1" precision="FP32">
					<dim>64</dim>
					<dim>128</dim>
					<dim>1</dim>
				</port>
			</input>
			<output>
				<port id="2" precision="FP32">
					<dim>1</dim>
					<dim>64</dim>
					<dim>24</dim>
				</port>
			</output>
		</layer>
		<layer id="137" name="Conv_94/Dims10604" type="Const" version="opset1">
			<data element_type="f32" offset="1051968" shape="1, 64, 1" size="256"/>
			<output>
				<port id="0" precision="FP32">
					<dim>1</dim>
					<dim>64</dim>
					<dim>1</dim>
				</port>
			</output>
		</layer>
		<layer id="138" name="Conv_94" type="Add" version="opset1">
			<data auto_broadcast="numpy"/>
			<input>
				<port id="0" precision="FP32">
					<dim>1</dim>
					<dim>64</dim>
					<dim>24</dim>
				</port>
				<port id="1" precision="FP32">
					<dim>1</dim>
					<dim>64</dim>
					<dim>1</dim>
				</port>
			</input>
			<output>
				<port id="2" names="446" precision="FP32">
					<dim>1</dim>
					<dim>64</dim>
					<dim>24</dim>
				</port>
			</output>
		</layer>
		<layer id="139" name="Relu_95" type="ReLU" version="opset1">
			<input>
				<port id="0" precision="FP32">
					<dim>1</dim>
					<dim>64</dim>
					<dim>24</dim>
				</port>
			</input>
			<output>
				<port id="1" names="447" precision="FP32">
					<dim>1</dim>
					<dim>64</dim>
					<dim>24</dim>
				</port>
			</output>
		</layer>
		<layer id="140" name="Add_96" type="Add" version="opset1">
			<data auto_broadcast="numpy"/>
			<input>
				<port id="0" precision="FP32">
					<dim>1</dim>
					<dim>64</dim>
					<dim>24</dim>
				</port>
				<port id="1" precision="FP32">
					<dim>1</dim>
					<dim>64</dim>
					<dim>24</dim>
				</port>
			</input>
			<output>
				<port id="2" names="448" precision="FP32">
					<dim>1</dim>
					<dim>64</dim>
					<dim>24</dim>
				</port>
			</output>
		</layer>
		<layer id="141" name="Concat_108" type="Concat" version="opset1">
			<data axis="2"/>
			<input>
				<port id="0" precision="FP32">
					<dim>1</dim>
					<dim>64</dim>
					<dim>128</dim>
				</port>
				<port id="1" precision="FP32">
					<dim>1</dim>
					<dim>64</dim>
					<dim>24</dim>
				</port>
			</input>
			<output>
				<port id="2" names="460" precision="FP32">
					<dim>1</dim>
					<dim>64</dim>
					<dim>152</dim>
				</port>
			</output>
		</layer>
		<layer id="142" name="PG.conv_dilated_online_1.4.weight" type="Const" version="opset1">
			<data element_type="f32" offset="1052224" shape="64, 64, 3" size="49152"/>
			<output>
				<port id="0" names="PG.conv_dilated_online_1.4.weight" precision="FP32">
					<dim>64</dim>
					<dim>64</dim>
					<dim>3</dim>
				</port>
			</output>
		</layer>
		<layer id="143" name="Conv_115/WithoutBiases" type="Convolution" version="opset1">
			<data auto_pad="explicit" dilations="64" pads_begin="0" pads_end="0" strides="1"/>
			<input>
				<port id="0" precision="FP32">
					<dim>1</dim>
					<dim>64</dim>
					<dim>152</dim>
				</port>
				<port id="1" precision="FP32">
					<dim>64</dim>
					<dim>64</dim>
					<dim>3</dim>
				</port>
			</input>
			<output>
				<port id="2" precision="FP32">
					<dim>1</dim>
					<dim>64</dim>
					<dim>24</dim>
				</port>
			</output>
		</layer>
		<layer id="144" name="Conv_115/Dims10712" type="Const" version="opset1">
			<data element_type="f32" offset="1101376" shape="1, 64, 1" size="256"/>
			<output>
				<port id="0" precision="FP32">
					<dim>1</dim>
					<dim>64</dim>
					<dim>1</dim>
				</port>
			</output>
		</layer>
		<layer id="145" name="Conv_115" type="Add" version="opset1">
			<data auto_broadcast="numpy"/>
			<input>
				<port id="0" precision="FP32">
					<dim>1</dim>
					<dim>64</dim>
					<dim>24</dim>
				</port>
				<port id="1" precision="FP32">
					<dim>1</dim>
					<dim>64</dim>
					<dim>1</dim>
				</port>
			</input>
			<output>
				<port id="2" names="467" precision="FP32">
					<dim>1</dim>
					<dim>64</dim>
					<dim>24</dim>
				</port>
			</output>
		</layer>
		<layer id="146" name="Slice_113/Concat1237843646" type="Const" version="opset1">
			<data element_type="i64" offset="152" shape="3" size="24"/>
			<output>
				<port id="0" precision="I64">
					<dim>3</dim>
				</port>
			</output>
		</layer>
		<layer id="147" name="Slice_113/Concat123641237944228" type="Const" version="opset1">
			<data element_type="i64" offset="32" shape="3" size="24"/>
			<output>
				<port id="0" precision="I64">
					<dim>3</dim>
				</port>
			</output>
		</layer>
		<layer id="148" name="Slice_113/Strides1238043934" type="Const" version="opset1">
			<data element_type="i64" offset="56" shape="3" size="24"/>
			<output>
				<port id="0" precision="I64">
					<dim>3</dim>
				</port>
			</output>
		</layer>
		<layer id="149" name="Slice_113" type="StridedSlice" version="opset1">
			<data begin_mask="1, 1, 0" ellipsis_mask="0, 0, 0" end_mask="1, 1, 0" new_axis_mask="0, 0, 0" shrink_axis_mask="0, 0, 0"/>
			<input>
				<port id="0" precision="FP32">
					<dim>1</dim>
					<dim>64</dim>
					<dim>2048</dim>
				</port>
				<port id="1" precision="I64">
					<dim>3</dim>
				</port>
				<port id="2" precision="I64">
					<dim>3</dim>
				</port>
				<port id="3" precision="I64">
					<dim>3</dim>
				</port>
			</input>
			<output>
				<port id="4" names="465" precision="FP32">
					<dim>1</dim>
					<dim>64</dim>
					<dim>32</dim>
				</port>
			</output>
		</layer>
		<layer id="150" name="Concat_114" type="Concat" version="opset1">
			<data axis="2"/>
			<input>
				<port id="0" precision="FP32">
					<dim>1</dim>
					<dim>64</dim>
					<dim>32</dim>
				</port>
				<port id="1" precision="FP32">
					<dim>1</dim>
					<dim>64</dim>
					<dim>24</dim>
				</port>
			</input>
			<output>
				<port id="2" names="466" precision="FP32">
					<dim>1</dim>
					<dim>64</dim>
					<dim>56</dim>
				</port>
			</output>
		</layer>
		<layer id="151" name="PG.conv_dilated_online_2.4.weight" type="Const" version="opset1">
			<data element_type="f32" offset="1101632" shape="64, 64, 3" size="49152"/>
			<output>
				<port id="0" names="PG.conv_dilated_online_2.4.weight" precision="FP32">
					<dim>64</dim>
					<dim>64</dim>
					<dim>3</dim>
				</port>
			</output>
		</layer>
		<layer id="152" name="Conv_116/WithoutBiases" type="Convolution" version="opset1">
			<data auto_pad="explicit" dilations="16" pads_begin="0" pads_end="0" strides="1"/>
			<input>
				<port id="0" precision="FP32">
					<dim>1</dim>
					<dim>64</dim>
					<dim>56</dim>
				</port>
				<port id="1" precision="FP32">
					<dim>64</dim>
					<dim>64</dim>
					<dim>3</dim>
				</port>
			</input>
			<output>
				<port id="2" precision="FP32">
					<dim>1</dim>
					<dim>64</dim>
					<dim>24</dim>
				</port>
			</output>
		</layer>
		<layer id="153" name="Conv_116/Dims10796" type="Const" version="opset1">
			<data element_type="f32" offset="1150784" shape="1, 64, 1" size="256"/>
			<output>
				<port id="0" precision="FP32">
					<dim>1</dim>
					<dim>64</dim>
					<dim>1</dim>
				</port>
			</output>
		</layer>
		<layer id="154" name="Conv_116" type="Add" version="opset1">
			<data auto_broadcast="numpy"/>
			<input>
				<port id="0" precision="FP32">
					<dim>1</dim>
					<dim>64</dim>
					<dim>24</dim>
				</port>
				<port id="1" precision="FP32">
					<dim>1</dim>
					<dim>64</dim>
					<dim>1</dim>
				</port>
			</input>
			<output>
				<port id="2" names="468" precision="FP32">
					<dim>1</dim>
					<dim>64</dim>
					<dim>24</dim>
				</port>
			</output>
		</layer>
		<layer id="155" name="Concat_117" type="Concat" version="opset1">
			<data axis="1"/>
			<input>
				<port id="0" precision="FP32">
					<dim>1</dim>
					<dim>64</dim>
					<dim>24</dim>
				</port>
				<port id="1" precision="FP32">
					<dim>1</dim>
					<dim>64</dim>
					<dim>24</dim>
				</port>
			</input>
			<output>
				<port id="2" names="469" precision="FP32">
					<dim>1</dim>
					<dim>128</dim>
					<dim>24</dim>
				</port>
			</output>
		</layer>
		<layer id="156" name="PG.conv_fusion.4.weight" type="Const" version="opset1">
			<data element_type="f32" offset="1151040" shape="64, 128, 1" size="32768"/>
			<output>
				<port id="0" names="PG.conv_fusion.4.weight" precision="FP32">
					<dim>64</dim>
					<dim>128</dim>
					<dim>1</dim>
				</port>
			</output>
		</layer>
		<layer id="157" name="Conv_118/WithoutBiases" type="Convolution" version="opset1">
			<data auto_pad="explicit" dilations="1" pads_begin="0" pads_end="0" strides="1"/>
			<input>
				<port id="0" precision="FP32">
					<dim>1</dim>
					<dim>128</dim>
					<dim>24</dim>
				</port>
				<port id="1" precision="FP32">
					<dim>64</dim>
					<dim>128</dim>
					<dim>1</dim>
				</port>
			</input>
			<output>
				<port id="2" precision="FP32">
					<dim>1</dim>
					<dim>64</dim>
					<dim>24</dim>
				</port>
			</output>
		</layer>
		<layer id="158" name="Conv_118/Dims10538" type="Const" version="opset1">
			<data element_type="f32" offset="1183808" shape="1, 64, 1" size="256"/>
			<output>
				<port id="0" precision="FP32">
					<dim>1</dim>
					<dim>64</dim>
					<dim>1</dim>
				</port>
			</output>
		</layer>
		<layer id="159" name="Conv_118" type="Add" version="opset1">
			<data auto_broadcast="numpy"/>
			<input>
				<port id="0" precision="FP32">
					<dim>1</dim>
					<dim>64</dim>
					<dim>24</dim>
				</port>
				<port id="1" precision="FP32">
					<dim>1</dim>
					<dim>64</dim>
					<dim>1</dim>
				</port>
			</input>
			<output>
				<port id="2" names="470" precision="FP32">
					<dim>1</dim>
					<dim>64</dim>
					<dim>24</dim>
				</port>
			</output>
		</layer>
		<layer id="160" name="Relu_119" type="ReLU" version="opset1">
			<input>
				<port id="0" precision="FP32">
					<dim>1</dim>
					<dim>64</dim>
					<dim>24</dim>
				</port>
			</input>
			<output>
				<port id="1" names="471" precision="FP32">
					<dim>1</dim>
					<dim>64</dim>
					<dim>24</dim>
				</port>
			</output>
		</layer>
		<layer id="161" name="Add_120" type="Add" version="opset1">
			<data auto_broadcast="numpy"/>
			<input>
				<port id="0" precision="FP32">
					<dim>1</dim>
					<dim>64</dim>
					<dim>24</dim>
				</port>
				<port id="1" precision="FP32">
					<dim>1</dim>
					<dim>64</dim>
					<dim>24</dim>
				</port>
			</input>
			<output>
				<port id="2" names="472" precision="FP32">
					<dim>1</dim>
					<dim>64</dim>
					<dim>24</dim>
				</port>
			</output>
		</layer>
		<layer id="162" name="Concat_132" type="Concat" version="opset1">
			<data axis="2"/>
			<input>
				<port id="0" precision="FP32">
					<dim>1</dim>
					<dim>64</dim>
					<dim>64</dim>
				</port>
				<port id="1" precision="FP32">
					<dim>1</dim>
					<dim>64</dim>
					<dim>24</dim>
				</port>
			</input>
			<output>
				<port id="2" names="484" precision="FP32">
					<dim>1</dim>
					<dim>64</dim>
					<dim>88</dim>
				</port>
			</output>
		</layer>
		<layer id="163" name="PG.conv_dilated_online_1.5.weight" type="Const" version="opset1">
			<data element_type="f32" offset="1184064" shape="64, 64, 3" size="49152"/>
			<output>
				<port id="0" names="PG.conv_dilated_online_1.5.weight" precision="FP32">
					<dim>64</dim>
					<dim>64</dim>
					<dim>3</dim>
				</port>
			</output>
		</layer>
		<layer id="164" name="Conv_139/WithoutBiases" type="Convolution" version="opset1">
			<data auto_pad="explicit" dilations="32" pads_begin="0" pads_end="0" strides="1"/>
			<input>
				<port id="0" precision="FP32">
					<dim>1</dim>
					<dim>64</dim>
					<dim>88</dim>
				</port>
				<port id="1" precision="FP32">
					<dim>64</dim>
					<dim>64</dim>
					<dim>3</dim>
				</port>
			</input>
			<output>
				<port id="2" precision="FP32">
					<dim>1</dim>
					<dim>64</dim>
					<dim>24</dim>
				</port>
			</output>
		</layer>
		<layer id="165" name="Conv_139/Dims10826" type="Const" version="opset1">
			<data element_type="f32" offset="1233216" shape="1, 64, 1" size="256"/>
			<output>
				<port id="0" precision="FP32">
					<dim>1</dim>
					<dim>64</dim>
					<dim>1</dim>
				</port>
			</output>
		</layer>
		<layer id="166" name="Conv_139" type="Add" version="opset1">
			<data auto_broadcast="numpy"/>
			<input>
				<port id="0" precision="FP32">
					<dim>1</dim>
					<dim>64</dim>
					<dim>24</dim>
				</port>
				<port id="1" precision="FP32">
					<dim>1</dim>
					<dim>64</dim>
					<dim>1</dim>
				</port>
			</input>
			<output>
				<port id="2" names="491" precision="FP32">
					<dim>1</dim>
					<dim>64</dim>
					<dim>24</dim>
				</port>
			</output>
		</layer>
		<layer id="167" name="Slice_137/Concat1251043400" type="Const" version="opset1">
			<data element_type="i64" offset="176" shape="3" size="24"/>
			<output>
				<port id="0" precision="I64">
					<dim>3</dim>
				</port>
			</output>
		</layer>
		<layer id="168" name="Slice_137/Concat124961251143445" type="Const" version="opset1">
			<data element_type="i64" offset="32" shape="3" size="24"/>
			<output>
				<port id="0" precision="I64">
					<dim>3</dim>
				</port>
			</output>
		</layer>
		<layer id="169" name="Slice_137/Strides1251244279" type="Const" version="opset1">
			<data element_type="i64" offset="56" shape="3" size="24"/>
			<output>
				<port id="0" precision="I64">
					<dim>3</dim>
				</port>
			</output>
		</layer>
		<layer id="170" name="Slice_137" type="StridedSlice" version="opset1">
			<data begin_mask="1, 1, 0" ellipsis_mask="0, 0, 0" end_mask="1, 1, 0" new_axis_mask="0, 0, 0" shrink_axis_mask="0, 0, 0"/>
			<input>
				<port id="0" precision="FP32">
					<dim>1</dim>
					<dim>64</dim>
					<dim>2048</dim>
				</port>
				<port id="1" precision="I64">
					<dim>3</dim>
				</port>
				<port id="2" precision="I64">
					<dim>3</dim>
				</port>
				<port id="3" precision="I64">
					<dim>3</dim>
				</port>
			</input>
			<output>
				<port id="4" names="489" precision="FP32">
					<dim>1</dim>
					<dim>64</dim>
					<dim>64</dim>
				</port>
			</output>
		</layer>
		<layer id="171" name="Concat_138" type="Concat" version="opset1">
			<data axis="2"/>
			<input>
				<port id="0" precision="FP32">
					<dim>1</dim>
					<dim>64</dim>
					<dim>64</dim>
				</port>
				<port id="1" precision="FP32">
					<dim>1</dim>
					<dim>64</dim>
					<dim>24</dim>
				</port>
			</input>
			<output>
				<port id="2" names="490" precision="FP32">
					<dim>1</dim>
					<dim>64</dim>
					<dim>88</dim>
				</port>
			</output>
		</layer>
		<layer id="172" name="PG.conv_dilated_online_2.5.weight" type="Const" version="opset1">
			<data element_type="f32" offset="1233472" shape="64, 64, 3" size="49152"/>
			<output>
				<port id="0" names="PG.conv_dilated_online_2.5.weight" precision="FP32">
					<dim>64</dim>
					<dim>64</dim>
					<dim>3</dim>
				</port>
			</output>
		</layer>
		<layer id="173" name="Conv_140/WithoutBiases" type="Convolution" version="opset1">
			<data auto_pad="explicit" dilations="32" pads_begin="0" pads_end="0" strides="1"/>
			<input>
				<port id="0" precision="FP32">
					<dim>1</dim>
					<dim>64</dim>
					<dim>88</dim>
				</port>
				<port id="1" precision="FP32">
					<dim>64</dim>
					<dim>64</dim>
					<dim>3</dim>
				</port>
			</input>
			<output>
				<port id="2" precision="FP32">
					<dim>1</dim>
					<dim>64</dim>
					<dim>24</dim>
				</port>
			</output>
		</layer>
		<layer id="174" name="Conv_140/Dims10784" type="Const" version="opset1">
			<data element_type="f32" offset="1282624" shape="1, 64, 1" size="256"/>
			<output>
				<port id="0" precision="FP32">
					<dim>1</dim>
					<dim>64</dim>
					<dim>1</dim>
				</port>
			</output>
		</layer>
		<layer id="175" name="Conv_140" type="Add" version="opset1">
			<data auto_broadcast="numpy"/>
			<input>
				<port id="0" precision="FP32">
					<dim>1</dim>
					<dim>64</dim>
					<dim>24</dim>
				</port>
				<port id="1" precision="FP32">
					<dim>1</dim>
					<dim>64</dim>
					<dim>1</dim>
				</port>
			</input>
			<output>
				<port id="2" names="492" precision="FP32">
					<dim>1</dim>
					<dim>64</dim>
					<dim>24</dim>
				</port>
			</output>
		</layer>
		<layer id="176" name="Concat_141" type="Concat" version="opset1">
			<data axis="1"/>
			<input>
				<port id="0" precision="FP32">
					<dim>1</dim>
					<dim>64</dim>
					<dim>24</dim>
				</port>
				<port id="1" precision="FP32">
					<dim>1</dim>
					<dim>64</dim>
					<dim>24</dim>
				</port>
			</input>
			<output>
				<port id="2" names="493" precision="FP32">
					<dim>1</dim>
					<dim>128</dim>
					<dim>24</dim>
				</port>
			</output>
		</layer>
		<layer id="177" name="PG.conv_fusion.5.weight" type="Const" version="opset1">
			<data element_type="f32" offset="1282880" shape="64, 128, 1" size="32768"/>
			<output>
				<port id="0" names="PG.conv_fusion.5.weight" precision="FP32">
					<dim>64</dim>
					<dim>128</dim>
					<dim>1</dim>
				</port>
			</output>
		</layer>
		<layer id="178" name="Conv_142/WithoutBiases" type="Convolution" version="opset1">
			<data auto_pad="explicit" dilations="1" pads_begin="0" pads_end="0" strides="1"/>
			<input>
				<port id="0" precision="FP32">
					<dim>1</dim>
					<dim>128</dim>
					<dim>24</dim>
				</port>
				<port id="1" precision="FP32">
					<dim>64</dim>
					<dim>128</dim>
					<dim>1</dim>
				</port>
			</input>
			<output>
				<port id="2" precision="FP32">
					<dim>1</dim>
					<dim>64</dim>
					<dim>24</dim>
				</port>
			</output>
		</layer>
		<layer id="179" name="Conv_142/Dims10568" type="Const" version="opset1">
			<data element_type="f32" offset="1315648" shape="1, 64, 1" size="256"/>
			<output>
				<port id="0" precision="FP32">
					<dim>1</dim>
					<dim>64</dim>
					<dim>1</dim>
				</port>
			</output>
		</layer>
		<layer id="180" name="Conv_142" type="Add" version="opset1">
			<data auto_broadcast="numpy"/>
			<input>
				<port id="0" precision="FP32">
					<dim>1</dim>
					<dim>64</dim>
					<dim>24</dim>
				</port>
				<port id="1" precision="FP32">
					<dim>1</dim>
					<dim>64</dim>
					<dim>1</dim>
				</port>
			</input>
			<output>
				<port id="2" names="494" precision="FP32">
					<dim>1</dim>
					<dim>64</dim>
					<dim>24</dim>
				</port>
			</output>
		</layer>
		<layer id="181" name="Relu_143" type="ReLU" version="opset1">
			<input>
				<port id="0" precision="FP32">
					<dim>1</dim>
					<dim>64</dim>
					<dim>24</dim>
				</port>
			</input>
			<output>
				<port id="1" names="495" precision="FP32">
					<dim>1</dim>
					<dim>64</dim>
					<dim>24</dim>
				</port>
			</output>
		</layer>
		<layer id="182" name="Add_144" type="Add" version="opset1">
			<data auto_broadcast="numpy"/>
			<input>
				<port id="0" precision="FP32">
					<dim>1</dim>
					<dim>64</dim>
					<dim>24</dim>
				</port>
				<port id="1" precision="FP32">
					<dim>1</dim>
					<dim>64</dim>
					<dim>24</dim>
				</port>
			</input>
			<output>
				<port id="2" names="496" precision="FP32">
					<dim>1</dim>
					<dim>64</dim>
					<dim>24</dim>
				</port>
			</output>
		</layer>
		<layer id="183" name="Concat_156" type="Concat" version="opset1">
			<data axis="2"/>
			<input>
				<port id="0" precision="FP32">
					<dim>1</dim>
					<dim>64</dim>
					<dim>32</dim>
				</port>
				<port id="1" precision="FP32">
					<dim>1</dim>
					<dim>64</dim>
					<dim>24</dim>
				</port>
			</input>
			<output>
				<port id="2" names="508" precision="FP32">
					<dim>1</dim>
					<dim>64</dim>
					<dim>56</dim>
				</port>
			</output>
		</layer>
		<layer id="184" name="PG.conv_dilated_online_1.6.weight" type="Const" version="opset1">
			<data element_type="f32" offset="1315904" shape="64, 64, 3" size="49152"/>
			<output>
				<port id="0" names="PG.conv_dilated_online_1.6.weight" precision="FP32">
					<dim>64</dim>
					<dim>64</dim>
					<dim>3</dim>
				</port>
			</output>
		</layer>
		<layer id="185" name="Conv_163/WithoutBiases" type="Convolution" version="opset1">
			<data auto_pad="explicit" dilations="16" pads_begin="0" pads_end="0" strides="1"/>
			<input>
				<port id="0" precision="FP32">
					<dim>1</dim>
					<dim>64</dim>
					<dim>56</dim>
				</port>
				<port id="1" precision="FP32">
					<dim>64</dim>
					<dim>64</dim>
					<dim>3</dim>
				</port>
			</input>
			<output>
				<port id="2" precision="FP32">
					<dim>1</dim>
					<dim>64</dim>
					<dim>24</dim>
				</port>
			</output>
		</layer>
		<layer id="186" name="Conv_163/Dims11036" type="Const" version="opset1">
			<data element_type="f32" offset="1365056" shape="1, 64, 1" size="256"/>
			<output>
				<port id="0" precision="FP32">
					<dim>1</dim>
					<dim>64</dim>
					<dim>1</dim>
				</port>
			</output>
		</layer>
		<layer id="187" name="Conv_163" type="Add" version="opset1">
			<data auto_broadcast="numpy"/>
			<input>
				<port id="0" precision="FP32">
					<dim>1</dim>
					<dim>64</dim>
					<dim>24</dim>
				</port>
				<port id="1" precision="FP32">
					<dim>1</dim>
					<dim>64</dim>
					<dim>1</dim>
				</port>
			</input>
			<output>
				<port id="2" names="515" precision="FP32">
					<dim>1</dim>
					<dim>64</dim>
					<dim>24</dim>
				</port>
			</output>
		</layer>
		<layer id="188" name="Slice_161/Concat1264243664" type="Const" version="opset1">
			<data element_type="i64" offset="200" shape="3" size="24"/>
			<output>
				<port id="0" precision="I64">
					<dim>3</dim>
				</port>
			</output>
		</layer>
		<layer id="189" name="Slice_161/Concat126281264344648" type="Const" version="opset1">
			<data element_type="i64" offset="32" shape="3" size="24"/>
			<output>
				<port id="0" precision="I64">
					<dim>3</dim>
				</port>
			</output>
		</layer>
		<layer id="190" name="Slice_161/Strides1264444495" type="Const" version="opset1">
			<data element_type="i64" offset="56" shape="3" size="24"/>
			<output>
				<port id="0" precision="I64">
					<dim>3</dim>
				</port>
			</output>
		</layer>
		<layer id="191" name="Slice_161" type="StridedSlice" version="opset1">
			<data begin_mask="1, 1, 0" ellipsis_mask="0, 0, 0" end_mask="1, 1, 0" new_axis_mask="0, 0, 0" shrink_axis_mask="0, 0, 0"/>
			<input>
				<port id="0" precision="FP32">
					<dim>1</dim>
					<dim>64</dim>
					<dim>2048</dim>
				</port>
				<port id="1" precision="I64">
					<dim>3</dim>
				</port>
				<port id="2" precision="I64">
					<dim>3</dim>
				</port>
				<port id="3" precision="I64">
					<dim>3</dim>
				</port>
			</input>
			<output>
				<port id="4" names="513" precision="FP32">
					<dim>1</dim>
					<dim>64</dim>
					<dim>128</dim>
				</port>
			</output>
		</layer>
		<layer id="192" name="Concat_162" type="Concat" version="opset1">
			<data axis="2"/>
			<input>
				<port id="0" precision="FP32">
					<dim>1</dim>
					<dim>64</dim>
					<dim>128</dim>
				</port>
				<port id="1" precision="FP32">
					<dim>1</dim>
					<dim>64</dim>
					<dim>24</dim>
				</port>
			</input>
			<output>
				<port id="2" names="514" precision="FP32">
					<dim>1</dim>
					<dim>64</dim>
					<dim>152</dim>
				</port>
			</output>
		</layer>
		<layer id="193" name="PG.conv_dilated_online_2.6.weight" type="Const" version="opset1">
			<data element_type="f32" offset="1365312" shape="64, 64, 3" size="49152"/>
			<output>
				<port id="0" names="PG.conv_dilated_online_2.6.weight" precision="FP32">
					<dim>64</dim>
					<dim>64</dim>
					<dim>3</dim>
				</port>
			</output>
		</layer>
		<layer id="194" name="Conv_164/WithoutBiases" type="Convolution" version="opset1">
			<data auto_pad="explicit" dilations="64" pads_begin="0" pads_end="0" strides="1"/>
			<input>
				<port id="0" precision="FP32">
					<dim>1</dim>
					<dim>64</dim>
					<dim>152</dim>
				</port>
				<port id="1" precision="FP32">
					<dim>64</dim>
					<dim>64</dim>
					<dim>3</dim>
				</port>
			</input>
			<output>
				<port id="2" precision="FP32">
					<dim>1</dim>
					<dim>64</dim>
					<dim>24</dim>
				</port>
			</output>
		</layer>
		<layer id="195" name="Conv_164/Dims10838" type="Const" version="opset1">
			<data element_type="f32" offset="1414464" shape="1, 64, 1" size="256"/>
			<output>
				<port id="0" precision="FP32">
					<dim>1</dim>
					<dim>64</dim>
					<dim>1</dim>
				</port>
			</output>
		</layer>
		<layer id="196" name="Conv_164" type="Add" version="opset1">
			<data auto_broadcast="numpy"/>
			<input>
				<port id="0" precision="FP32">
					<dim>1</dim>
					<dim>64</dim>
					<dim>24</dim>
				</port>
				<port id="1" precision="FP32">
					<dim>1</dim>
					<dim>64</dim>
					<dim>1</dim>
				</port>
			</input>
			<output>
				<port id="2" names="516" precision="FP32">
					<dim>1</dim>
					<dim>64</dim>
					<dim>24</dim>
				</port>
			</output>
		</layer>
		<layer id="197" name="Concat_165" type="Concat" version="opset1">
			<data axis="1"/>
			<input>
				<port id="0" precision="FP32">
					<dim>1</dim>
					<dim>64</dim>
					<dim>24</dim>
				</port>
				<port id="1" precision="FP32">
					<dim>1</dim>
					<dim>64</dim>
					<dim>24</dim>
				</port>
			</input>
			<output>
				<port id="2" names="517" precision="FP32">
					<dim>1</dim>
					<dim>128</dim>
					<dim>24</dim>
				</port>
			</output>
		</layer>
		<layer id="198" name="PG.conv_fusion.6.weight" type="Const" version="opset1">
			<data element_type="f32" offset="1414720" shape="64, 128, 1" size="32768"/>
			<output>
				<port id="0" names="PG.conv_fusion.6.weight" precision="FP32">
					<dim>64</dim>
					<dim>128</dim>
					<dim>1</dim>
				</port>
			</output>
		</layer>
		<layer id="199" name="Conv_166/WithoutBiases" type="Convolution" version="opset1">
			<data auto_pad="explicit" dilations="1" pads_begin="0" pads_end="0" strides="1"/>
			<input>
				<port id="0" precision="FP32">
					<dim>1</dim>
					<dim>128</dim>
					<dim>24</dim>
				</port>
				<port id="1" precision="FP32">
					<dim>64</dim>
					<dim>128</dim>
					<dim>1</dim>
				</port>
			</input>
			<output>
				<port id="2" precision="FP32">
					<dim>1</dim>
					<dim>64</dim>
					<dim>24</dim>
				</port>
			</output>
		</layer>
		<layer id="200" name="Conv_166/Dims10586" type="Const" version="opset1">
			<data element_type="f32" offset="1447488" shape="1, 64, 1" size="256"/>
			<output>
				<port id="0" precision="FP32">
					<dim>1</dim>
					<dim>64</dim>
					<dim>1</dim>
				</port>
			</output>
		</layer>
		<layer id="201" name="Conv_166" type="Add" version="opset1">
			<data auto_broadcast="numpy"/>
			<input>
				<port id="0" precision="FP32">
					<dim>1</dim>
					<dim>64</dim>
					<dim>24</dim>
				</port>
				<port id="1" precision="FP32">
					<dim>1</dim>
					<dim>64</dim>
					<dim>1</dim>
				</port>
			</input>
			<output>
				<port id="2" names="518" precision="FP32">
					<dim>1</dim>
					<dim>64</dim>
					<dim>24</dim>
				</port>
			</output>
		</layer>
		<layer id="202" name="Relu_167" type="ReLU" version="opset1">
			<input>
				<port id="0" precision="FP32">
					<dim>1</dim>
					<dim>64</dim>
					<dim>24</dim>
				</port>
			</input>
			<output>
				<port id="1" names="519" precision="FP32">
					<dim>1</dim>
					<dim>64</dim>
					<dim>24</dim>
				</port>
			</output>
		</layer>
		<layer id="203" name="Add_168" type="Add" version="opset1">
			<data auto_broadcast="numpy"/>
			<input>
				<port id="0" precision="FP32">
					<dim>1</dim>
					<dim>64</dim>
					<dim>24</dim>
				</port>
				<port id="1" precision="FP32">
					<dim>1</dim>
					<dim>64</dim>
					<dim>24</dim>
				</port>
			</input>
			<output>
				<port id="2" names="520" precision="FP32">
					<dim>1</dim>
					<dim>64</dim>
					<dim>24</dim>
				</port>
			</output>
		</layer>
		<layer id="204" name="Concat_180" type="Concat" version="opset1">
			<data axis="2"/>
			<input>
				<port id="0" precision="FP32">
					<dim>1</dim>
					<dim>64</dim>
					<dim>16</dim>
				</port>
				<port id="1" precision="FP32">
					<dim>1</dim>
					<dim>64</dim>
					<dim>24</dim>
				</port>
			</input>
			<output>
				<port id="2" names="532" precision="FP32">
					<dim>1</dim>
					<dim>64</dim>
					<dim>40</dim>
				</port>
			</output>
		</layer>
		<layer id="205" name="PG.conv_dilated_online_1.7.weight" type="Const" version="opset1">
			<data element_type="f32" offset="1447744" shape="64, 64, 3" size="49152"/>
			<output>
				<port id="0" names="PG.conv_dilated_online_1.7.weight" precision="FP32">
					<dim>64</dim>
					<dim>64</dim>
					<dim>3</dim>
				</port>
			</output>
		</layer>
		<layer id="206" name="Conv_187/WithoutBiases" type="Convolution" version="opset1">
			<data auto_pad="explicit" dilations="8" pads_begin="0" pads_end="0" strides="1"/>
			<input>
				<port id="0" precision="FP32">
					<dim>1</dim>
					<dim>64</dim>
					<dim>40</dim>
				</port>
				<port id="1" precision="FP32">
					<dim>64</dim>
					<dim>64</dim>
					<dim>3</dim>
				</port>
			</input>
			<output>
				<port id="2" precision="FP32">
					<dim>1</dim>
					<dim>64</dim>
					<dim>24</dim>
				</port>
			</output>
		</layer>
		<layer id="207" name="Conv_187/Dims10664" type="Const" version="opset1">
			<data element_type="f32" offset="1496896" shape="1, 64, 1" size="256"/>
			<output>
				<port id="0" precision="FP32">
					<dim>1</dim>
					<dim>64</dim>
					<dim>1</dim>
				</port>
			</output>
		</layer>
		<layer id="208" name="Conv_187" type="Add" version="opset1">
			<data auto_broadcast="numpy"/>
			<input>
				<port id="0" precision="FP32">
					<dim>1</dim>
					<dim>64</dim>
					<dim>24</dim>
				</port>
				<port id="1" precision="FP32">
					<dim>1</dim>
					<dim>64</dim>
					<dim>1</dim>
				</port>
			</input>
			<output>
				<port id="2" names="539" precision="FP32">
					<dim>1</dim>
					<dim>64</dim>
					<dim>24</dim>
				</port>
			</output>
		</layer>
		<layer id="209" name="Slice_185/Concat1277444525" type="Const" version="opset1">
			<data element_type="i64" offset="224" shape="3" size="24"/>
			<output>
				<port id="0" precision="I64">
					<dim>3</dim>
				</port>
			</output>
		</layer>
		<layer id="210" name="Slice_185/Concat127601277543565" type="Const" version="opset1">
			<data element_type="i64" offset="32" shape="3" size="24"/>
			<output>
				<port id="0" precision="I64">
					<dim>3</dim>
				</port>
			</output>
		</layer>
		<layer id="211" name="Slice_185/Strides1277643523" type="Const" version="opset1">
			<data element_type="i64" offset="56" shape="3" size="24"/>
			<output>
				<port id="0" precision="I64">
					<dim>3</dim>
				</port>
			</output>
		</layer>
		<layer id="212" name="Slice_185" type="StridedSlice" version="opset1">
			<data begin_mask="1, 1, 0" ellipsis_mask="0, 0, 0" end_mask="1, 1, 0" new_axis_mask="0, 0, 0" shrink_axis_mask="0, 0, 0"/>
			<input>
				<port id="0" precision="FP32">
					<dim>1</dim>
					<dim>64</dim>
					<dim>2048</dim>
				</port>
				<port id="1" precision="I64">
					<dim>3</dim>
				</port>
				<port id="2" precision="I64">
					<dim>3</dim>
				</port>
				<port id="3" precision="I64">
					<dim>3</dim>
				</port>
			</input>
			<output>
				<port id="4" names="537" precision="FP32">
					<dim>1</dim>
					<dim>64</dim>
					<dim>256</dim>
				</port>
			</output>
		</layer>
		<layer id="213" name="Concat_186" type="Concat" version="opset1">
			<data axis="2"/>
			<input>
				<port id="0" precision="FP32">
					<dim>1</dim>
					<dim>64</dim>
					<dim>256</dim>
				</port>
				<port id="1" precision="FP32">
					<dim>1</dim>
					<dim>64</dim>
					<dim>24</dim>
				</port>
			</input>
			<output>
				<port id="2" names="538" precision="FP32">
					<dim>1</dim>
					<dim>64</dim>
					<dim>280</dim>
				</port>
			</output>
		</layer>
		<layer id="214" name="PG.conv_dilated_online_2.7.weight" type="Const" version="opset1">
			<data element_type="f32" offset="1497152" shape="64, 64, 3" size="49152"/>
			<output>
				<port id="0" names="PG.conv_dilated_online_2.7.weight" precision="FP32">
					<dim>64</dim>
					<dim>64</dim>
					<dim>3</dim>
				</port>
			</output>
		</layer>
		<layer id="215" name="Conv_188/WithoutBiases" type="Convolution" version="opset1">
			<data auto_pad="explicit" dilations="128" pads_begin="0" pads_end="0" strides="1"/>
			<input>
				<port id="0" precision="FP32">
					<dim>1</dim>
					<dim>64</dim>
					<dim>280</dim>
				</port>
				<port id="1" precision="FP32">
					<dim>64</dim>
					<dim>64</dim>
					<dim>3</dim>
				</port>
			</input>
			<output>
				<port id="2" precision="FP32">
					<dim>1</dim>
					<dim>64</dim>
					<dim>24</dim>
				</port>
			</output>
		</layer>
		<layer id="216" name="Conv_188/Dims10592" type="Const" version="opset1">
			<data element_type="f32" offset="1546304" shape="1, 64, 1" size="256"/>
			<output>
				<port id="0" precision="FP32">
					<dim>1</dim>
					<dim>64</dim>
					<dim>1</dim>
				</port>
			</output>
		</layer>
		<layer id="217" name="Conv_188" type="Add" version="opset1">
			<data auto_broadcast="numpy"/>
			<input>
				<port id="0" precision="FP32">
					<dim>1</dim>
					<dim>64</dim>
					<dim>24</dim>
				</port>
				<port id="1" precision="FP32">
					<dim>1</dim>
					<dim>64</dim>
					<dim>1</dim>
				</port>
			</input>
			<output>
				<port id="2" names="540" precision="FP32">
					<dim>1</dim>
					<dim>64</dim>
					<dim>24</dim>
				</port>
			</output>
		</layer>
		<layer id="218" name="Concat_189" type="Concat" version="opset1">
			<data axis="1"/>
			<input>
				<port id="0" precision="FP32">
					<dim>1</dim>
					<dim>64</dim>
					<dim>24</dim>
				</port>
				<port id="1" precision="FP32">
					<dim>1</dim>
					<dim>64</dim>
					<dim>24</dim>
				</port>
			</input>
			<output>
				<port id="2" names="541" precision="FP32">
					<dim>1</dim>
					<dim>128</dim>
					<dim>24</dim>
				</port>
			</output>
		</layer>
		<layer id="219" name="PG.conv_fusion.7.weight" type="Const" version="opset1">
			<data element_type="f32" offset="1546560" shape="64, 128, 1" size="32768"/>
			<output>
				<port id="0" names="PG.conv_fusion.7.weight" precision="FP32">
					<dim>64</dim>
					<dim>128</dim>
					<dim>1</dim>
				</port>
			</output>
		</layer>
		<layer id="220" name="Conv_190/WithoutBiases" type="Convolution" version="opset1">
			<data auto_pad="explicit" dilations="1" pads_begin="0" pads_end="0" strides="1"/>
			<input>
				<port id="0" precision="FP32">
					<dim>1</dim>
					<dim>128</dim>
					<dim>24</dim>
				</port>
				<port id="1" precision="FP32">
					<dim>64</dim>
					<dim>128</dim>
					<dim>1</dim>
				</port>
			</input>
			<output>
				<port id="2" precision="FP32">
					<dim>1</dim>
					<dim>64</dim>
					<dim>24</dim>
				</port>
			</output>
		</layer>
		<layer id="221" name="Conv_190/Dims11048" type="Const" version="opset1">
			<data element_type="f32" offset="1579328" shape="1, 64, 1" size="256"/>
			<output>
				<port id="0" precision="FP32">
					<dim>1</dim>
					<dim>64</dim>
					<dim>1</dim>
				</port>
			</output>
		</layer>
		<layer id="222" name="Conv_190" type="Add" version="opset1">
			<data auto_broadcast="numpy"/>
			<input>
				<port id="0" precision="FP32">
					<dim>1</dim>
					<dim>64</dim>
					<dim>24</dim>
				</port>
				<port id="1" precision="FP32">
					<dim>1</dim>
					<dim>64</dim>
					<dim>1</dim>
				</port>
			</input>
			<output>
				<port id="2" names="542" precision="FP32">
					<dim>1</dim>
					<dim>64</dim>
					<dim>24</dim>
				</port>
			</output>
		</layer>
		<layer id="223" name="Relu_191" type="ReLU" version="opset1">
			<input>
				<port id="0" precision="FP32">
					<dim>1</dim>
					<dim>64</dim>
					<dim>24</dim>
				</port>
			</input>
			<output>
				<port id="1" names="543" precision="FP32">
					<dim>1</dim>
					<dim>64</dim>
					<dim>24</dim>
				</port>
			</output>
		</layer>
		<layer id="224" name="Add_192" type="Add" version="opset1">
			<data auto_broadcast="numpy"/>
			<input>
				<port id="0" precision="FP32">
					<dim>1</dim>
					<dim>64</dim>
					<dim>24</dim>
				</port>
				<port id="1" precision="FP32">
					<dim>1</dim>
					<dim>64</dim>
					<dim>24</dim>
				</port>
			</input>
			<output>
				<port id="2" names="544" precision="FP32">
					<dim>1</dim>
					<dim>64</dim>
					<dim>24</dim>
				</port>
			</output>
		</layer>
		<layer id="225" name="Concat_204" type="Concat" version="opset1">
			<data axis="2"/>
			<input>
				<port id="0" precision="FP32">
					<dim>1</dim>
					<dim>64</dim>
					<dim>8</dim>
				</port>
				<port id="1" precision="FP32">
					<dim>1</dim>
					<dim>64</dim>
					<dim>24</dim>
				</port>
			</input>
			<output>
				<port id="2" names="556" precision="FP32">
					<dim>1</dim>
					<dim>64</dim>
					<dim>32</dim>
				</port>
			</output>
		</layer>
		<layer id="226" name="PG.conv_dilated_online_1.8.weight" type="Const" version="opset1">
			<data element_type="f32" offset="1579584" shape="64, 64, 3" size="49152"/>
			<output>
				<port id="0" names="PG.conv_dilated_online_1.8.weight" precision="FP32">
					<dim>64</dim>
					<dim>64</dim>
					<dim>3</dim>
				</port>
			</output>
		</layer>
		<layer id="227" name="Conv_211/WithoutBiases" type="Convolution" version="opset1">
			<data auto_pad="explicit" dilations="4" pads_begin="0" pads_end="0" strides="1"/>
			<input>
				<port id="0" precision="FP32">
					<dim>1</dim>
					<dim>64</dim>
					<dim>32</dim>
				</port>
				<port id="1" precision="FP32">
					<dim>64</dim>
					<dim>64</dim>
					<dim>3</dim>
				</port>
			</input>
			<output>
				<port id="2" precision="FP32">
					<dim>1</dim>
					<dim>64</dim>
					<dim>24</dim>
				</port>
			</output>
		</layer>
		<layer id="228" name="Conv_211/Dims10694" type="Const" version="opset1">
			<data element_type="f32" offset="1628736" shape="1, 64, 1" size="256"/>
			<output>
				<port id="0" precision="FP32">
					<dim>1</dim>
					<dim>64</dim>
					<dim>1</dim>
				</port>
			</output>
		</layer>
		<layer id="229" name="Conv_211" type="Add" version="opset1">
			<data auto_broadcast="numpy"/>
			<input>
				<port id="0" precision="FP32">
					<dim>1</dim>
					<dim>64</dim>
					<dim>24</dim>
				</port>
				<port id="1" precision="FP32">
					<dim>1</dim>
					<dim>64</dim>
					<dim>1</dim>
				</port>
			</input>
			<output>
				<port id="2" names="563" precision="FP32">
					<dim>1</dim>
					<dim>64</dim>
					<dim>24</dim>
				</port>
			</output>
		</layer>
		<layer id="230" name="Slice_209/Concat1290644147" type="Const" version="opset1">
			<data element_type="i64" offset="248" shape="3" size="24"/>
			<output>
				<port id="0" precision="I64">
					<dim>3</dim>
				</port>
			</output>
		</layer>
		<layer id="231" name="Slice_209/Concat128921290743358" type="Const" version="opset1">
			<data element_type="i64" offset="32" shape="3" size="24"/>
			<output>
				<port id="0" precision="I64">
					<dim>3</dim>
				</port>
			</output>
		</layer>
		<layer id="232" name="Slice_209/Strides1290843382" type="Const" version="opset1">
			<data element_type="i64" offset="56" shape="3" size="24"/>
			<output>
				<port id="0" precision="I64">
					<dim>3</dim>
				</port>
			</output>
		</layer>
		<layer id="233" name="Slice_209" type="StridedSlice" version="opset1">
			<data begin_mask="1, 1, 0" ellipsis_mask="0, 0, 0" end_mask="1, 1, 0" new_axis_mask="0, 0, 0" shrink_axis_mask="0, 0, 0"/>
			<input>
				<port id="0" precision="FP32">
					<dim>1</dim>
					<dim>64</dim>
					<dim>2048</dim>
				</port>
				<port id="1" precision="I64">
					<dim>3</dim>
				</port>
				<port id="2" precision="I64">
					<dim>3</dim>
				</port>
				<port id="3" precision="I64">
					<dim>3</dim>
				</port>
			</input>
			<output>
				<port id="4" names="561" precision="FP32">
					<dim>1</dim>
					<dim>64</dim>
					<dim>512</dim>
				</port>
			</output>
		</layer>
		<layer id="234" name="Concat_210" type="Concat" version="opset1">
			<data axis="2"/>
			<input>
				<port id="0" precision="FP32">
					<dim>1</dim>
					<dim>64</dim>
					<dim>512</dim>
				</port>
				<port id="1" precision="FP32">
					<dim>1</dim>
					<dim>64</dim>
					<dim>24</dim>
				</port>
			</input>
			<output>
				<port id="2" names="562" precision="FP32">
					<dim>1</dim>
					<dim>64</dim>
					<dim>536</dim>
				</port>
			</output>
		</layer>
		<layer id="235" name="PG.conv_dilated_online_2.8.weight" type="Const" version="opset1">
			<data element_type="f32" offset="1628992" shape="64, 64, 3" size="49152"/>
			<output>
				<port id="0" names="PG.conv_dilated_online_2.8.weight" precision="FP32">
					<dim>64</dim>
					<dim>64</dim>
					<dim>3</dim>
				</port>
			</output>
		</layer>
		<layer id="236" name="Conv_212/WithoutBiases" type="Convolution" version="opset1">
			<data auto_pad="explicit" dilations="256" pads_begin="0" pads_end="0" strides="1"/>
			<input>
				<port id="0" precision="FP32">
					<dim>1</dim>
					<dim>64</dim>
					<dim>536</dim>
				</port>
				<port id="1" precision="FP32">
					<dim>64</dim>
					<dim>64</dim>
					<dim>3</dim>
				</port>
			</input>
			<output>
				<port id="2" precision="FP32">
					<dim>1</dim>
					<dim>64</dim>
					<dim>24</dim>
				</port>
			</output>
		</layer>
		<layer id="237" name="Conv_212/Dims10760" type="Const" version="opset1">
			<data element_type="f32" offset="1678144" shape="1, 64, 1" size="256"/>
			<output>
				<port id="0" precision="FP32">
					<dim>1</dim>
					<dim>64</dim>
					<dim>1</dim>
				</port>
			</output>
		</layer>
		<layer id="238" name="Conv_212" type="Add" version="opset1">
			<data auto_broadcast="numpy"/>
			<input>
				<port id="0" precision="FP32">
					<dim>1</dim>
					<dim>64</dim>
					<dim>24</dim>
				</port>
				<port id="1" precision="FP32">
					<dim>1</dim>
					<dim>64</dim>
					<dim>1</dim>
				</port>
			</input>
			<output>
				<port id="2" names="564" precision="FP32">
					<dim>1</dim>
					<dim>64</dim>
					<dim>24</dim>
				</port>
			</output>
		</layer>
		<layer id="239" name="Concat_213" type="Concat" version="opset1">
			<data axis="1"/>
			<input>
				<port id="0" precision="FP32">
					<dim>1</dim>
					<dim>64</dim>
					<dim>24</dim>
				</port>
				<port id="1" precision="FP32">
					<dim>1</dim>
					<dim>64</dim>
					<dim>24</dim>
				</port>
			</input>
			<output>
				<port id="2" names="565" precision="FP32">
					<dim>1</dim>
					<dim>128</dim>
					<dim>24</dim>
				</port>
			</output>
		</layer>
		<layer id="240" name="PG.conv_fusion.8.weight" type="Const" version="opset1">
			<data element_type="f32" offset="1678400" shape="64, 128, 1" size="32768"/>
			<output>
				<port id="0" names="PG.conv_fusion.8.weight" precision="FP32">
					<dim>64</dim>
					<dim>128</dim>
					<dim>1</dim>
				</port>
			</output>
		</layer>
		<layer id="241" name="Conv_214/WithoutBiases" type="Convolution" version="opset1">
			<data auto_pad="explicit" dilations="1" pads_begin="0" pads_end="0" strides="1"/>
			<input>
				<port id="0" precision="FP32">
					<dim>1</dim>
					<dim>128</dim>
					<dim>24</dim>
				</port>
				<port id="1" precision="FP32">
					<dim>64</dim>
					<dim>128</dim>
					<dim>1</dim>
				</port>
			</input>
			<output>
				<port id="2" precision="FP32">
					<dim>1</dim>
					<dim>64</dim>
					<dim>24</dim>
				</port>
			</output>
		</layer>
		<layer id="242" name="Conv_214/Dims10556" type="Const" version="opset1">
			<data element_type="f32" offset="1711168" shape="1, 64, 1" size="256"/>
			<output>
				<port id="0" precision="FP32">
					<dim>1</dim>
					<dim>64</dim>
					<dim>1</dim>
				</port>
			</output>
		</layer>
		<layer id="243" name="Conv_214" type="Add" version="opset1">
			<data auto_broadcast="numpy"/>
			<input>
				<port id="0" precision="FP32">
					<dim>1</dim>
					<dim>64</dim>
					<dim>24</dim>
				</port>
				<port id="1" precision="FP32">
					<dim>1</dim>
					<dim>64</dim>
					<dim>1</dim>
				</port>
			</input>
			<output>
				<port id="2" names="566" precision="FP32">
					<dim>1</dim>
					<dim>64</dim>
					<dim>24</dim>
				</port>
			</output>
		</layer>
		<layer id="244" name="Relu_215" type="ReLU" version="opset1">
			<input>
				<port id="0" precision="FP32">
					<dim>1</dim>
					<dim>64</dim>
					<dim>24</dim>
				</port>
			</input>
			<output>
				<port id="1" names="567" precision="FP32">
					<dim>1</dim>
					<dim>64</dim>
					<dim>24</dim>
				</port>
			</output>
		</layer>
		<layer id="245" name="Add_216" type="Add" version="opset1">
			<data auto_broadcast="numpy"/>
			<input>
				<port id="0" precision="FP32">
					<dim>1</dim>
					<dim>64</dim>
					<dim>24</dim>
				</port>
				<port id="1" precision="FP32">
					<dim>1</dim>
					<dim>64</dim>
					<dim>24</dim>
				</port>
			</input>
			<output>
				<port id="2" names="568" precision="FP32">
					<dim>1</dim>
					<dim>64</dim>
					<dim>24</dim>
				</port>
			</output>
		</layer>
		<layer id="246" name="Concat_228" type="Concat" version="opset1">
			<data axis="2"/>
			<input>
				<port id="0" precision="FP32">
					<dim>1</dim>
					<dim>64</dim>
					<dim>4</dim>
				</port>
				<port id="1" precision="FP32">
					<dim>1</dim>
					<dim>64</dim>
					<dim>24</dim>
				</port>
			</input>
			<output>
				<port id="2" names="580" precision="FP32">
					<dim>1</dim>
					<dim>64</dim>
					<dim>28</dim>
				</port>
			</output>
		</layer>
		<layer id="247" name="PG.conv_dilated_online_1.9.weight" type="Const" version="opset1">
			<data element_type="f32" offset="1711424" shape="64, 64, 3" size="49152"/>
			<output>
				<port id="0" names="PG.conv_dilated_online_1.9.weight" precision="FP32">
					<dim>64</dim>
					<dim>64</dim>
					<dim>3</dim>
				</port>
			</output>
		</layer>
		<layer id="248" name="Conv_235/WithoutBiases" type="Convolution" version="opset1">
			<data auto_pad="explicit" dilations="2" pads_begin="0" pads_end="0" strides="1"/>
			<input>
				<port id="0" precision="FP32">
					<dim>1</dim>
					<dim>64</dim>
					<dim>28</dim>
				</port>
				<port id="1" precision="FP32">
					<dim>64</dim>
					<dim>64</dim>
					<dim>3</dim>
				</port>
			</input>
			<output>
				<port id="2" precision="FP32">
					<dim>1</dim>
					<dim>64</dim>
					<dim>24</dim>
				</port>
			</output>
		</layer>
		<layer id="249" name="Conv_235/Dims11096" type="Const" version="opset1">
			<data element_type="f32" offset="1760576" shape="1, 64, 1" size="256"/>
			<output>
				<port id="0" precision="FP32">
					<dim>1</dim>
					<dim>64</dim>
					<dim>1</dim>
				</port>
			</output>
		</layer>
		<layer id="250" name="Conv_235" type="Add" version="opset1">
			<data auto_broadcast="numpy"/>
			<input>
				<port id="0" precision="FP32">
					<dim>1</dim>
					<dim>64</dim>
					<dim>24</dim>
				</port>
				<port id="1" precision="FP32">
					<dim>1</dim>
					<dim>64</dim>
					<dim>1</dim>
				</port>
			</input>
			<output>
				<port id="2" names="587" precision="FP32">
					<dim>1</dim>
					<dim>64</dim>
					<dim>24</dim>
				</port>
			</output>
		</layer>
		<layer id="251" name="Slice_233/Concat1303844366" type="Const" version="opset1">
			<data element_type="i64" offset="272" shape="3" size="24"/>
			<output>
				<port id="0" precision="I64">
					<dim>3</dim>
				</port>
			</output>
		</layer>
		<layer id="252" name="Slice_233/Concat130241303943385" type="Const" version="opset1">
			<data element_type="i64" offset="32" shape="3" size="24"/>
			<output>
				<port id="0" precision="I64">
					<dim>3</dim>
				</port>
			</output>
		</layer>
		<layer id="253" name="Slice_233/Strides1304044600" type="Const" version="opset1">
			<data element_type="i64" offset="56" shape="3" size="24"/>
			<output>
				<port id="0" precision="I64">
					<dim>3</dim>
				</port>
			</output>
		</layer>
		<layer id="254" name="Slice_233" type="StridedSlice" version="opset1">
			<data begin_mask="1, 1, 0" ellipsis_mask="0, 0, 0" end_mask="1, 1, 0" new_axis_mask="0, 0, 0" shrink_axis_mask="0, 0, 0"/>
			<input>
				<port id="0" precision="FP32">
					<dim>1</dim>
					<dim>64</dim>
					<dim>2048</dim>
				</port>
				<port id="1" precision="I64">
					<dim>3</dim>
				</port>
				<port id="2" precision="I64">
					<dim>3</dim>
				</port>
				<port id="3" precision="I64">
					<dim>3</dim>
				</port>
			</input>
			<output>
				<port id="4" names="585" precision="FP32">
					<dim>1</dim>
					<dim>64</dim>
					<dim>1024</dim>
				</port>
			</output>
		</layer>
		<layer id="255" name="Concat_234" type="Concat" version="opset1">
			<data axis="2"/>
			<input>
				<port id="0" precision="FP32">
					<dim>1</dim>
					<dim>64</dim>
					<dim>1024</dim>
				</port>
				<port id="1" precision="FP32">
					<dim>1</dim>
					<dim>64</dim>
					<dim>24</dim>
				</port>
			</input>
			<output>
				<port id="2" names="586" precision="FP32">
					<dim>1</dim>
					<dim>64</dim>
					<dim>1048</dim>
				</port>
			</output>
		</layer>
		<layer id="256" name="PG.conv_dilated_online_2.9.weight" type="Const" version="opset1">
			<data element_type="f32" offset="1760832" shape="64, 64, 3" size="49152"/>
			<output>
				<port id="0" names="PG.conv_dilated_online_2.9.weight" precision="FP32">
					<dim>64</dim>
					<dim>64</dim>
					<dim>3</dim>
				</port>
			</output>
		</layer>
		<layer id="257" name="Conv_236/WithoutBiases" type="Convolution" version="opset1">
			<data auto_pad="explicit" dilations="512" pads_begin="0" pads_end="0" strides="1"/>
			<input>
				<port id="0" precision="FP32">
					<dim>1</dim>
					<dim>64</dim>
					<dim>1048</dim>
				</port>
				<port id="1" precision="FP32">
					<dim>64</dim>
					<dim>64</dim>
					<dim>3</dim>
				</port>
			</input>
			<output>
				<port id="2" precision="FP32">
					<dim>1</dim>
					<dim>64</dim>
					<dim>24</dim>
				</port>
			</output>
		</layer>
		<layer id="258" name="Conv_236/Dims10610" type="Const" version="opset1">
			<data element_type="f32" offset="1809984" shape="1, 64, 1" size="256"/>
			<output>
				<port id="0" precision="FP32">
					<dim>1</dim>
					<dim>64</dim>
					<dim>1</dim>
				</port>
			</output>
		</layer>
		<layer id="259" name="Conv_236" type="Add" version="opset1">
			<data auto_broadcast="numpy"/>
			<input>
				<port id="0" precision="FP32">
					<dim>1</dim>
					<dim>64</dim>
					<dim>24</dim>
				</port>
				<port id="1" precision="FP32">
					<dim>1</dim>
					<dim>64</dim>
					<dim>1</dim>
				</port>
			</input>
			<output>
				<port id="2" names="588" precision="FP32">
					<dim>1</dim>
					<dim>64</dim>
					<dim>24</dim>
				</port>
			</output>
		</layer>
		<layer id="260" name="Concat_237" type="Concat" version="opset1">
			<data axis="1"/>
			<input>
				<port id="0" precision="FP32">
					<dim>1</dim>
					<dim>64</dim>
					<dim>24</dim>
				</port>
				<port id="1" precision="FP32">
					<dim>1</dim>
					<dim>64</dim>
					<dim>24</dim>
				</port>
			</input>
			<output>
				<port id="2" names="589" precision="FP32">
					<dim>1</dim>
					<dim>128</dim>
					<dim>24</dim>
				</port>
			</output>
		</layer>
		<layer id="261" name="PG.conv_fusion.9.weight" type="Const" version="opset1">
			<data element_type="f32" offset="1810240" shape="64, 128, 1" size="32768"/>
			<output>
				<port id="0" names="PG.conv_fusion.9.weight" precision="FP32">
					<dim>64</dim>
					<dim>128</dim>
					<dim>1</dim>
				</port>
			</output>
		</layer>
		<layer id="262" name="Conv_238/WithoutBiases" type="Convolution" version="opset1">
			<data auto_pad="explicit" dilations="1" pads_begin="0" pads_end="0" strides="1"/>
			<input>
				<port id="0" precision="FP32">
					<dim>1</dim>
					<dim>128</dim>
					<dim>24</dim>
				</port>
				<port id="1" precision="FP32">
					<dim>64</dim>
					<dim>128</dim>
					<dim>1</dim>
				</port>
			</input>
			<output>
				<port id="2" precision="FP32">
					<dim>1</dim>
					<dim>64</dim>
					<dim>24</dim>
				</port>
			</output>
		</layer>
		<layer id="263" name="Conv_238/Dims10544" type="Const" version="opset1">
			<data element_type="f32" offset="1843008" shape="1, 64, 1" size="256"/>
			<output>
				<port id="0" precision="FP32">
					<dim>1</dim>
					<dim>64</dim>
					<dim>1</dim>
				</port>
			</output>
		</layer>
		<layer id="264" name="Conv_238" type="Add" version="opset1">
			<data auto_broadcast="numpy"/>
			<input>
				<port id="0" precision="FP32">
					<dim>1</dim>
					<dim>64</dim>
					<dim>24</dim>
				</port>
				<port id="1" precision="FP32">
					<dim>1</dim>
					<dim>64</dim>
					<dim>1</dim>
				</port>
			</input>
			<output>
				<port id="2" names="590" precision="FP32">
					<dim>1</dim>
					<dim>64</dim>
					<dim>24</dim>
				</port>
			</output>
		</layer>
		<layer id="265" name="Relu_239" type="ReLU" version="opset1">
			<input>
				<port id="0" precision="FP32">
					<dim>1</dim>
					<dim>64</dim>
					<dim>24</dim>
				</port>
			</input>
			<output>
				<port id="1" names="591" precision="FP32">
					<dim>1</dim>
					<dim>64</dim>
					<dim>24</dim>
				</port>
			</output>
		</layer>
		<layer id="266" name="Add_240" type="Add" version="opset1">
			<data auto_broadcast="numpy"/>
			<input>
				<port id="0" precision="FP32">
					<dim>1</dim>
					<dim>64</dim>
					<dim>24</dim>
				</port>
				<port id="1" precision="FP32">
					<dim>1</dim>
					<dim>64</dim>
					<dim>24</dim>
				</port>
			</input>
			<output>
				<port id="2" names="592" precision="FP32">
					<dim>1</dim>
					<dim>64</dim>
					<dim>24</dim>
				</port>
			</output>
		</layer>
		<layer id="267" name="Concat_252" type="Concat" version="opset1">
			<data axis="2"/>
			<input>
				<port id="0" precision="FP32">
					<dim>1</dim>
					<dim>64</dim>
					<dim>2</dim>
				</port>
				<port id="1" precision="FP32">
					<dim>1</dim>
					<dim>64</dim>
					<dim>24</dim>
				</port>
			</input>
			<output>
				<port id="2" names="604" precision="FP32">
					<dim>1</dim>
					<dim>64</dim>
					<dim>26</dim>
				</port>
			</output>
		</layer>
		<layer id="268" name="PG.conv_dilated_online_1.10.weight" type="Const" version="opset1">
			<data element_type="f32" offset="1843264" shape="64, 64, 3" size="49152"/>
			<output>
				<port id="0" names="PG.conv_dilated_online_1.10.weight" precision="FP32">
					<dim>64</dim>
					<dim>64</dim>
					<dim>3</dim>
				</port>
			</output>
		</layer>
		<layer id="269" name="Conv_259/WithoutBiases" type="Convolution" version="opset1">
			<data auto_pad="explicit" dilations="1" pads_begin="0" pads_end="0" strides="1"/>
			<input>
				<port id="0" precision="FP32">
					<dim>1</dim>
					<dim>64</dim>
					<dim>26</dim>
				</port>
				<port id="1" precision="FP32">
					<dim>64</dim>
					<dim>64</dim>
					<dim>3</dim>
				</port>
			</input>
			<output>
				<port id="2" precision="FP32">
					<dim>1</dim>
					<dim>64</dim>
					<dim>24</dim>
				</port>
			</output>
		</layer>
		<layer id="270" name="Conv_259/Dims10934" type="Const" version="opset1">
			<data element_type="f32" offset="1892416" shape="1, 64, 1" size="256"/>
			<output>
				<port id="0" precision="FP32">
					<dim>1</dim>
					<dim>64</dim>
					<dim>1</dim>
				</port>
			</output>
		</layer>
		<layer id="271" name="Conv_259" type="Add" version="opset1">
			<data auto_broadcast="numpy"/>
			<input>
				<port id="0" precision="FP32">
					<dim>1</dim>
					<dim>64</dim>
					<dim>24</dim>
				</port>
				<port id="1" precision="FP32">
					<dim>1</dim>
					<dim>64</dim>
					<dim>1</dim>
				</port>
			</input>
			<output>
				<port id="2" names="611" precision="FP32">
					<dim>1</dim>
					<dim>64</dim>
					<dim>24</dim>
				</port>
			</output>
		</layer>
		<layer id="272" name="Slice_257/Concat1317044813" type="Const" version="opset1">
			<data element_type="i64" offset="296" shape="3" size="24"/>
			<output>
				<port id="0" precision="I64">
					<dim>3</dim>
				</port>
			</output>
		</layer>
		<layer id="273" name="Slice_257/Concat131561317143502" type="Const" version="opset1">
			<data element_type="i64" offset="32" shape="3" size="24"/>
			<output>
				<port id="0" precision="I64">
					<dim>3</dim>
				</port>
			</output>
		</layer>
		<layer id="274" name="Slice_257/Strides1317244465" type="Const" version="opset1">
			<data element_type="i64" offset="56" shape="3" size="24"/>
			<output>
				<port id="0" precision="I64">
					<dim>3</dim>
				</port>
			</output>
		</layer>
		<layer id="275" name="Slice_257" type="StridedSlice" version="opset1">
			<data begin_mask="1, 1, 0" ellipsis_mask="0, 0, 0" end_mask="1, 1, 0" new_axis_mask="0, 0, 0" shrink_axis_mask="0, 0, 0"/>
			<input>
				<port id="0" precision="FP32">
					<dim>1</dim>
					<dim>64</dim>
					<dim>2048</dim>
				</port>
				<port id="1" precision="I64">
					<dim>3</dim>
				</port>
				<port id="2" precision="I64">
					<dim>3</dim>
				</port>
				<port id="3" precision="I64">
					<dim>3</dim>
				</port>
			</input>
			<output>
				<port id="4" names="609" precision="FP32">
					<dim>1</dim>
					<dim>64</dim>
					<dim>2048</dim>
				</port>
			</output>
		</layer>
		<layer id="276" name="Concat_258" type="Concat" version="opset1">
			<data axis="2"/>
			<input>
				<port id="0" precision="FP32">
					<dim>1</dim>
					<dim>64</dim>
					<dim>2048</dim>
				</port>
				<port id="1" precision="FP32">
					<dim>1</dim>
					<dim>64</dim>
					<dim>24</dim>
				</port>
			</input>
			<output>
				<port id="2" names="610" precision="FP32">
					<dim>1</dim>
					<dim>64</dim>
					<dim>2072</dim>
				</port>
			</output>
		</layer>
		<layer id="277" name="PG.conv_dilated_online_2.10.weight" type="Const" version="opset1">
			<data element_type="f32" offset="1892672" shape="64, 64, 3" size="49152"/>
			<output>
				<port id="0" names="PG.conv_dilated_online_2.10.weight" precision="FP32">
					<dim>64</dim>
					<dim>64</dim>
					<dim>3</dim>
				</port>
			</output>
		</layer>
		<layer id="278" name="Conv_260/WithoutBiases" type="Convolution" version="opset1">
			<data auto_pad="explicit" dilations="1024" pads_begin="0" pads_end="0" strides="1"/>
			<input>
				<port id="0" precision="FP32">
					<dim>1</dim>
					<dim>64</dim>
					<dim>2072</dim>
				</port>
				<port id="1" precision="FP32">
					<dim>64</dim>
					<dim>64</dim>
					<dim>3</dim>
				</port>
			</input>
			<output>
				<port id="2" precision="FP32">
					<dim>1</dim>
					<dim>64</dim>
					<dim>24</dim>
				</port>
			</output>
		</layer>
		<layer id="279" name="Conv_260/Dims10580" type="Const" version="opset1">
			<data element_type="f32" offset="1941824" shape="1, 64, 1" size="256"/>
			<output>
				<port id="0" precision="FP32">
					<dim>1</dim>
					<dim>64</dim>
					<dim>1</dim>
				</port>
			</output>
		</layer>
		<layer id="280" name="Conv_260" type="Add" version="opset1">
			<data auto_broadcast="numpy"/>
			<input>
				<port id="0" precision="FP32">
					<dim>1</dim>
					<dim>64</dim>
					<dim>24</dim>
				</port>
				<port id="1" precision="FP32">
					<dim>1</dim>
					<dim>64</dim>
					<dim>1</dim>
				</port>
			</input>
			<output>
				<port id="2" names="612" precision="FP32">
					<dim>1</dim>
					<dim>64</dim>
					<dim>24</dim>
				</port>
			</output>
		</layer>
		<layer id="281" name="Concat_261" type="Concat" version="opset1">
			<data axis="1"/>
			<input>
				<port id="0" precision="FP32">
					<dim>1</dim>
					<dim>64</dim>
					<dim>24</dim>
				</port>
				<port id="1" precision="FP32">
					<dim>1</dim>
					<dim>64</dim>
					<dim>24</dim>
				</port>
			</input>
			<output>
				<port id="2" names="613" precision="FP32">
					<dim>1</dim>
					<dim>128</dim>
					<dim>24</dim>
				</port>
			</output>
		</layer>
		<layer id="282" name="PG.conv_fusion.10.weight" type="Const" version="opset1">
			<data element_type="f32" offset="1942080" shape="64, 128, 1" size="32768"/>
			<output>
				<port id="0" names="PG.conv_fusion.10.weight" precision="FP32">
					<dim>64</dim>
					<dim>128</dim>
					<dim>1</dim>
				</port>
			</output>
		</layer>
		<layer id="283" name="Conv_262/WithoutBiases" type="Convolution" version="opset1">
			<data auto_pad="explicit" dilations="1" pads_begin="0" pads_end="0" strides="1"/>
			<input>
				<port id="0" precision="FP32">
					<dim>1</dim>
					<dim>128</dim>
					<dim>24</dim>
				</port>
				<port id="1" precision="FP32">
					<dim>64</dim>
					<dim>128</dim>
					<dim>1</dim>
				</port>
			</input>
			<output>
				<port id="2" precision="FP32">
					<dim>1</dim>
					<dim>64</dim>
					<dim>24</dim>
				</port>
			</output>
		</layer>
		<layer id="284" name="Conv_262/Dims10832" type="Const" version="opset1">
			<data element_type="f32" offset="1974848" shape="1, 64, 1" size="256"/>
			<output>
				<port id="0" precision="FP32">
					<dim>1</dim>
					<dim>64</dim>
					<dim>1</dim>
				</port>
			</output>
		</layer>
		<layer id="285" name="Conv_262" type="Add" version="opset1">
			<data auto_broadcast="numpy"/>
			<input>
				<port id="0" precision="FP32">
					<dim>1</dim>
					<dim>64</dim>
					<dim>24</dim>
				</port>
				<port id="1" precision="FP32">
					<dim>1</dim>
					<dim>64</dim>
					<dim>1</dim>
				</port>
			</input>
			<output>
				<port id="2" names="614" precision="FP32">
					<dim>1</dim>
					<dim>64</dim>
					<dim>24</dim>
				</port>
			</output>
		</layer>
		<layer id="286" name="Relu_263" type="ReLU" version="opset1">
			<input>
				<port id="0" precision="FP32">
					<dim>1</dim>
					<dim>64</dim>
					<dim>24</dim>
				</port>
			</input>
			<output>
				<port id="1" names="615" precision="FP32">
					<dim>1</dim>
					<dim>64</dim>
					<dim>24</dim>
				</port>
			</output>
		</layer>
		<layer id="287" name="Add_264" type="Add" version="opset1">
			<data auto_broadcast="numpy"/>
			<input>
				<port id="0" precision="FP32">
					<dim>1</dim>
					<dim>64</dim>
					<dim>24</dim>
				</port>
				<port id="1" precision="FP32">
					<dim>1</dim>
					<dim>64</dim>
					<dim>24</dim>
				</port>
			</input>
			<output>
				<port id="2" names="616" precision="FP32">
					<dim>1</dim>
					<dim>64</dim>
					<dim>24</dim>
				</port>
			</output>
		</layer>
		<layer id="288" name="PG.conv_out.weight" type="Const" version="opset1">
			<data element_type="f32" offset="1975104" shape="64, 64, 1" size="16384"/>
			<output>
				<port id="0" names="PG.conv_out.weight" precision="FP32">
					<dim>64</dim>
					<dim>64</dim>
					<dim>1</dim>
				</port>
			</output>
		</layer>
		<layer id="289" name="Conv_271/WithoutBiases" type="Convolution" version="opset1">
			<data auto_pad="explicit" dilations="1" pads_begin="0" pads_end="0" strides="1"/>
			<input>
				<port id="0" precision="FP32">
					<dim>1</dim>
					<dim>64</dim>
					<dim>24</dim>
				</port>
				<port id="1" precision="FP32">
					<dim>64</dim>
					<dim>64</dim>
					<dim>1</dim>
				</port>
			</input>
			<output>
				<port id="2" precision="FP32">
					<dim>1</dim>
					<dim>64</dim>
					<dim>24</dim>
				</port>
			</output>
		</layer>
		<layer id="290" name="Conv_271/Dims10574" type="Const" version="opset1">
			<data element_type="f32" offset="1991488" shape="1, 64, 1" size="256"/>
			<output>
				<port id="0" precision="FP32">
					<dim>1</dim>
					<dim>64</dim>
					<dim>1</dim>
				</port>
			</output>
		</layer>
		<layer id="291" name="Conv_271" type="Add" version="opset1">
			<data auto_broadcast="numpy"/>
			<input>
				<port id="0" precision="FP32">
					<dim>1</dim>
					<dim>64</dim>
					<dim>24</dim>
				</port>
				<port id="1" precision="FP32">
					<dim>1</dim>
					<dim>64</dim>
					<dim>1</dim>
				</port>
			</input>
			<output>
				<port id="2" names="623" precision="FP32">
					<dim>1</dim>
					<dim>64</dim>
					<dim>24</dim>
				</port>
			</output>
		</layer>
		<layer id="292" name="Exp_273" type="Exp" version="opset1">
			<input>
				<port id="0" precision="FP32">
					<dim>1</dim>
					<dim>64</dim>
					<dim>24</dim>
				</port>
			</input>
			<output>
				<port id="1" names="625" precision="FP32">
					<dim>1</dim>
					<dim>64</dim>
					<dim>24</dim>
				</port>
			</output>
		</layer>
		<layer id="293" name="ReduceSum_274/axis" type="Const" version="opset1">
			<data element_type="i64" offset="1991744" shape="1" size="8"/>
			<output>
				<port id="0" precision="I64">
					<dim>1</dim>
				</port>
			</output>
		</layer>
		<layer id="294" name="ReduceSum_274" type="ReduceSum" version="opset1">
			<data keep_dims="true"/>
			<input>
				<port id="0" precision="FP32">
					<dim>1</dim>
					<dim>64</dim>
					<dim>24</dim>
				</port>
				<port id="1" precision="I64">
					<dim>1</dim>
				</port>
			</input>
			<output>
				<port id="2" precision="FP32">
					<dim>1</dim>
					<dim>1</dim>
					<dim>24</dim>
				</port>
			</output>
		</layer>
		<layer id="295" name="Div_275/reciprocal__input_port_1/value20026" type="Const" version="opset1">
			<data element_type="f32" offset="1991752" shape="1, 1, 1" size="4"/>
			<output>
				<port id="0" precision="FP32">
					<dim>1</dim>
					<dim>1</dim>
					<dim>1</dim>
				</port>
			</output>
		</layer>
		<layer id="296" name="Div_275/reciprocal_" type="Power" version="opset1">
			<data auto_broadcast="numpy"/>
			<input>
				<port id="0" precision="FP32">
					<dim>1</dim>
					<dim>1</dim>
					<dim>24</dim>
				</port>
				<port id="1" precision="FP32">
					<dim>1</dim>
					<dim>1</dim>
					<dim>1</dim>
				</port>
			</input>
			<output>
				<port id="2" names="626" precision="FP32">
					<dim>1</dim>
					<dim>1</dim>
					<dim>24</dim>
				</port>
			</output>
		</layer>
		<layer id="297" name="Div_275" type="Multiply" version="opset1">
			<data auto_broadcast="numpy"/>
			<input>
				<port id="0" precision="FP32">
					<dim>1</dim>
					<dim>64</dim>
					<dim>24</dim>
				</port>
				<port id="1" precision="FP32">
					<dim>1</dim>
					<dim>1</dim>
					<dim>24</dim>
				</port>
			</input>
			<output>
				<port id="2" names="627" precision="FP32">
					<dim>1</dim>
					<dim>64</dim>
					<dim>24</dim>
				</port>
			</output>
		</layer>
		<layer id="298" name="Rs.0.conv_1x1.weight" type="Const" version="opset1">
			<data element_type="f32" offset="1991756" shape="64, 64, 1" size="16384"/>
			<output>
				<port id="0" names="Rs.0.conv_1x1.weight" precision="FP32">
					<dim>64</dim>
					<dim>64</dim>
					<dim>1</dim>
				</port>
			</output>
		</layer>
		<layer id="299" name="Conv_276/WithoutBiases" type="Convolution" version="opset1">
			<data auto_pad="explicit" dilations="1" pads_begin="0" pads_end="0" strides="1"/>
			<input>
				<port id="0" precision="FP32">
					<dim>1</dim>
					<dim>64</dim>
					<dim>24</dim>
				</port>
				<port id="1" precision="FP32">
					<dim>64</dim>
					<dim>64</dim>
					<dim>1</dim>
				</port>
			</input>
			<output>
				<port id="2" precision="FP32">
					<dim>1</dim>
					<dim>64</dim>
					<dim>24</dim>
				</port>
			</output>
		</layer>
		<layer id="300" name="Conv_276/Dims10718" type="Const" version="opset1">
			<data element_type="f32" offset="2008140" shape="1, 64, 1" size="256"/>
			<output>
				<port id="0" precision="FP32">
					<dim>1</dim>
					<dim>64</dim>
					<dim>1</dim>
				</port>
			</output>
		</layer>
		<layer id="301" name="Conv_276" type="Add" version="opset1">
			<data auto_broadcast="numpy"/>
			<input>
				<port id="0" precision="FP32">
					<dim>1</dim>
					<dim>64</dim>
					<dim>24</dim>
				</port>
				<port id="1" precision="FP32">
					<dim>1</dim>
					<dim>64</dim>
					<dim>1</dim>
				</port>
			</input>
			<output>
				<port id="2" names="628" precision="FP32">
					<dim>1</dim>
					<dim>64</dim>
					<dim>24</dim>
				</port>
			</output>
		</layer>
		<layer id="302" name="tmp_fhis_in_1_0/Split_input_port_1/value" type="Const" version="opset1">
			<data element_type="i64" offset="0" shape="" size="8"/>
			<output>
				<port id="0" precision="I64"/>
			</output>
		</layer>
		<layer id="303" name="tmp_fhis_in_1_0/Split" type="Split" version="opset1">
			<data num_splits="11"/>
			<input>
				<port id="0" precision="FP32">
					<dim>11</dim>
					<dim>64</dim>
					<dim>2048</dim>
				</port>
				<port id="1" precision="I64"/>
			</input>
			<output>
				<port id="2" names="tmp_fhis_in_1_0" precision="FP32">
					<dim>1</dim>
					<dim>64</dim>
					<dim>2048</dim>
				</port>
				<port id="3" names="tmp_fhis_in_1_1" precision="FP32">
					<dim>1</dim>
					<dim>64</dim>
					<dim>2048</dim>
				</port>
				<port id="4" names="tmp_fhis_in_1_2" precision="FP32">
					<dim>1</dim>
					<dim>64</dim>
					<dim>2048</dim>
				</port>
				<port id="5" names="tmp_fhis_in_1_3" precision="FP32">
					<dim>1</dim>
					<dim>64</dim>
					<dim>2048</dim>
				</port>
				<port id="6" names="tmp_fhis_in_1_4" precision="FP32">
					<dim>1</dim>
					<dim>64</dim>
					<dim>2048</dim>
				</port>
				<port id="7" names="tmp_fhis_in_1_5" precision="FP32">
					<dim>1</dim>
					<dim>64</dim>
					<dim>2048</dim>
				</port>
				<port id="8" names="tmp_fhis_in_1_6" precision="FP32">
					<dim>1</dim>
					<dim>64</dim>
					<dim>2048</dim>
				</port>
				<port id="9" names="tmp_fhis_in_1_7" precision="FP32">
					<dim>1</dim>
					<dim>64</dim>
					<dim>2048</dim>
				</port>
				<port id="10" names="tmp_fhis_in_1_8" precision="FP32">
					<dim>1</dim>
					<dim>64</dim>
					<dim>2048</dim>
				</port>
				<port id="11" names="tmp_fhis_in_1_9" precision="FP32">
					<dim>1</dim>
					<dim>64</dim>
					<dim>2048</dim>
				</port>
				<port id="12" names="tmp_fhis_in_1_10" precision="FP32">
					<dim>1</dim>
					<dim>64</dim>
					<dim>2048</dim>
				</port>
			</output>
		</layer>
		<layer id="304" name="Slice_287/Concat1330243886" type="Const" version="opset1">
			<data element_type="i64" offset="8" shape="3" size="24"/>
			<output>
				<port id="0" precision="I64">
					<dim>3</dim>
				</port>
			</output>
		</layer>
		<layer id="305" name="Slice_287/Concat132881330344333" type="Const" version="opset1">
			<data element_type="i64" offset="32" shape="3" size="24"/>
			<output>
				<port id="0" precision="I64">
					<dim>3</dim>
				</port>
			</output>
		</layer>
		<layer id="306" name="Slice_287/Strides1330444573" type="Const" version="opset1">
			<data element_type="i64" offset="56" shape="3" size="24"/>
			<output>
				<port id="0" precision="I64">
					<dim>3</dim>
				</port>
			</output>
		</layer>
		<layer id="307" name="Slice_287" type="StridedSlice" version="opset1">
			<data begin_mask="1, 1, 0" ellipsis_mask="0, 0, 0" end_mask="1, 1, 0" new_axis_mask="0, 0, 0" shrink_axis_mask="0, 0, 0"/>
			<input>
				<port id="0" precision="FP32">
					<dim>1</dim>
					<dim>64</dim>
					<dim>2048</dim>
				</port>
				<port id="1" precision="I64">
					<dim>3</dim>
				</port>
				<port id="2" precision="I64">
					<dim>3</dim>
				</port>
				<port id="3" precision="I64">
					<dim>3</dim>
				</port>
			</input>
			<output>
				<port id="4" names="639" precision="FP32">
					<dim>1</dim>
					<dim>64</dim>
					<dim>2</dim>
				</port>
			</output>
		</layer>
		<layer id="308" name="Concat_288" type="Concat" version="opset1">
			<data axis="2"/>
			<input>
				<port id="0" precision="FP32">
					<dim>1</dim>
					<dim>64</dim>
					<dim>2</dim>
				</port>
				<port id="1" precision="FP32">
					<dim>1</dim>
					<dim>64</dim>
					<dim>24</dim>
				</port>
			</input>
			<output>
				<port id="2" names="640" precision="FP32">
					<dim>1</dim>
					<dim>64</dim>
					<dim>26</dim>
				</port>
			</output>
		</layer>
		<layer id="309" name="Rs.0.layers.0.conv_dilated_online.weight" type="Const" version="opset1">
			<data element_type="f32" offset="2008396" shape="64, 64, 3" size="49152"/>
			<output>
				<port id="0" names="Rs.0.layers.0.conv_dilated_online.weight" precision="FP32">
					<dim>64</dim>
					<dim>64</dim>
					<dim>3</dim>
				</port>
			</output>
		</layer>
		<layer id="310" name="Conv_289/WithoutBiases" type="Convolution" version="opset1">
			<data auto_pad="explicit" dilations="1" pads_begin="0" pads_end="0" strides="1"/>
			<input>
				<port id="0" precision="FP32">
					<dim>1</dim>
					<dim>64</dim>
					<dim>26</dim>
				</port>
				<port id="1" precision="FP32">
					<dim>64</dim>
					<dim>64</dim>
					<dim>3</dim>
				</port>
			</input>
			<output>
				<port id="2" precision="FP32">
					<dim>1</dim>
					<dim>64</dim>
					<dim>24</dim>
				</port>
			</output>
		</layer>
		<layer id="311" name="Conv_289/Dims10886" type="Const" version="opset1">
			<data element_type="f32" offset="2057548" shape="1, 64, 1" size="256"/>
			<output>
				<port id="0" precision="FP32">
					<dim>1</dim>
					<dim>64</dim>
					<dim>1</dim>
				</port>
			</output>
		</layer>
		<layer id="312" name="Conv_289" type="Add" version="opset1">
			<data auto_broadcast="numpy"/>
			<input>
				<port id="0" precision="FP32">
					<dim>1</dim>
					<dim>64</dim>
					<dim>24</dim>
				</port>
				<port id="1" precision="FP32">
					<dim>1</dim>
					<dim>64</dim>
					<dim>1</dim>
				</port>
			</input>
			<output>
				<port id="2" names="641" precision="FP32">
					<dim>1</dim>
					<dim>64</dim>
					<dim>24</dim>
				</port>
			</output>
		</layer>
		<layer id="313" name="Relu_290" type="ReLU" version="opset1">
			<input>
				<port id="0" precision="FP32">
					<dim>1</dim>
					<dim>64</dim>
					<dim>24</dim>
				</port>
			</input>
			<output>
				<port id="1" names="642" precision="FP32">
					<dim>1</dim>
					<dim>64</dim>
					<dim>24</dim>
				</port>
			</output>
		</layer>
		<layer id="314" name="Rs.0.layers.0.conv_1x1.weight" type="Const" version="opset1">
			<data element_type="f32" offset="2057804" shape="64, 64, 1" size="16384"/>
			<output>
				<port id="0" names="Rs.0.layers.0.conv_1x1.weight" precision="FP32">
					<dim>64</dim>
					<dim>64</dim>
					<dim>1</dim>
				</port>
			</output>
		</layer>
		<layer id="315" name="Conv_291/WithoutBiases" type="Convolution" version="opset1">
			<data auto_pad="explicit" dilations="1" pads_begin="0" pads_end="0" strides="1"/>
			<input>
				<port id="0" precision="FP32">
					<dim>1</dim>
					<dim>64</dim>
					<dim>24</dim>
				</port>
				<port id="1" precision="FP32">
					<dim>64</dim>
					<dim>64</dim>
					<dim>1</dim>
				</port>
			</input>
			<output>
				<port id="2" precision="FP32">
					<dim>1</dim>
					<dim>64</dim>
					<dim>24</dim>
				</port>
			</output>
		</layer>
		<layer id="316" name="Conv_291/Dims10790" type="Const" version="opset1">
			<data element_type="f32" offset="2074188" shape="1, 64, 1" size="256"/>
			<output>
				<port id="0" precision="FP32">
					<dim>1</dim>
					<dim>64</dim>
					<dim>1</dim>
				</port>
			</output>
		</layer>
		<layer id="317" name="Conv_291" type="Add" version="opset1">
			<data auto_broadcast="numpy"/>
			<input>
				<port id="0" precision="FP32">
					<dim>1</dim>
					<dim>64</dim>
					<dim>24</dim>
				</port>
				<port id="1" precision="FP32">
					<dim>1</dim>
					<dim>64</dim>
					<dim>1</dim>
				</port>
			</input>
			<output>
				<port id="2" names="643" precision="FP32">
					<dim>1</dim>
					<dim>64</dim>
					<dim>24</dim>
				</port>
			</output>
		</layer>
		<layer id="318" name="Add_292" type="Add" version="opset1">
			<data auto_broadcast="numpy"/>
			<input>
				<port id="0" precision="FP32">
					<dim>1</dim>
					<dim>64</dim>
					<dim>24</dim>
				</port>
				<port id="1" precision="FP32">
					<dim>1</dim>
					<dim>64</dim>
					<dim>24</dim>
				</port>
			</input>
			<output>
				<port id="2" names="644" precision="FP32">
					<dim>1</dim>
					<dim>64</dim>
					<dim>24</dim>
				</port>
			</output>
		</layer>
		<layer id="319" name="Slice_303/Concat1339044576" type="Const" version="opset1">
			<data element_type="i64" offset="80" shape="3" size="24"/>
			<output>
				<port id="0" precision="I64">
					<dim>3</dim>
				</port>
			</output>
		</layer>
		<layer id="320" name="Slice_303/Concat133761339143997" type="Const" version="opset1">
			<data element_type="i64" offset="32" shape="3" size="24"/>
			<output>
				<port id="0" precision="I64">
					<dim>3</dim>
				</port>
			</output>
		</layer>
		<layer id="321" name="Slice_303/Strides1339244702" type="Const" version="opset1">
			<data element_type="i64" offset="56" shape="3" size="24"/>
			<output>
				<port id="0" precision="I64">
					<dim>3</dim>
				</port>
			</output>
		</layer>
		<layer id="322" name="Slice_303" type="StridedSlice" version="opset1">
			<data begin_mask="1, 1, 0" ellipsis_mask="0, 0, 0" end_mask="1, 1, 0" new_axis_mask="0, 0, 0" shrink_axis_mask="0, 0, 0"/>
			<input>
				<port id="0" precision="FP32">
					<dim>1</dim>
					<dim>64</dim>
					<dim>2048</dim>
				</port>
				<port id="1" precision="I64">
					<dim>3</dim>
				</port>
				<port id="2" precision="I64">
					<dim>3</dim>
				</port>
				<port id="3" precision="I64">
					<dim>3</dim>
				</port>
			</input>
			<output>
				<port id="4" names="655" precision="FP32">
					<dim>1</dim>
					<dim>64</dim>
					<dim>4</dim>
				</port>
			</output>
		</layer>
		<layer id="323" name="Concat_304" type="Concat" version="opset1">
			<data axis="2"/>
			<input>
				<port id="0" precision="FP32">
					<dim>1</dim>
					<dim>64</dim>
					<dim>4</dim>
				</port>
				<port id="1" precision="FP32">
					<dim>1</dim>
					<dim>64</dim>
					<dim>24</dim>
				</port>
			</input>
			<output>
				<port id="2" names="656" precision="FP32">
					<dim>1</dim>
					<dim>64</dim>
					<dim>28</dim>
				</port>
			</output>
		</layer>
		<layer id="324" name="Rs.0.layers.1.conv_dilated_online.weight" type="Const" version="opset1">
			<data element_type="f32" offset="2074444" shape="64, 64, 3" size="49152"/>
			<output>
				<port id="0" names="Rs.0.layers.1.conv_dilated_online.weight" precision="FP32">
					<dim>64</dim>
					<dim>64</dim>
					<dim>3</dim>
				</port>
			</output>
		</layer>
		<layer id="325" name="Conv_305/WithoutBiases" type="Convolution" version="opset1">
			<data auto_pad="explicit" dilations="2" pads_begin="0" pads_end="0" strides="1"/>
			<input>
				<port id="0" precision="FP32">
					<dim>1</dim>
					<dim>64</dim>
					<dim>28</dim>
				</port>
				<port id="1" precision="FP32">
					<dim>64</dim>
					<dim>64</dim>
					<dim>3</dim>
				</port>
			</input>
			<output>
				<port id="2" precision="FP32">
					<dim>1</dim>
					<dim>64</dim>
					<dim>24</dim>
				</port>
			</output>
		</layer>
		<layer id="326" name="Conv_305/Dims10778" type="Const" version="opset1">
			<data element_type="f32" offset="2123596" shape="1, 64, 1" size="256"/>
			<output>
				<port id="0" precision="FP32">
					<dim>1</dim>
					<dim>64</dim>
					<dim>1</dim>
				</port>
			</output>
		</layer>
		<layer id="327" name="Conv_305" type="Add" version="opset1">
			<data auto_broadcast="numpy"/>
			<input>
				<port id="0" precision="FP32">
					<dim>1</dim>
					<dim>64</dim>
					<dim>24</dim>
				</port>
				<port id="1" precision="FP32">
					<dim>1</dim>
					<dim>64</dim>
					<dim>1</dim>
				</port>
			</input>
			<output>
				<port id="2" names="657" precision="FP32">
					<dim>1</dim>
					<dim>64</dim>
					<dim>24</dim>
				</port>
			</output>
		</layer>
		<layer id="328" name="Relu_306" type="ReLU" version="opset1">
			<input>
				<port id="0" precision="FP32">
					<dim>1</dim>
					<dim>64</dim>
					<dim>24</dim>
				</port>
			</input>
			<output>
				<port id="1" names="658" precision="FP32">
					<dim>1</dim>
					<dim>64</dim>
					<dim>24</dim>
				</port>
			</output>
		</layer>
		<layer id="329" name="Rs.0.layers.1.conv_1x1.weight" type="Const" version="opset1">
			<data element_type="f32" offset="2123852" shape="64, 64, 1" size="16384"/>
			<output>
				<port id="0" names="Rs.0.layers.1.conv_1x1.weight" precision="FP32">
					<dim>64</dim>
					<dim>64</dim>
					<dim>1</dim>
				</port>
			</output>
		</layer>
		<layer id="330" name="Conv_307/WithoutBiases" type="Convolution" version="opset1">
			<data auto_pad="explicit" dilations="1" pads_begin="0" pads_end="0" strides="1"/>
			<input>
				<port id="0" precision="FP32">
					<dim>1</dim>
					<dim>64</dim>
					<dim>24</dim>
				</port>
				<port id="1" precision="FP32">
					<dim>64</dim>
					<dim>64</dim>
					<dim>1</dim>
				</port>
			</input>
			<output>
				<port id="2" precision="FP32">
					<dim>1</dim>
					<dim>64</dim>
					<dim>24</dim>
				</port>
			</output>
		</layer>
		<layer id="331" name="Conv_307/Dims10952" type="Const" version="opset1">
			<data element_type="f32" offset="2140236" shape="1, 64, 1" size="256"/>
			<output>
				<port id="0" precision="FP32">
					<dim>1</dim>
					<dim>64</dim>
					<dim>1</dim>
				</port>
			</output>
		</layer>
		<layer id="332" name="Conv_307" type="Add" version="opset1">
			<data auto_broadcast="numpy"/>
			<input>
				<port id="0" precision="FP32">
					<dim>1</dim>
					<dim>64</dim>
					<dim>24</dim>
				</port>
				<port id="1" precision="FP32">
					<dim>1</dim>
					<dim>64</dim>
					<dim>1</dim>
				</port>
			</input>
			<output>
				<port id="2" names="659" precision="FP32">
					<dim>1</dim>
					<dim>64</dim>
					<dim>24</dim>
				</port>
			</output>
		</layer>
		<layer id="333" name="Add_308" type="Add" version="opset1">
			<data auto_broadcast="numpy"/>
			<input>
				<port id="0" precision="FP32">
					<dim>1</dim>
					<dim>64</dim>
					<dim>24</dim>
				</port>
				<port id="1" precision="FP32">
					<dim>1</dim>
					<dim>64</dim>
					<dim>24</dim>
				</port>
			</input>
			<output>
				<port id="2" names="660" precision="FP32">
					<dim>1</dim>
					<dim>64</dim>
					<dim>24</dim>
				</port>
			</output>
		</layer>
		<layer id="334" name="Slice_319/Concat1347843361" type="Const" version="opset1">
			<data element_type="i64" offset="104" shape="3" size="24"/>
			<output>
				<port id="0" precision="I64">
					<dim>3</dim>
				</port>
			</output>
		</layer>
		<layer id="335" name="Slice_319/Concat134641347944447" type="Const" version="opset1">
			<data element_type="i64" offset="32" shape="3" size="24"/>
			<output>
				<port id="0" precision="I64">
					<dim>3</dim>
				</port>
			</output>
		</layer>
		<layer id="336" name="Slice_319/Strides1348043898" type="Const" version="opset1">
			<data element_type="i64" offset="56" shape="3" size="24"/>
			<output>
				<port id="0" precision="I64">
					<dim>3</dim>
				</port>
			</output>
		</layer>
		<layer id="337" name="Slice_319" type="StridedSlice" version="opset1">
			<data begin_mask="1, 1, 0" ellipsis_mask="0, 0, 0" end_mask="1, 1, 0" new_axis_mask="0, 0, 0" shrink_axis_mask="0, 0, 0"/>
			<input>
				<port id="0" precision="FP32">
					<dim>1</dim>
					<dim>64</dim>
					<dim>2048</dim>
				</port>
				<port id="1" precision="I64">
					<dim>3</dim>
				</port>
				<port id="2" precision="I64">
					<dim>3</dim>
				</port>
				<port id="3" precision="I64">
					<dim>3</dim>
				</port>
			</input>
			<output>
				<port id="4" names="671" precision="FP32">
					<dim>1</dim>
					<dim>64</dim>
					<dim>8</dim>
				</port>
			</output>
		</layer>
		<layer id="338" name="Concat_320" type="Concat" version="opset1">
			<data axis="2"/>
			<input>
				<port id="0" precision="FP32">
					<dim>1</dim>
					<dim>64</dim>
					<dim>8</dim>
				</port>
				<port id="1" precision="FP32">
					<dim>1</dim>
					<dim>64</dim>
					<dim>24</dim>
				</port>
			</input>
			<output>
				<port id="2" names="672" precision="FP32">
					<dim>1</dim>
					<dim>64</dim>
					<dim>32</dim>
				</port>
			</output>
		</layer>
		<layer id="339" name="Rs.0.layers.2.conv_dilated_online.weight" type="Const" version="opset1">
			<data element_type="f32" offset="2140492" shape="64, 64, 3" size="49152"/>
			<output>
				<port id="0" names="Rs.0.layers.2.conv_dilated_online.weight" precision="FP32">
					<dim>64</dim>
					<dim>64</dim>
					<dim>3</dim>
				</port>
			</output>
		</layer>
		<layer id="340" name="Conv_321/WithoutBiases" type="Convolution" version="opset1">
			<data auto_pad="explicit" dilations="4" pads_begin="0" pads_end="0" strides="1"/>
			<input>
				<port id="0" precision="FP32">
					<dim>1</dim>
					<dim>64</dim>
					<dim>32</dim>
				</port>
				<port id="1" precision="FP32">
					<dim>64</dim>
					<dim>64</dim>
					<dim>3</dim>
				</port>
			</input>
			<output>
				<port id="2" precision="FP32">
					<dim>1</dim>
					<dim>64</dim>
					<dim>24</dim>
				</port>
			</output>
		</layer>
		<layer id="341" name="Conv_321/Dims10820" type="Const" version="opset1">
			<data element_type="f32" offset="2189644" shape="1, 64, 1" size="256"/>
			<output>
				<port id="0" precision="FP32">
					<dim>1</dim>
					<dim>64</dim>
					<dim>1</dim>
				</port>
			</output>
		</layer>
		<layer id="342" name="Conv_321" type="Add" version="opset1">
			<data auto_broadcast="numpy"/>
			<input>
				<port id="0" precision="FP32">
					<dim>1</dim>
					<dim>64</dim>
					<dim>24</dim>
				</port>
				<port id="1" precision="FP32">
					<dim>1</dim>
					<dim>64</dim>
					<dim>1</dim>
				</port>
			</input>
			<output>
				<port id="2" names="673" precision="FP32">
					<dim>1</dim>
					<dim>64</dim>
					<dim>24</dim>
				</port>
			</output>
		</layer>
		<layer id="343" name="Relu_322" type="ReLU" version="opset1">
			<input>
				<port id="0" precision="FP32">
					<dim>1</dim>
					<dim>64</dim>
					<dim>24</dim>
				</port>
			</input>
			<output>
				<port id="1" names="674" precision="FP32">
					<dim>1</dim>
					<dim>64</dim>
					<dim>24</dim>
				</port>
			</output>
		</layer>
		<layer id="344" name="Rs.0.layers.2.conv_1x1.weight" type="Const" version="opset1">
			<data element_type="f32" offset="2189900" shape="64, 64, 1" size="16384"/>
			<output>
				<port id="0" names="Rs.0.layers.2.conv_1x1.weight" precision="FP32">
					<dim>64</dim>
					<dim>64</dim>
					<dim>1</dim>
				</port>
			</output>
		</layer>
		<layer id="345" name="Conv_323/WithoutBiases" type="Convolution" version="opset1">
			<data auto_pad="explicit" dilations="1" pads_begin="0" pads_end="0" strides="1"/>
			<input>
				<port id="0" precision="FP32">
					<dim>1</dim>
					<dim>64</dim>
					<dim>24</dim>
				</port>
				<port id="1" precision="FP32">
					<dim>64</dim>
					<dim>64</dim>
					<dim>1</dim>
				</port>
			</input>
			<output>
				<port id="2" precision="FP32">
					<dim>1</dim>
					<dim>64</dim>
					<dim>24</dim>
				</port>
			</output>
		</layer>
		<layer id="346" name="Conv_323/Dims10598" type="Const" version="opset1">
			<data element_type="f32" offset="2206284" shape="1, 64, 1" size="256"/>
			<output>
				<port id="0" precision="FP32">
					<dim>1</dim>
					<dim>64</dim>
					<dim>1</dim>
				</port>
			</output>
		</layer>
		<layer id="347" name="Conv_323" type="Add" version="opset1">
			<data auto_broadcast="numpy"/>
			<input>
				<port id="0" precision="FP32">
					<dim>1</dim>
					<dim>64</dim>
					<dim>24</dim>
				</port>
				<port id="1" precision="FP32">
					<dim>1</dim>
					<dim>64</dim>
					<dim>1</dim>
				</port>
			</input>
			<output>
				<port id="2" names="675" precision="FP32">
					<dim>1</dim>
					<dim>64</dim>
					<dim>24</dim>
				</port>
			</output>
		</layer>
		<layer id="348" name="Add_324" type="Add" version="opset1">
			<data auto_broadcast="numpy"/>
			<input>
				<port id="0" precision="FP32">
					<dim>1</dim>
					<dim>64</dim>
					<dim>24</dim>
				</port>
				<port id="1" precision="FP32">
					<dim>1</dim>
					<dim>64</dim>
					<dim>24</dim>
				</port>
			</input>
			<output>
				<port id="2" names="676" precision="FP32">
					<dim>1</dim>
					<dim>64</dim>
					<dim>24</dim>
				</port>
			</output>
		</layer>
		<layer id="349" name="Slice_335/Concat1356644264" type="Const" version="opset1">
			<data element_type="i64" offset="128" shape="3" size="24"/>
			<output>
				<port id="0" precision="I64">
					<dim>3</dim>
				</port>
			</output>
		</layer>
		<layer id="350" name="Slice_335/Concat135521356743379" type="Const" version="opset1">
			<data element_type="i64" offset="32" shape="3" size="24"/>
			<output>
				<port id="0" precision="I64">
					<dim>3</dim>
				</port>
			</output>
		</layer>
		<layer id="351" name="Slice_335/Strides1356843451" type="Const" version="opset1">
			<data element_type="i64" offset="56" shape="3" size="24"/>
			<output>
				<port id="0" precision="I64">
					<dim>3</dim>
				</port>
			</output>
		</layer>
		<layer id="352" name="Slice_335" type="StridedSlice" version="opset1">
			<data begin_mask="1, 1, 0" ellipsis_mask="0, 0, 0" end_mask="1, 1, 0" new_axis_mask="0, 0, 0" shrink_axis_mask="0, 0, 0"/>
			<input>
				<port id="0" precision="FP32">
					<dim>1</dim>
					<dim>64</dim>
					<dim>2048</dim>
				</port>
				<port id="1" precision="I64">
					<dim>3</dim>
				</port>
				<port id="2" precision="I64">
					<dim>3</dim>
				</port>
				<port id="3" precision="I64">
					<dim>3</dim>
				</port>
			</input>
			<output>
				<port id="4" names="687" precision="FP32">
					<dim>1</dim>
					<dim>64</dim>
					<dim>16</dim>
				</port>
			</output>
		</layer>
		<layer id="353" name="Concat_336" type="Concat" version="opset1">
			<data axis="2"/>
			<input>
				<port id="0" precision="FP32">
					<dim>1</dim>
					<dim>64</dim>
					<dim>16</dim>
				</port>
				<port id="1" precision="FP32">
					<dim>1</dim>
					<dim>64</dim>
					<dim>24</dim>
				</port>
			</input>
			<output>
				<port id="2" names="688" precision="FP32">
					<dim>1</dim>
					<dim>64</dim>
					<dim>40</dim>
				</port>
			</output>
		</layer>
		<layer id="354" name="Rs.0.layers.3.conv_dilated_online.weight" type="Const" version="opset1">
			<data element_type="f32" offset="2206540" shape="64, 64, 3" size="49152"/>
			<output>
				<port id="0" names="Rs.0.layers.3.conv_dilated_online.weight" precision="FP32">
					<dim>64</dim>
					<dim>64</dim>
					<dim>3</dim>
				</port>
			</output>
		</layer>
		<layer id="355" name="Conv_337/WithoutBiases" type="Convolution" version="opset1">
			<data auto_pad="explicit" dilations="8" pads_begin="0" pads_end="0" strides="1"/>
			<input>
				<port id="0" precision="FP32">
					<dim>1</dim>
					<dim>64</dim>
					<dim>40</dim>
				</port>
				<port id="1" precision="FP32">
					<dim>64</dim>
					<dim>64</dim>
					<dim>3</dim>
				</port>
			</input>
			<output>
				<port id="2" precision="FP32">
					<dim>1</dim>
					<dim>64</dim>
					<dim>24</dim>
				</port>
			</output>
		</layer>
		<layer id="356" name="Conv_337/Dims10898" type="Const" version="opset1">
			<data element_type="f32" offset="2255692" shape="1, 64, 1" size="256"/>
			<output>
				<port id="0" precision="FP32">
					<dim>1</dim>
					<dim>64</dim>
					<dim>1</dim>
				</port>
			</output>
		</layer>
		<layer id="357" name="Conv_337" type="Add" version="opset1">
			<data auto_broadcast="numpy"/>
			<input>
				<port id="0" precision="FP32">
					<dim>1</dim>
					<dim>64</dim>
					<dim>24</dim>
				</port>
				<port id="1" precision="FP32">
					<dim>1</dim>
					<dim>64</dim>
					<dim>1</dim>
				</port>
			</input>
			<output>
				<port id="2" names="689" precision="FP32">
					<dim>1</dim>
					<dim>64</dim>
					<dim>24</dim>
				</port>
			</output>
		</layer>
		<layer id="358" name="Relu_338" type="ReLU" version="opset1">
			<input>
				<port id="0" precision="FP32">
					<dim>1</dim>
					<dim>64</dim>
					<dim>24</dim>
				</port>
			</input>
			<output>
				<port id="1" names="690" precision="FP32">
					<dim>1</dim>
					<dim>64</dim>
					<dim>24</dim>
				</port>
			</output>
		</layer>
		<layer id="359" name="Rs.0.layers.3.conv_1x1.weight" type="Const" version="opset1">
			<data element_type="f32" offset="2255948" shape="64, 64, 1" size="16384"/>
			<output>
				<port id="0" names="Rs.0.layers.3.conv_1x1.weight" precision="FP32">
					<dim>64</dim>
					<dim>64</dim>
					<dim>1</dim>
				</port>
			</output>
		</layer>
		<layer id="360" name="Conv_339/WithoutBiases" type="Convolution" version="opset1">
			<data auto_pad="explicit" dilations="1" pads_begin="0" pads_end="0" strides="1"/>
			<input>
				<port id="0" precision="FP32">
					<dim>1</dim>
					<dim>64</dim>
					<dim>24</dim>
				</port>
				<port id="1" precision="FP32">
					<dim>64</dim>
					<dim>64</dim>
					<dim>1</dim>
				</port>
			</input>
			<output>
				<port id="2" precision="FP32">
					<dim>1</dim>
					<dim>64</dim>
					<dim>24</dim>
				</port>
			</output>
		</layer>
		<layer id="361" name="Conv_339/Dims10814" type="Const" version="opset1">
			<data element_type="f32" offset="2272332" shape="1, 64, 1" size="256"/>
			<output>
				<port id="0" precision="FP32">
					<dim>1</dim>
					<dim>64</dim>
					<dim>1</dim>
				</port>
			</output>
		</layer>
		<layer id="362" name="Conv_339" type="Add" version="opset1">
			<data auto_broadcast="numpy"/>
			<input>
				<port id="0" precision="FP32">
					<dim>1</dim>
					<dim>64</dim>
					<dim>24</dim>
				</port>
				<port id="1" precision="FP32">
					<dim>1</dim>
					<dim>64</dim>
					<dim>1</dim>
				</port>
			</input>
			<output>
				<port id="2" names="691" precision="FP32">
					<dim>1</dim>
					<dim>64</dim>
					<dim>24</dim>
				</port>
			</output>
		</layer>
		<layer id="363" name="Add_340" type="Add" version="opset1">
			<data auto_broadcast="numpy"/>
			<input>
				<port id="0" precision="FP32">
					<dim>1</dim>
					<dim>64</dim>
					<dim>24</dim>
				</port>
				<port id="1" precision="FP32">
					<dim>1</dim>
					<dim>64</dim>
					<dim>24</dim>
				</port>
			</input>
			<output>
				<port id="2" names="692" precision="FP32">
					<dim>1</dim>
					<dim>64</dim>
					<dim>24</dim>
				</port>
			</output>
		</layer>
		<layer id="364" name="Slice_351/Concat1365443421" type="Const" version="opset1">
			<data element_type="i64" offset="152" shape="3" size="24"/>
			<output>
				<port id="0" precision="I64">
					<dim>3</dim>
				</port>
			</output>
		</layer>
		<layer id="365" name="Slice_351/Concat136401365544669" type="Const" version="opset1">
			<data element_type="i64" offset="32" shape="3" size="24"/>
			<output>
				<port id="0" precision="I64">
					<dim>3</dim>
				</port>
			</output>
		</layer>
		<layer id="366" name="Slice_351/Strides1365643631" type="Const" version="opset1">
			<data element_type="i64" offset="56" shape="3" size="24"/>
			<output>
				<port id="0" precision="I64">
					<dim>3</dim>
				</port>
			</output>
		</layer>
		<layer id="367" name="Slice_351" type="StridedSlice" version="opset1">
			<data begin_mask="1, 1, 0" ellipsis_mask="0, 0, 0" end_mask="1, 1, 0" new_axis_mask="0, 0, 0" shrink_axis_mask="0, 0, 0"/>
			<input>
				<port id="0" precision="FP32">
					<dim>1</dim>
					<dim>64</dim>
					<dim>2048</dim>
				</port>
				<port id="1" precision="I64">
					<dim>3</dim>
				</port>
				<port id="2" precision="I64">
					<dim>3</dim>
				</port>
				<port id="3" precision="I64">
					<dim>3</dim>
				</port>
			</input>
			<output>
				<port id="4" names="703" precision="FP32">
					<dim>1</dim>
					<dim>64</dim>
					<dim>32</dim>
				</port>
			</output>
		</layer>
		<layer id="368" name="Concat_352" type="Concat" version="opset1">
			<data axis="2"/>
			<input>
				<port id="0" precision="FP32">
					<dim>1</dim>
					<dim>64</dim>
					<dim>32</dim>
				</port>
				<port id="1" precision="FP32">
					<dim>1</dim>
					<dim>64</dim>
					<dim>24</dim>
…
		<edge from-layer="386" from-port="0" to-layer="387" to-port="1"/>
		<edge from-layer="387" from-port="2" to-layer="388" to-port="0"/>
		<edge from-layer="388" from-port="1" to-layer="390" to-port="0"/>
		<edge from-layer="389" from-port="0" to-layer="390" to-port="1"/>
		<edge from-layer="390" from-port="2" to-layer="392" to-port="0"/>
		<edge from-layer="391" from-port="0" to-layer="392" to-port="1"/>
		<edge from-layer="392" from-port="2" to-layer="393" to-port="1"/>
		<edge from-layer="393" from-port="2" to-layer="398" to-port="1"/>
		<edge from-layer="393" from-port="2" to-layer="408" to-port="0"/>
		<edge from-layer="393" from-port="2" to-layer="928" to-port="1"/>
		<edge from-layer="394" from-port="0" to-layer="397" to-port="1"/>
		<edge from-layer="395" from-port="0" to-layer="397" to-port="2"/>
		<edge from-layer="396" from-port="0" to-layer="397" to-port="3"/>
		<edge from-layer="397" from-port="4" to-layer="398" to-port="0"/>
		<edge from-layer="398" from-port="2" to-layer="400" to-port="0"/>
		<edge from-layer="399" from-port="0" to-layer="400" to-port="1"/>
		<edge from-layer="400" from-port="2" to-layer="402" to-port="0"/>
		<edge from-layer="401" from-port="0" to-layer="402" to-port="1"/>
		<edge from-layer="402" from-port="2" to-layer="403" to-port="0"/>
		<edge from-layer="403" from-port="1" to-layer="405" to-port="0"/>
		<edge from-layer="404" from-port="0" to-layer="405" to-port="1"/>
		<edge from-layer="405" from-port="2" to-layer="407" to-port="0"/>
		<edge from-layer="406" from-port="0" to-layer="407" to-port="1"/>
		<edge from-layer="407" from-port="2" to-layer="408" to-port="1"/>
		<edge from-layer="408" from-port="2" to-layer="413" to-port="1"/>
		<edge from-layer="408" from-port="2" to-layer="423" to-port="0"/>
		<edge from-layer="408" from-port="2" to-layer="933" to-port="1"/>
		<edge from-layer="409" from-port="0" to-layer="412" to-port="1"/>
		<edge from-layer="410" from-port="0" to-layer="412" to-port="2"/>
		<edge from-layer="411" from-port="0" to-layer="412" to-port="3"/>
		<edge from-layer="412" from-port="4" to-layer="413" to-port="0"/>
		<edge from-layer="413" from-port="2" to-layer="415" to-port="0"/>
		<edge from-layer="414" from-port="0" to-layer="415" to-port="1"/>
		<edge from-layer="415" from-port="2" to-layer="417" to-port="0"/>
		<edge from-layer="416" from-port="0" to-layer="417" to-port="1"/>
		<edge from-layer="417" from-port="2" to-layer="418" to-port="0"/>
		<edge from-layer="418" from-port="1" to-layer="420" to-port="0"/>
		<edge from-layer="419" from-port="0" to-layer="420" to-port="1"/>
		<edge from-layer="420" from-port="2" to-layer="422" to-port="0"/>
		<edge from-layer="421" from-port="0" to-layer="422" to-port="1"/>
		<edge from-layer="422" from-port="2" to-layer="423" to-port="1"/>
		<edge from-layer="423" from-port="2" to-layer="428" to-port="1"/>
		<edge from-layer="423" from-port="2" to-layer="938" to-port="1"/>
		<edge from-layer="423" from-port="2" to-layer="438" to-port="0"/>
		<edge from-layer="424" from-port="0" to-layer="427" to-port="1"/>
		<edge from-layer="425" from-port="0" to-layer="427" to-port="2"/>
		<edge from-layer="426" from-port="0" to-layer="427" to-port="3"/>
		<edge from-layer="427" from-port="4" to-layer="428" to-port="0"/>
		<edge from-layer="428" from-port="2" to-layer="430" to-port="0"/>
		<edge from-layer="429" from-port="0" to-layer="430" to-port="1"/>
		<edge from-layer="430" from-port="2" to-layer="432" to-port="0"/>
		<edge from-layer="431" from-port="0" to-layer="432" to-port="1"/>
		<edge from-layer="432" from-port="2" to-layer="433" to-port="0"/>
		<edge from-layer="433" from-port="1" to-layer="435" to-port="0"/>
		<edge from-layer="434" from-port="0" to-layer="435" to-port="1"/>
		<edge from-layer="435" from-port="2" to-layer="437" to-port="0"/>
		<edge from-layer="436" from-port="0" to-layer="437" to-port="1"/>
		<edge from-layer="437" from-port="2" to-layer="438" to-port="1"/>
		<edge from-layer="438" from-port="2" to-layer="443" to-port="1"/>
		<edge from-layer="438" from-port="2" to-layer="453" to-port="0"/>
		<edge from-layer="438" from-port="2" to-layer="943" to-port="1"/>
		<edge from-layer="439" from-port="0" to-layer="442" to-port="1"/>
		<edge from-layer="440" from-port="0" to-layer="442" to-port="2"/>
		<edge from-layer="441" from-port="0" to-layer="442" to-port="3"/>
		<edge from-layer="442" from-port="4" to-layer="443" to-port="0"/>
		<edge from-layer="443" from-port="2" to-layer="445" to-port="0"/>
		<edge from-layer="444" from-port="0" to-layer="445" to-port="1"/>
		<edge from-layer="445" from-port="2" to-layer="447" to-port="0"/>
		<edge from-layer="446" from-port="0" to-layer="447" to-port="1"/>
		<edge from-layer="447" from-port="2" to-layer="448" to-port="0"/>
		<edge from-layer="448" from-port="1" to-layer="450" to-port="0"/>
		<edge from-layer="449" from-port="0" to-layer="450" to-port="1"/>
		<edge from-layer="450" from-port="2" to-layer="452" to-port="0"/>
		<edge from-layer="451" from-port="0" to-layer="452" to-port="1"/>
		<edge from-layer="452" from-port="2" to-layer="453" to-port="1"/>
		<edge from-layer="453" from-port="2" to-layer="455" to-port="0"/>
		<edge from-layer="453" from-port="2" to-layer="948" to-port="1"/>
		<edge from-layer="454" from-port="0" to-layer="455" to-port="1"/>
		<edge from-layer="455" from-port="2" to-layer="457" to-port="0"/>
		<edge from-layer="456" from-port="0" to-layer="457" to-port="1"/>
		<edge from-layer="457" from-port="2" to-layer="458" to-port="0"/>
		<edge from-layer="457" from-port="2" to-layer="1020" to-port="0"/>
		<edge from-layer="458" from-port="1" to-layer="460" to-port="0"/>
		<edge from-layer="458" from-port="1" to-layer="463" to-port="0"/>
		<edge from-layer="459" from-port="0" to-layer="460" to-port="1"/>
		<edge from-layer="460" from-port="2" to-layer="462" to-port="0"/>
		<edge from-layer="461" from-port="0" to-layer="462" to-port="1"/>
		<edge from-layer="462" from-port="2" to-layer="463" to-port="1"/>
		<edge from-layer="463" from-port="2" to-layer="465" to-port="0"/>
		<edge from-layer="464" from-port="0" to-layer="465" to-port="1"/>
		<edge from-layer="465" from-port="2" to-layer="467" to-port="0"/>
		<edge from-layer="466" from-port="0" to-layer="467" to-port="1"/>
		<edge from-layer="467" from-port="2" to-layer="474" to-port="1"/>
		<edge from-layer="467" from-port="2" to-layer="841" to-port="1"/>
		<edge from-layer="467" from-port="2" to-layer="484" to-port="0"/>
		<edge from-layer="468" from-port="0" to-layer="469" to-port="1"/>
		<edge from-layer="469" from-port="8" to-layer="871" to-port="0"/>
		<edge from-layer="469" from-port="9" to-layer="876" to-port="0"/>
		<edge from-layer="469" from-port="4" to-layer="503" to-port="0"/>
		<edge from-layer="469" from-port="10" to-layer="881" to-port="0"/>
		<edge from-layer="469" from-port="11" to-layer="886" to-port="0"/>
		<edge from-layer="469" from-port="12" to-layer="891" to-port="0"/>
		<edge from-layer="469" from-port="2" to-layer="473" to-port="0"/>
		<edge from-layer="469" from-port="5" to-layer="518" to-port="0"/>
		<edge from-layer="469" from-port="8" to-layer="563" to-port="0"/>
		<edge from-layer="469" from-port="6" to-layer="533" to-port="0"/>
		<edge from-layer="469" from-port="7" to-layer="548" to-port="0"/>
		<edge from-layer="469" from-port="9" to-layer="578" to-port="0"/>
		<edge from-layer="469" from-port="10" to-layer="593" to-port="0"/>
		<edge from-layer="469" from-port="11" to-layer="608" to-port="0"/>
		<edge from-layer="469" from-port="3" to-layer="488" to-port="0"/>
		<edge from-layer="469" from-port="2" to-layer="841" to-port="0"/>
		<edge from-layer="469" from-port="3" to-layer="846" to-port="0"/>
		<edge from-layer="469" from-port="4" to-layer="851" to-port="0"/>
		<edge from-layer="469" from-port="5" to-layer="856" to-port="0"/>
		<edge from-layer="469" from-port="6" to-layer="861" to-port="0"/>
		<edge from-layer="469" from-port="7" to-layer="866" to-port="0"/>
		<edge from-layer="470" from-port="0" to-layer="473" to-port="1"/>
		<edge from-layer="471" from-port="0" to-layer="473" to-port="2"/>
		<edge from-layer="472" from-port="0" to-layer="473" to-port="3"/>
		<edge from-layer="473" from-port="4" to-layer="474" to-port="0"/>
		<edge from-layer="474" from-port="2" to-layer="476" to-port="0"/>
		<edge from-layer="475" from-port="0" to-layer="476" to-port="1"/>
		<edge from-layer="476" from-port="2" to-layer="478" to-port="0"/>
		<edge from-layer="477" from-port="0" to-layer="478" to-port="1"/>
		<edge from-layer="478" from-port="2" to-layer="479" to-port="0"/>
		<edge from-layer="479" from-port="1" to-layer="481" to-port="0"/>
		<edge from-layer="480" from-port="0" to-layer="481" to-port="1"/>
		<edge from-layer="481" from-port="2" to-layer="483" to-port="0"/>
		<edge from-layer="482" from-port="0" to-layer="483" to-port="1"/>
		<edge from-layer="483" from-port="2" to-layer="484" to-port="1"/>
		<edge from-layer="484" from-port="2" to-layer="499" to-port="0"/>
		<edge from-layer="484" from-port="2" to-layer="846" to-port="1"/>
		<edge from-layer="484" from-port="2" to-layer="489" to-port="1"/>
		<edge from-layer="485" from-port="0" to-layer="488" to-port="1"/>
		<edge from-layer="486" from-port="0" to-layer="488" to-port="2"/>
		<edge from-layer="487" from-port="0" to-layer="488" to-port="3"/>
		<edge from-layer="488" from-port="4" to-layer="489" to-port="0"/>
		<edge from-layer="489" from-port="2" to-layer="491" to-port="0"/>
		<edge from-layer="490" from-port="0" to-layer="491" to-port="1"/>
		<edge from-layer="491" from-port="2" to-layer="493" to-port="0"/>
		<edge from-layer="492" from-port="0" to-layer="493" to-port="1"/>
		<edge from-layer="493" from-port="2" to-layer="494" to-port="0"/>
		<edge from-layer="494" from-port="1" to-layer="496" to-port="0"/>
		<edge from-layer="495" from-port="0" to-layer="496" to-port="1"/>
		<edge from-layer="496" from-port="2" to-layer="498" to-port="0"/>
		<edge from-layer="497" from-port="0" to-layer="498" to-port="1"/>
		<edge from-layer="498" from-port="2" to-layer="499" to-port="1"/>
		<edge from-layer="499" from-port="2" to-layer="851" to-port="1"/>
		<edge from-layer="499" from-port="2" to-layer="514" to-port="0"/>
		<edge from-layer="499" from-port="2" to-layer="504" to-port="1"/>
		<edge from-layer="500" from-port="0" to-layer="503" to-port="1"/>
		<edge from-layer="501" from-port="0" to-layer="503" to-port="2"/>
		<edge from-layer="502" from-port="0" to-layer="503" to-port="3"/>
		<edge from-layer="503" from-port="4" to-layer="504" to-port="0"/>
		<edge from-layer="504" from-port="2" to-layer="506" to-port="0"/>
		<edge from-layer="505" from-port="0" to-layer="506" to-port="1"/>
		<edge from-layer="506" from-port="2" to-layer="508" to-port="0"/>
		<edge from-layer="507" from-port="0" to-layer="508" to-port="1"/>
		<edge from-layer="508" from-port="2" to-layer="509" to-port="0"/>
		<edge from-layer="509" from-port="1" to-layer="511" to-port="0"/>
		<edge from-layer="510" from-port="0" to-layer="511" to-port="1"/>
		<edge from-layer="511" from-port="2" to-layer="513" to-port="0"/>
		<edge from-layer="512" from-port="0" to-layer="513" to-port="1"/>
		<edge from-layer="513" from-port="2" to-layer="514" to-port="1"/>
		<edge from-layer="514" from-port="2" to-layer="856" to-port="1"/>
		<edge from-layer="514" from-port="2" to-layer="519" to-port="1"/>
		<edge from-layer="514" from-port="2" to-layer="529" to-port="0"/>
		<edge from-layer="515" from-port="0" to-layer="518" to-port="1"/>
		<edge from-layer="516" from-port="0" to-layer="518" to-port="2"/>
		<edge from-layer="517" from-port="0" to-layer="518" to-port="3"/>
		<edge from-layer="518" from-port="4" to-layer="519" to-port="0"/>
		<edge from-layer="519" from-port="2" to-layer="521" to-port="0"/>
		<edge from-layer="520" from-port="0" to-layer="521" to-port="1"/>
		<edge from-layer="521" from-port="2" to-layer="523" to-port="0"/>
		<edge from-layer="522" from-port="0" to-layer="523" to-port="1"/>
		<edge from-layer="523" from-port="2" to-layer="524" to-port="0"/>
		<edge from-layer="524" from-port="1" to-layer="526" to-port="0"/>
		<edge from-layer="525" from-port="0" to-layer="526" to-port="1"/>
		<edge from-layer="526" from-port="2" to-layer="528" to-port="0"/>
		<edge from-layer="527" from-port="0" to-layer="528" to-port="1"/>
		<edge from-layer="528" from-port="2" to-layer="529" to-port="1"/>
		<edge from-layer="529" from-port="2" to-layer="534" to-port="1"/>
		<edge from-layer="529" from-port="2" to-layer="861" to-port="1"/>
		<edge from-layer="529" from-port="2" to-layer="544" to-port="0"/>
		<edge from-layer="530" from-port="0" to-layer="533" to-port="1"/>
		<edge from-layer="531" from-port="0" to-layer="533" to-port="2"/>
		<edge from-layer="532" from-port="0" to-layer="533" to-port="3"/>
		<edge from-layer="533" from-port="4" to-layer="534" to-port="0"/>
		<edge from-layer="534" from-port="2" to-layer="536" to-port="0"/>
		<edge from-layer="535" from-port="0" to-layer="536" to-port="1"/>
		<edge from-layer="536" from-port="2" to-layer="538" to-port="0"/>
		<edge from-layer="537" from-port="0" to-layer="538" to-port="1"/>
		<edge from-layer="538" from-port="2" to-layer="539" to-port="0"/>
		<edge from-layer="539" from-port="1" to-layer="541" to-port="0"/>
		<edge from-layer="540" from-port="0" to-layer="541" to-port="1"/>
		<edge from-layer="541" from-port="2" to-layer="543" to-port="0"/>
		<edge from-layer="542" from-port="0" to-layer="543" to-port="1"/>
		<edge from-layer="543" from-port="2" to-layer="544" to-port="1"/>
		<edge from-layer="544" from-port="2" to-layer="549" to-port="1"/>
		<edge from-layer="544" from-port="2" to-layer="559" to-port="0"/>
		<edge from-layer="544" from-port="2" to-layer="866" to-port="1"/>
		<edge from-layer="545" from-port="0" to-layer="548" to-port="1"/>
		<edge from-layer="546" from-port="0" to-layer="548" to-port="2"/>
		<edge from-layer="547" from-port="0" to-layer="548" to-port="3"/>
		<edge from-layer="548" from-port="4" to-layer="549" to-port="0"/>
		<edge from-layer="549" from-port="2" to-layer="551" to-port="0"/>
		<edge from-layer="550" from-port="0" to-layer="551" to-port="1"/>
		<edge from-layer="551" from-port="2" to-layer="553" to-port="0"/>
		<edge from-layer="552" from-port="0" to-layer="553" to-port="1"/>
		<edge from-layer="553" from-port="2" to-layer="554" to-port="0"/>
		<edge from-layer="554" from-port="1" to-layer="556" to-port="0"/>
		<edge from-layer="555" from-port="0" to-layer="556" to-port="1"/>
		<edge from-layer="556" from-port="2" to-layer="558" to-port="0"/>
		<edge from-layer="557" from-port="0" to-layer="558" to-port="1"/>
		<edge from-layer="558" from-port="2" to-layer="559" to-port="1"/>
		<edge from-layer="559" from-port="2" to-layer="871" to-port="1"/>
		<edge from-layer="559" from-port="2" to-layer="574" to-port="0"/>
		<edge from-layer="559" from-port="2" to-layer="564" to-port="1"/>
		<edge from-layer="560" from-port="0" to-layer="563" to-port="1"/>
		<edge from-layer="561" from-port="0" to-layer="563" to-port="2"/>
		<edge from-layer="562" from-port="0" to-layer="563" to-port="3"/>
		<edge from-layer="563" from-port="4" to-layer="564" to-port="0"/>
		<edge from-layer="564" from-port="2" to-layer="566" to-port="0"/>
		<edge from-layer="565" from-port="0" to-layer="566" to-port="1"/>
		<edge from-layer="566" from-port="2" to-layer="568" to-port="0"/>
		<edge from-layer="567" from-port="0" to-layer="568" to-port="1"/>
		<edge from-layer="568" from-port="2" to-layer="569" to-port="0"/>
		<edge from-layer="569" from-port="1" to-layer="571" to-port="0"/>
		<edge from-layer="570" from-port="0" to-layer="571" to-port="1"/>
		<edge from-layer="571" from-port="2" to-layer="573" to-port="0"/>
		<edge from-layer="572" from-port="0" to-layer="573" to-port="1"/>
		<edge from-layer="573" from-port="2" to-layer="574" to-port="1"/>
		<edge from-layer="574" from-port="2" to-layer="876" to-port="1"/>
		<edge from-layer="574" from-port="2" to-layer="579" to-port="1"/>
		<edge from-layer="574" from-port="2" to-layer="589" to-port="0"/>
		<edge from-layer="575" from-port="0" to-layer="578" to-port="1"/>
		<edge from-layer="576" from-port="0" to-layer="578" to-port="2"/>
		<edge from-layer="577" from-port="0" to-layer="578" to-port="3"/>
		<edge from-layer="578" from-port="4" to-layer="579" to-port="0"/>
		<edge from-layer="579" from-port="2" to-layer="581" to-port="0"/>
		<edge from-layer="580" from-port="0" to-layer="581" to-port="1"/>
		<edge from-layer="581" from-port="2" to-layer="583" to-port="0"/>
		<edge from-layer="582" from-port="0" to-layer="583" to-port="1"/>
		<edge from-layer="583" from-port="2" to-layer="584" to-port="0"/>
		<edge from-layer="584" from-port="1" to-layer="586" to-port="0"/>
		<edge from-layer="585" from-port="0" to-layer="586" to-port="1"/>
		<edge from-layer="586" from-port="2" to-layer="588" to-port="0"/>
		<edge from-layer="587" from-port="0" to-layer="588" to-port="1"/>
		<edge from-layer="588" from-port="2" to-layer="589" to-port="1"/>
		<edge from-layer="589" from-port="2" to-layer="594" to-port="1"/>
		<edge from-layer="589" from-port="2" to-layer="881" to-port="1"/>
		<edge from-layer="589" from-port="2" to-layer="604" to-port="0"/>
		<edge from-layer="590" from-port="0" to-layer="593" to-port="1"/>
		<edge from-layer="591" from-port="0" to-layer="593" to-port="2"/>
		<edge from-layer="592" from-port="0" to-layer="593" to-port="3"/>
		<edge from-layer="593" from-port="4" to-layer="594" to-port="0"/>
		<edge from-layer="594" from-port="2" to-layer="596" to-port="0"/>
		<edge from-layer="595" from-port="0" to-layer="596" to-port="1"/>
		<edge from-layer="596" from-port="2" to-layer="598" to-port="0"/>
		<edge from-layer="597" from-port="0" to-layer="598" to-port="1"/>
		<edge from-layer="598" from-port="2" to-layer="599" to-port="0"/>
		<edge from-layer="599" from-port="1" to-layer="601" to-port="0"/>
		<edge from-layer="600" from-port="0" to-layer="601" to-port="1"/>
		<edge from-layer="601" from-port="2" to-layer="603" to-port="0"/>
		<edge from-layer="602" from-port="0" to-layer="603" to-port="1"/>
		<edge from-layer="603" from-port="2" to-layer="604" to-port="1"/>
		<edge from-layer="604" from-port="2" to-layer="609" to-port="1"/>
		<edge from-layer="604" from-port="2" to-layer="886" to-port="1"/>
		<edge from-layer="604" from-port="2" to-layer="619" to-port="0"/>
		<edge from-layer="605" from-port="0" to-layer="608" to-port="1"/>
		<edge from-layer="606" from-port="0" to-layer="608" to-port="2"/>
		<edge from-layer="607" from-port="0" to-layer="608" to-port="3"/>
		<edge from-layer="608" from-port="4" to-layer="609" to-port="0"/>
		<edge from-layer="609" from-port="2" to-layer="611" to-port="0"/>
		<edge from-layer="610" from-port="0" to-layer="611" to-port="1"/>
		<edge from-layer="611" from-port="2" to-layer="613" to-port="0"/>
		<edge from-layer="612" from-port="0" to-layer="613" to-port="1"/>
		<edge from-layer="613" from-port="2" to-layer="614" to-port="0"/>
		<edge from-layer="614" from-port="1" to-layer="616" to-port="0"/>
		<edge from-layer="615" from-port="0" to-layer="616" to-port="1"/>
		<edge from-layer="616" from-port="2" to-layer="618" to-port="0"/>
		<edge from-layer="617" from-port="0" to-layer="618" to-port="1"/>
		<edge from-layer="618" from-port="2" to-layer="619" to-port="1"/>
		<edge from-layer="619" from-port="2" to-layer="621" to-port="0"/>
		<edge from-layer="619" from-port="2" to-layer="891" to-port="1"/>
		<edge from-layer="620" from-port="0" to-layer="621" to-port="1"/>
		<edge from-layer="621" from-port="2" to-layer="623" to-port="0"/>
		<edge from-layer="622" from-port="0" to-layer="623" to-port="1"/>
		<edge from-layer="623" from-port="2" to-layer="1023" to-port="0"/>
		<edge from-layer="623" from-port="2" to-layer="624" to-port="0"/>
		<edge from-layer="624" from-port="1" to-layer="629" to-port="0"/>
		<edge from-layer="624" from-port="1" to-layer="626" to-port="0"/>
		<edge from-layer="625" from-port="0" to-layer="626" to-port="1"/>
		<edge from-layer="626" from-port="2" to-layer="628" to-port="0"/>
		<edge from-layer="627" from-port="0" to-layer="628" to-port="1"/>
		<edge from-layer="628" from-port="2" to-layer="629" to-port="1"/>
		<edge from-layer="629" from-port="2" to-layer="631" to-port="0"/>
		<edge from-layer="630" from-port="0" to-layer="631" to-port="1"/>
		<edge from-layer="631" from-port="2" to-layer="633" to-port="0"/>
		<edge from-layer="632" from-port="0" to-layer="633" to-port="1"/>
		<edge from-layer="633" from-port="2" to-layer="643" to-port="1"/>
		<edge from-layer="633" from-port="2" to-layer="653" to-port="0"/>
		<edge from-layer="633" from-port="2" to-layer="634" to-port="1"/>
		<edge from-layer="634" from-port="2" to-layer="638" to-port="0"/>
		<edge from-layer="635" from-port="0" to-layer="638" to-port="1"/>
		<edge from-layer="636" from-port="0" to-layer="638" to-port="2"/>
		<edge from-layer="637" from-port="0" to-layer="638" to-port="3"/>
		<edge from-layer="638" from-port="4" to-layer="839" to-port="0"/>
		<edge from-layer="639" from-port="0" to-layer="642" to-port="1"/>
		<edge from-layer="640" from-port="0" to-layer="642" to-port="2"/>
		<edge from-layer="641" from-port="0" to-layer="642" to-port="3"/>
		<edge from-layer="642" from-port="4" to-layer="643" to-port="0"/>
		<edge from-layer="643" from-port="2" to-layer="645" to-port="0"/>
		<edge from-layer="644" from-port="0" to-layer="645" to-port="1"/>
		<edge from-layer="645" from-port="2" to-layer="647" to-port="0"/>
		<edge from-layer="646" from-port="0" to-layer="647" to-port="1"/>
		<edge from-layer="647" from-port="2" to-layer="648" to-port="0"/>
		<edge from-layer="648" from-port="1" to-layer="650" to-port="0"/>
		<edge from-layer="649" from-port="0" to-layer="650" to-port="1"/>
		<edge from-layer="650" from-port="2" to-layer="652" to-port="0"/>
		<edge from-layer="651" from-port="0" to-layer="652" to-port="1"/>
		<edge from-layer="652" from-port="2" to-layer="653" to-port="1"/>
		<edge from-layer="653" from-port="2" to-layer="654" to-port="1"/>
		<edge from-layer="653" from-port="2" to-layer="663" to-port="1"/>
		<edge from-layer="653" from-port="2" to-layer="673" to-port="0"/>
		<edge from-layer="654" from-port="2" to-layer="658" to-port="0"/>
		<edge from-layer="655" from-port="0" to-layer="658" to-port="1"/>
		<edge from-layer="656" from-port="0" to-layer="658" to-port="2"/>
		<edge from-layer="657" from-port="0" to-layer="658" to-port="3"/>
		<edge from-layer="658" from-port="4" to-layer="839" to-port="1"/>
		<edge from-layer="659" from-port="0" to-layer="662" to-port="1"/>
		<edge from-layer="660" from-port="0" to-layer="662" to-port="2"/>
		<edge from-layer="661" from-port="0" to-layer="662" to-port="3"/>
		<edge from-layer="662" from-port="4" to-layer="663" to-port="0"/>
		<edge from-layer="663" from-port="2" to-layer="665" to-port="0"/>
		<edge from-layer="664" from-port="0" to-layer="665" to-port="1"/>
		<edge from-layer="665" from-port="2" to-layer="667" to-port="0"/>
		<edge from-layer="666" from-port="0" to-layer="667" to-port="1"/>
		<edge from-layer="667" from-port="2" to-layer="668" to-port="0"/>
		<edge from-layer="668" from-port="1" to-layer="670" to-port="0"/>
		<edge from-layer="669" from-port="0" to-layer="670" to-port="1"/>
		<edge from-layer="670" from-port="2" to-layer="672" to-port="0"/>
		<edge from-layer="671" from-port="0" to-layer="672" to-port="1"/>
		<edge from-layer="672" from-port="2" to-layer="673" to-port="1"/>
		<edge from-layer="673" from-port="2" to-layer="683" to-port="1"/>
		<edge from-layer="673" from-port="2" to-layer="674" to-port="1"/>
		<edge from-layer="673" from-port="2" to-layer="693" to-port="0"/>
		<edge from-layer="674" from-port="2" to-layer="678" to-port="0"/>
		<edge from-layer="675" from-port="0" to-layer="678" to-port="1"/>
		<edge from-layer="676" from-port="0" to-layer="678" to-port="2"/>
		<edge from-layer="677" from-port="0" to-layer="678" to-port="3"/>
		<edge from-layer="678" from-port="4" to-layer="839" to-port="2"/>
		<edge from-layer="679" from-port="0" to-layer="682" to-port="1"/>
		<edge from-layer="680" from-port="0" to-layer="682" to-port="2"/>
		<edge from-layer="681" from-port="0" to-layer="682" to-port="3"/>
		<edge from-layer="682" from-port="4" to-layer="683" to-port="0"/>
		<edge from-layer="683" from-port="2" to-layer="685" to-port="0"/>
		<edge from-layer="684" from-port="0" to-layer="685" to-port="1"/>
		<edge from-layer="685" from-port="2" to-layer="687" to-port="0"/>
		<edge from-layer="686" from-port="0" to-layer="687" to-port="1"/>
		<edge from-layer="687" from-port="2" to-layer="688" to-port="0"/>
		<edge from-layer="688" from-port="1" to-layer="690" to-port="0"/>
		<edge from-layer="689" from-port="0" to-layer="690" to-port="1"/>
		<edge from-layer="690" from-port="2" to-layer="692" to-port="0"/>
		<edge from-layer="691" from-port="0" to-layer="692" to-port="1"/>
		<edge from-layer="692" from-port="2" to-layer="693" to-port="1"/>
		<edge from-layer="693" from-port="2" to-layer="703" to-port="1"/>
		<edge from-layer="693" from-port="2" to-layer="694" to-port="1"/>
		<edge from-layer="693" from-port="2" to-layer="713" to-port="0"/>
		<edge from-layer="694" from-port="2" to-layer="698" to-port="0"/>
		<edge from-layer="695" from-port="0" to-layer="698" to-port="1"/>
		<edge from-layer="696" from-port="0" to-layer="698" to-port="2"/>
		<edge from-layer="697" from-port="0" to-layer="698" to-port="3"/>
		<edge from-layer="698" from-port="4" to-layer="839" to-port="3"/>
		<edge from-layer="699" from-port="0" to-layer="702" to-port="1"/>
		<edge from-layer="700" from-port="0" to-layer="702" to-port="2"/>
		<edge from-layer="701" from-port="0" to-layer="702" to-port="3"/>
		<edge from-layer="702" from-port="4" to-layer="703" to-port="0"/>
		<edge from-layer="703" from-port="2" to-layer="705" to-port="0"/>
		<edge from-layer="704" from-port="0" to-layer="705" to-port="1"/>
		<edge from-layer="705" from-port="2" to-layer="707" to-port="0"/>
		<edge from-layer="706" from-port="0" to-layer="707" to-port="1"/>
		<edge from-layer="707" from-port="2" to-layer="708" to-port="0"/>
		<edge from-layer="708" from-port="1" to-layer="710" to-port="0"/>
		<edge from-layer="709" from-port="0" to-layer="710" to-port="1"/>
		<edge from-layer="710" from-port="2" to-layer="712" to-port="0"/>
		<edge from-layer="711" from-port="0" to-layer="712" to-port="1"/>
		<edge from-layer="712" from-port="2" to-layer="713" to-port="1"/>
		<edge from-layer="713" from-port="2" to-layer="723" to-port="1"/>
		<edge from-layer="713" from-port="2" to-layer="733" to-port="0"/>
		<edge from-layer="713" from-port="2" to-layer="714" to-port="1"/>
		<edge from-layer="714" from-port="2" to-layer="718" to-port="0"/>
		<edge from-layer="715" from-port="0" to-layer="718" to-port="1"/>
		<edge from-layer="716" from-port="0" to-layer="718" to-port="2"/>
		<edge from-layer="717" from-port="0" to-layer="718" to-port="3"/>
		<edge from-layer="718" from-port="4" to-layer="839" to-port="4"/>
		<edge from-layer="719" from-port="0" to-layer="722" to-port="1"/>
		<edge from-layer="720" from-port="0" to-layer="722" to-port="2"/>
		<edge from-layer="721" from-port="0" to-layer="722" to-port="3"/>
		<edge from-layer="722" from-port="4" to-layer="723" to-port="0"/>
		<edge from-layer="723" from-port="2" to-layer="725" to-port="0"/>
		<edge from-layer="724" from-port="0" to-layer="725" to-port="1"/>
		<edge from-layer="725" from-port="2" to-layer="727" to-port="0"/>
		<edge from-layer="726" from-port="0" to-layer="727" to-port="1"/>
		<edge from-layer="727" from-port="2" to-layer="728" to-port="0"/>
		<edge from-layer="728" from-port="1" to-layer="730" to-port="0"/>
		<edge from-layer="729" from-port="0" to-layer="730" to-port="1"/>
		<edge from-layer="730" from-port="2" to-layer="732" to-port="0"/>
		<edge from-layer="731" from-port="0" to-layer="732" to-port="1"/>
		<edge from-layer="732" from-port="2" to-layer="733" to-port="1"/>
		<edge from-layer="733" from-port="2" to-layer="734" to-port="1"/>
		<edge from-layer="733" from-port="2" to-layer="753" to-port="0"/>
		<edge from-layer="733" from-port="2" to-layer="743" to-port="1"/>
		<edge from-layer="734" from-port="2" to-layer="738" to-port="0"/>
		<edge from-layer="735" from-port="0" to-layer="738" to-port="1"/>
		<edge from-layer="736" from-port="0" to-layer="738" to-port="2"/>
		<edge from-layer="737" from-port="0" to-layer="738" to-port="3"/>
		<edge from-layer="738" from-port="4" to-layer="839" to-port="5"/>
		<edge from-layer="739" from-port="0" to-layer="742" to-port="1"/>
		<edge from-layer="740" from-port="0" to-layer="742" to-port="2"/>
		<edge from-layer="741" from-port="0" to-layer="742" to-port="3"/>
		<edge from-layer="742" from-port="4" to-layer="743" to-port="0"/>
		<edge from-layer="743" from-port="2" to-layer="745" to-port="0"/>
		<edge from-layer="744" from-port="0" to-layer="745" to-port="1"/>
		<edge from-layer="745" from-port="2" to-layer="747" to-port="0"/>
		<edge from-layer="746" from-port="0" to-layer="747" to-port="1"/>
		<edge from-layer="747" from-port="2" to-layer="748" to-port="0"/>
		<edge from-layer="748" from-port="1" to-layer="750" to-port="0"/>
		<edge from-layer="749" from-port="0" to-layer="750" to-port="1"/>
		<edge from-layer="750" from-port="2" to-layer="752" to-port="0"/>
		<edge from-layer="751" from-port="0" to-layer="752" to-port="1"/>
		<edge from-layer="752" from-port="2" to-layer="753" to-port="1"/>
		<edge from-layer="753" from-port="2" to-layer="773" to-port="0"/>
		<edge from-layer="753" from-port="2" to-layer="754" to-port="1"/>
		<edge from-layer="753" from-port="2" to-layer="763" to-port="1"/>
		<edge from-layer="754" from-port="2" to-layer="758" to-port="0"/>
		<edge from-layer="755" from-port="0" to-layer="758" to-port="1"/>
		<edge from-layer="756" from-port="0" to-layer="758" to-port="2"/>
		<edge from-layer="757" from-port="0" to-layer="758" to-port="3"/>
		<edge from-layer="758" from-port="4" to-layer="839" to-port="6"/>
		<edge from-layer="759" from-port="0" to-layer="762" to-port="1"/>
		<edge from-layer="760" from-port="0" to-layer="762" to-port="2"/>
		<edge from-layer="761" from-port="0" to-layer="762" to-port="3"/>
		<edge from-layer="762" from-port="4" to-layer="763" to-port="0"/>
		<edge from-layer="763" from-port="2" to-layer="765" to-port="0"/>
		<edge from-layer="764" from-port="0" to-layer="765" to-port="1"/>
		<edge from-layer="765" from-port="2" to-layer="767" to-port="0"/>
		<edge from-layer="766" from-port="0" to-layer="767" to-port="1"/>
		<edge from-layer="767" from-port="2" to-layer="768" to-port="0"/>
		<edge from-layer="768" from-port="1" to-layer="770" to-port="0"/>
		<edge from-layer="769" from-port="0" to-layer="770" to-port="1"/>
		<edge from-layer="770" from-port="2" to-layer="772" to-port="0"/>
		<edge from-layer="771" from-port="0" to-layer="772" to-port="1"/>
		<edge from-layer="772" from-port="2" to-layer="773" to-port="1"/>
		<edge from-layer="773" from-port="2" to-layer="774" to-port="1"/>
		<edge from-layer="773" from-port="2" to-layer="793" to-port="0"/>
		<edge from-layer="773" from-port="2" to-layer="783" to-port="1"/>
		<edge from-layer="774" from-port="2" to-layer="778" to-port="0"/>
		<edge from-layer="775" from-port="0" to-layer="778" to-port="1"/>
		<edge from-layer="776" from-port="0" to-layer="778" to-port="2"/>
		<edge from-layer="777" from-port="0" to-layer="778" to-port="3"/>
		<edge from-layer="778" from-port="4" to-layer="839" to-port="7"/>
		<edge from-layer="779" from-port="0" to-layer="782" to-port="1"/>
		<edge from-layer="780" from-port="0" to-layer="782" to-port="2"/>
		<edge from-layer="781" from-port="0" to-layer="782" to-port="3"/>
		<edge from-layer="782" from-port="4" to-layer="783" to-port="0"/>
		<edge from-layer="783" from-port="2" to-layer="785" to-port="0"/>
		<edge from-layer="784" from-port="0" to-layer="785" to-port="1"/>
		<edge from-layer="785" from-port="2" to-layer="787" to-port="0"/>
		<edge from-layer="786" from-port="0" to-layer="787" to-port="1"/>
		<edge from-layer="787" from-port="2" to-layer="788" to-port="0"/>
		<edge from-layer="788" from-port="1" to-layer="790" to-port="0"/>
		<edge from-layer="789" from-port="0" to-layer="790" to-port="1"/>
		<edge from-layer="790" from-port="2" to-layer="792" to-port="0"/>
		<edge from-layer="791" from-port="0" to-layer="792" to-port="1"/>
		<edge from-layer="792" from-port="2" to-layer="793" to-port="1"/>
		<edge from-layer="793" from-port="2" to-layer="803" to-port="1"/>
		<edge from-layer="793" from-port="2" to-layer="813" to-port="0"/>
		<edge from-layer="793" from-port="2" to-layer="794" to-port="1"/>
		<edge from-layer="794" from-port="2" to-layer="798" to-port="0"/>
		<edge from-layer="795" from-port="0" to-layer="798" to-port="1"/>
		<edge from-layer="796" from-port="0" to-layer="798" to-port="2"/>
		<edge from-layer="797" from-port="0" to-layer="798" to-port="3"/>
		<edge from-layer="798" from-port="4" to-layer="839" to-port="8"/>
		<edge from-layer="799" from-port="0" to-layer="802" to-port="1"/>
		<edge from-layer="800" from-port="0" to-layer="802" to-port="2"/>
		<edge from-layer="801" from-port="0" to-layer="802" to-port="3"/>
		<edge from-layer="802" from-port="4" to-layer="803" to-port="0"/>
		<edge from-layer="803" from-port="2" to-layer="805" to-port="0"/>
		<edge from-layer="804" from-port="0" to-layer="805" to-port="1"/>
		<edge from-layer="805" from-port="2" to-layer="807" to-port="0"/>
		<edge from-layer="806" from-port="0" to-layer="807" to-port="1"/>
		<edge from-layer="807" from-port="2" to-layer="808" to-port="0"/>
		<edge from-layer="808" from-port="1" to-layer="810" to-port="0"/>
		<edge from-layer="809" from-port="0" to-layer="810" to-port="1"/>
		<edge from-layer="810" from-port="2" to-layer="812" to-port="0"/>
		<edge from-layer="811" from-port="0" to-layer="812" to-port="1"/>
		<edge from-layer="812" from-port="2" to-layer="813" to-port="1"/>
		<edge from-layer="813" from-port="2" to-layer="833" to-port="0"/>
		<edge from-layer="813" from-port="2" to-layer="823" to-port="1"/>
		<edge from-layer="813" from-port="2" to-layer="814" to-port="1"/>
		<edge from-layer="814" from-port="2" to-layer="818" to-port="0"/>
		<edge from-layer="815" from-port="0" to-layer="818" to-port="1"/>
		<edge from-layer="816" from-port="0" to-layer="818" to-port="2"/>
		<edge from-layer="817" from-port="0" to-layer="818" to-port="3"/>
		<edge from-layer="818" from-port="4" to-layer="839" to-port="9"/>
		<edge from-layer="819" from-port="0" to-layer="822" to-port="1"/>
		<edge from-layer="820" from-port="0" to-layer="822" to-port="2"/>
		<edge from-layer="821" from-port="0" to-layer="822" to-port="3"/>
		<edge from-layer="822" from-port="4" to-layer="823" to-port="0"/>
		<edge from-layer="823" from-port="2" to-layer="825" to-port="0"/>
		<edge from-layer="824" from-port="0" to-layer="825" to-port="1"/>
		<edge from-layer="825" from-port="2" to-layer="827" to-port="0"/>
		<edge from-layer="826" from-port="0" to-layer="827" to-port="1"/>
		<edge from-layer="827" from-port="2" to-layer="828" to-port="0"/>
		<edge from-layer="828" from-port="1" to-layer="830" to-port="0"/>
		<edge from-layer="829" from-port="0" to-layer="830" to-port="1"/>
		<edge from-layer="830" from-port="2" to-layer="832" to-port="0"/>
		<edge from-layer="831" from-port="0" to-layer="832" to-port="1"/>
		<edge from-layer="832" from-port="2" to-layer="833" to-port="1"/>
		<edge from-layer="833" from-port="2" to-layer="1026" to-port="0"/>
		<edge from-layer="833" from-port="2" to-layer="834" to-port="1"/>
		<edge from-layer="834" from-port="2" to-layer="838" to-port="0"/>
		<edge from-layer="835" from-port="0" to-layer="838" to-port="1"/>
		<edge from-layer="836" from-port="0" to-layer="838" to-port="2"/>
		<edge from-layer="837" from-port="0" to-layer="838" to-port="3"/>
		<edge from-layer="838" from-port="4" to-layer="839" to-port="10"/>
		<edge from-layer="839" from-port="11" to-layer="840" to-port="0"/>
		<edge from-layer="841" from-port="2" to-layer="845" to-port="0"/>
		<edge from-layer="842" from-port="0" to-layer="845" to-port="1"/>
		<edge from-layer="843" from-port="0" to-layer="845" to-port="2"/>
		<edge from-layer="844" from-port="0" to-layer="845" to-port="3"/>
		<edge from-layer="845" from-port="4" to-layer="896" to-port="0"/>
		<edge from-layer="846" from-port="2" to-layer="850" to-port="0"/>
		<edge from-layer="847" from-port="0" to-layer="850" to-port="1"/>
		<edge from-layer="848" from-port="0" to-layer="850" to-port="2"/>
		<edge from-layer="849" from-port="0" to-layer="850" to-port="3"/>
		<edge from-layer="850" from-port="4" to-layer="896" to-port="1"/>
		<edge from-layer="851" from-port="2" to-layer="855" to-port="0"/>
		<edge from-layer="852" from-port="0" to-layer="855" to-port="1"/>
		<edge from-layer="853" from-port="0" to-layer="855" to-port="2"/>
		<edge from-layer="854" from-port="0" to-layer="855" to-port="3"/>
		<edge from-layer="855" from-port="4" to-layer="896" to-port="2"/>
		<edge from-layer="856" from-port="2" to-layer="860" to-port="0"/>
		<edge from-layer="857" from-port="0" to-layer="860" to-port="1"/>
		<edge from-layer="858" from-port="0" to-layer="860" to-port="2"/>
		<edge from-layer="859" from-port="0" to-layer="860" to-port="3"/>
		<edge from-layer="860" from-port="4" to-layer="896" to-port="3"/>
		<edge from-layer="861" from-port="2" to-layer="865" to-port="0"/>
		<edge from-layer="862" from-port="0" to-layer="865" to-port="1"/>
		<edge from-layer="863" from-port="0" to-layer="865" to-port="2"/>
		<edge from-layer="864" from-port="0" to-layer="865" to-port="3"/>
		<edge from-layer="865" from-port="4" to-layer="896" to-port="4"/>
		<edge from-layer="866" from-port="2" to-layer="870" to-port="0"/>
		<edge from-layer="867" from-port="0" to-layer="870" to-port="1"/>
		<edge from-layer="868" from-port="0" to-layer="870" to-port="2"/>
		<edge from-layer="869" from-port="0" to-layer="870" to-port="3"/>
		<edge from-layer="870" from-port="4" to-layer="896" to-port="5"/>
		<edge from-layer="871" from-port="2" to-layer="875" to-port="0"/>
		<edge from-layer="872" from-port="0" to-layer="875" to-port="1"/>
		<edge from-layer="873" from-port="0" to-layer="875" to-port="2"/>
		<edge from-layer="874" from-port="0" to-layer="875" to-port="3"/>
		<edge from-layer="875" from-port="4" to-layer="896" to-port="6"/>
		<edge from-layer="876" from-port="2" to-layer="880" to-port="0"/>
		<edge from-layer="877" from-port="0" to-layer="880" to-port="1"/>
		<edge from-layer="878" from-port="0" to-layer="880" to-port="2"/>
		<edge from-layer="879" from-port="0" to-layer="880" to-port="3"/>
		<edge from-layer="880" from-port="4" to-layer="896" to-port="7"/>
		<edge from-layer="881" from-port="2" to-layer="885" to-port="0"/>
		<edge from-layer="882" from-port="0" to-layer="885" to-port="1"/>
		<edge from-layer="883" from-port="0" to-layer="885" to-port="2"/>
		<edge from-layer="884" from-port="0" to-layer="885" to-port="3"/>
		<edge from-layer="885" from-port="4" to-layer="896" to-port="8"/>
		<edge from-layer="886" from-port="2" to-layer="890" to-port="0"/>
		<edge from-layer="887" from-port="0" to-layer="890" to-port="1"/>
		<edge from-layer="888" from-port="0" to-layer="890" to-port="2"/>
		<edge from-layer="889" from-port="0" to-layer="890" to-port="3"/>
		<edge from-layer="890" from-port="4" to-layer="896" to-port="9"/>
		<edge from-layer="891" from-port="2" to-layer="895" to-port="0"/>
		<edge from-layer="892" from-port="0" to-layer="895" to-port="1"/>
		<edge from-layer="893" from-port="0" to-layer="895" to-port="2"/>
		<edge from-layer="894" from-port="0" to-layer="895" to-port="3"/>
		<edge from-layer="895" from-port="4" to-layer="896" to-port="10"/>
		<edge from-layer="896" from-port="11" to-layer="897" to-port="0"/>
		<edge from-layer="898" from-port="2" to-layer="902" to-port="0"/>
		<edge from-layer="899" from-port="0" to-layer="902" to-port="1"/>
		<edge from-layer="900" from-port="0" to-layer="902" to-port="2"/>
		<edge from-layer="901" from-port="0" to-layer="902" to-port="3"/>
		<edge from-layer="902" from-port="4" to-layer="953" to-port="0"/>
		<edge from-layer="903" from-port="2" to-layer="907" to-port="0"/>
		<edge from-layer="904" from-port="0" to-layer="907" to-port="1"/>
		<edge from-layer="905" from-port="0" to-layer="907" to-port="2"/>
		<edge from-layer="906" from-port="0" to-layer="907" to-port="3"/>
		<edge from-layer="907" from-port="4" to-layer="953" to-port="1"/>
		<edge from-layer="908" from-port="2" to-layer="912" to-port="0"/>
		<edge from-layer="909" from-port="0" to-layer="912" to-port="1"/>
		<edge from-layer="910" from-port="0" to-layer="912" to-port="2"/>
		<edge from-layer="911" from-port="0" to-layer="912" to-port="3"/>
		<edge from-layer="912" from-port="4" to-layer="953" to-port="2"/>
		<edge from-layer="913" from-port="2" to-layer="917" to-port="0"/>
		<edge from-layer="914" from-port="0" to-layer="917" to-port="1"/>
		<edge from-layer="915" from-port="0" to-layer="917" to-port="2"/>
		<edge from-layer="916" from-port="0" to-layer="917" to-port="3"/>
		<edge from-layer="917" from-port="4" to-layer="953" to-port="3"/>
		<edge from-layer="918" from-port="2" to-layer="922" to-port="0"/>
		<edge from-layer="919" from-port="0" to-layer="922" to-port="1"/>
		<edge from-layer="920" from-port="0" to-layer="922" to-port="2"/>
		<edge from-layer="921" from-port="0" to-layer="922" to-port="3"/>
		<edge from-layer="922" from-port="4" to-layer="953" to-port="4"/>
		<edge from-layer="923" from-port="2" to-layer="927" to-port="0"/>
		<edge from-layer="924" from-port="0" to-layer="927" to-port="1"/>
		<edge from-layer="925" from-port="0" to-layer="927" to-port="2"/>
		<edge from-layer="926" from-port="0" to-layer="927" to-port="3"/>
		<edge from-layer="927" from-port="4" to-layer="953" to-port="5"/>
		<edge from-layer="928" from-port="2" to-layer="932" to-port="0"/>
		<edge from-layer="929" from-port="0" to-layer="932" to-port="1"/>
		<edge from-layer="930" from-port="0" to-layer="932" to-port="2"/>
		<edge from-layer="931" from-port="0" to-layer="932" to-port="3"/>
		<edge from-layer="932" from-port="4" to-layer="953" to-port="6"/>
		<edge from-layer="933" from-port="2" to-layer="937" to-port="0"/>
		<edge from-layer="934" from-port="0" to-layer="937" to-port="1"/>
		<edge from-layer="935" from-port="0" to-layer="937" to-port="2"/>
		<edge from-layer="936" from-port="0" to-layer="937" to-port="3"/>
		<edge from-layer="937" from-port="4" to-layer="953" to-port="7"/>
		<edge from-layer="938" from-port="2" to-layer="942" to-port="0"/>
		<edge from-layer="939" from-port="0" to-layer="942" to-port="1"/>
		<edge from-layer="940" from-port="0" to-layer="942" to-port="2"/>
		<edge from-layer="941" from-port="0" to-layer="942" to-port="3"/>
		<edge from-layer="942" from-port="4" to-layer="953" to-port="8"/>
		<edge from-layer="943" from-port="2" to-layer="947" to-port="0"/>
		<edge from-layer="944" from-port="0" to-layer="947" to-port="1"/>
		<edge from-layer="945" from-port="0" to-layer="947" to-port="2"/>
		<edge from-layer="946" from-port="0" to-layer="947" to-port="3"/>
		<edge from-layer="947" from-port="4" to-layer="953" to-port="9"/>
		<edge from-layer="948" from-port="2" to-layer="952" to-port="0"/>
		<edge from-layer="949" from-port="0" to-layer="952" to-port="1"/>
		<edge from-layer="950" from-port="0" to-layer="952" to-port="2"/>
		<edge from-layer="951" from-port="0" to-layer="952" to-port="3"/>
		<edge from-layer="952" from-port="4" to-layer="953" to-port="10"/>
		<edge from-layer="953" from-port="11" to-layer="954" to-port="0"/>
		<edge from-layer="955" from-port="2" to-layer="959" to-port="0"/>
		<edge from-layer="956" from-port="0" to-layer="959" to-port="1"/>
		<edge from-layer="957" from-port="0" to-layer="959" to-port="2"/>
		<edge from-layer="958" from-port="0" to-layer="959" to-port="3"/>
		<edge from-layer="959" from-port="4" to-layer="1015" to-port="0"/>
		<edge from-layer="960" from-port="2" to-layer="964" to-port="0"/>
		<edge from-layer="961" from-port="0" to-layer="964" to-port="1"/>
		<edge from-layer="962" from-port="0" to-layer="964" to-port="2"/>
		<edge from-layer="963" from-port="0" to-layer="964" to-port="3"/>
		<edge from-layer="964" from-port="4" to-layer="1015" to-port="1"/>
		<edge from-layer="965" from-port="2" to-layer="969" to-port="0"/>
		<edge from-layer="966" from-port="0" to-layer="969" to-port="1"/>
		<edge from-layer="967" from-port="0" to-layer="969" to-port="2"/>
		<edge from-layer="968" from-port="0" to-layer="969" to-port="3"/>
		<edge from-layer="969" from-port="4" to-layer="1015" to-port="2"/>
		<edge from-layer="970" from-port="2" to-layer="974" to-port="0"/>
		<edge from-layer="971" from-port="0" to-layer="974" to-port="1"/>
		<edge from-layer="972" from-port="0" to-layer="974" to-port="2"/>
		<edge from-layer="973" from-port="0" to-layer="974" to-port="3"/>
		<edge from-layer="974" from-port="4" to-layer="1015" to-port="3"/>
		<edge from-layer="975" from-port="2" to-layer="979" to-port="0"/>
		<edge from-layer="976" from-port="0" to-layer="979" to-port="1"/>
		<edge from-layer="977" from-port="0" to-layer="979" to-port="2"/>
		<edge from-layer="978" from-port="0" to-layer="979" to-port="3"/>
		<edge from-layer="979" from-port="4" to-layer="1015" to-port="4"/>
		<edge from-layer="980" from-port="2" to-layer="984" to-port="0"/>
		<edge from-layer="981" from-port="0" to-layer="984" to-port="1"/>
		<edge from-layer="982" from-port="0" to-layer="984" to-port="2"/>
		<edge from-layer="983" from-port="0" to-layer="984" to-port="3"/>
		<edge from-layer="984" from-port="4" to-layer="1015" to-port="5"/>
		<edge from-layer="985" from-port="2" to-layer="989" to-port="0"/>
		<edge from-layer="986" from-port="0" to-layer="989" to-port="1"/>
		<edge from-layer="987" from-port="0" to-layer="989" to-port="2"/>
		<edge from-layer="988" from-port="0" to-layer="989" to-port="3"/>
		<edge from-layer="989" from-port="4" to-layer="1015" to-port="6"/>
		<edge from-layer="990" from-port="2" to-layer="994" to-port="0"/>
		<edge from-layer="991" from-port="0" to-layer="994" to-port="1"/>
		<edge from-layer="992" from-port="0" to-layer="994" to-port="2"/>
		<edge from-layer="993" from-port="0" to-layer="994" to-port="3"/>
		<edge from-layer="994" from-port="4" to-layer="1015" to-port="7"/>
		<edge from-layer="995" from-port="2" to-layer="999" to-port="0"/>
		<edge from-layer="996" from-port="0" to-layer="999" to-port="1"/>
		<edge from-layer="997" from-port="0" to-layer="999" to-port="2"/>
		<edge from-layer="998" from-port="0" to-layer="999" to-port="3"/>
		<edge from-layer="999" from-port="4" to-layer="1015" to-port="8"/>
		<edge from-layer="1000" from-port="2" to-layer="1004" to-port="0"/>
		<edge from-layer="1001" from-port="0" to-layer="1004" to-port="1"/>
		<edge from-layer="1002" from-port="0" to-layer="1004" to-port="2"/>
		<edge from-layer="1003" from-port="0" to-layer="1004" to-port="3"/>
		<edge from-layer="1004" from-port="4" to-layer="1015" to-port="9"/>
		<edge from-layer="1005" from-port="2" to-layer="1009" to-port="0"/>
		<edge from-layer="1006" from-port="0" to-layer="1009" to-port="1"/>
		<edge from-layer="1007" from-port="0" to-layer="1009" to-port="2"/>
		<edge from-layer="1008" from-port="0" to-layer="1009" to-port="3"/>
		<edge from-layer="1009" from-port="4" to-layer="1015" to-port="10"/>
		<edge from-layer="1010" from-port="2" to-layer="1014" to-port="0"/>
		<edge from-layer="1011" from-port="0" to-layer="1014" to-port="1"/>
		<edge from-layer="1012" from-port="0" to-layer="1014" to-port="2"/>
		<edge from-layer="1013" from-port="0" to-layer="1014" to-port="3"/>
		<edge from-layer="1014" from-port="4" to-layer="1015" to-port="11"/>
		<edge from-layer="1015" from-port="12" to-layer="1016" to-port="0"/>
		<edge from-layer="1017" from-port="0" to-layer="1018" to-port="1"/>
		<edge from-layer="1018" from-port="2" to-layer="1021" to-port="0"/>
		<edge from-layer="1019" from-port="0" to-layer="1020" to-port="1"/>
		<edge from-layer="1020" from-port="2" to-layer="1021" to-port="1"/>
		<edge from-layer="1021" from-port="2" to-layer="1024" to-port="0"/>
		<edge from-layer="1022" from-port="0" to-layer="1023" to-port="1"/>
		<edge from-layer="1023" from-port="2" to-layer="1024" to-port="1"/>
		<edge from-layer="1024" from-port="2" to-layer="1031" to-port="0"/>
		<edge from-layer="1025" from-port="0" to-layer="1026" to-port="1"/>
		<edge from-layer="1026" from-port="2" to-layer="1028" to-port="0"/>
		<edge from-layer="1027" from-port="0" to-layer="1028" to-port="1"/>
		<edge from-layer="1028" from-port="2" to-layer="1030" to-port="0"/>
		<edge from-layer="1029" from-port="0" to-layer="1030" to-port="1"/>
		<edge from-layer="1030" from-port="2" to-layer="1031" to-port="1"/>
		<edge from-layer="1031" from-port="2" to-layer="1032" to-port="0"/>
	</edges>
	<meta_data>
		<MO_version value="2021.4.2-3974-e2a469a3450-releases/2021/4"/>
		<cli_parameters>
			<data_type value="float"/>
			<disable_resnet_optimization value="False"/>
			<disable_weights_compression value="False"/>
			<enable_concat_optimization value="False"/>
			<extensions value="DIR"/>
			<framework value="onnx"/>
			<freeze_placeholder_with_value value="{}"/>
			<generate_deprecated_IR_V7 value="False"/>
			<input_model value="DIR\mstcn_online.onnx"/>
			<keep_shape_ops value="True"/>
			<legacy_ir_generation value="False"/>
			<log_level value="ERROR"/>
			<mean_scale_values value="{}"/>
			<mean_values value="()"/>
			<model_name value="mstcn_online"/>
			<output_dir value="DIR"/>
			<placeholder_data_types value="{}"/>
			<progress value="False"/>
			<reverse_input_channels value="False"/>
			<scale_values value="()"/>
			<silent value="False"/>
			<static_shape value="False"/>
			<stream_output value="False"/>
			<transform value=""/>
			<unset unset_cli_parameters="batch, disable_fusing, disable_gfusing, finegrain_fusing, input, input_shape, move_to_preprocess, output, placeholder_shapes, scale, transformations_config"/>
		</cli_parameters>
	</meta_data>
</net>
