<?xml version="1.0" ?>
<net name="icv-pedestrian-detection-mobilenet-ssd-v2.0" version="11">
	<layers>
		<layer id="0" name="data" type="Parameter" version="opset1">
			<data shape="1,3,384,672" element_type="f32"/>
			<rt_info>
				<attribute name="fused_names" version="0" value="data"/>
			</rt_info>
			<output>
				<port id="0" precision="FP32" names="data">
					<dim>1</dim>
					<dim>3</dim>
					<dim>384</dim>
					<dim>672</dim>
					<rt_info>
						<attribute name="layout" version="0" layout="[N,C,H,W]"/>
					</rt_info>
				</port>
			</output>
		</layer>
		<layer id="1" name="data_mul_1103419631" type="Const" version="opset1">
			<data element_type="f32" shape="1, 1, 1, 1" offset="0" size="4"/>
			<rt_info>
				<attribute name="fused_names" version="0" value="data_mul_1103419631"/>
			</rt_info>
			<output>
				<port id="0" precision="FP32">
					<dim>1</dim>
					<dim>1</dim>
					<dim>1</dim>
					<dim>1</dim>
				</port>
			</output>
		</layer>
		<layer id="2" name="data/scale/Fused_Mul_" type="Multiply" version="opset1">
			<data auto_broadcast="numpy"/>
			<rt_info>
				<attribute name="fused_names" version="0" value="data/scale/Fused_Mul_"/>
			</rt_info>
			<input>
				<port id="0" precision="FP32">
					<dim>1</dim>
					<dim>3</dim>
					<dim>384</dim>
					<dim>672</dim>
				</port>
				<port id="1" precision="FP32">
					<dim>1</dim>
					<dim>1</dim>
					<dim>1</dim>
					<dim>1</dim>
				</port>
			</input>
			<output>
				<port id="2" precision="FP32">
					<dim>1</dim>
					<dim>3</dim>
					<dim>384</dim>
					<dim>672</dim>
				</port>
			</output>
		</layer>
		<layer id="3" name="data_add_1103620264" type="Const" version="opset1">
			<data element_type="f32" shape="1, 3, 1, 1" offset="4" size="12"/>
			<rt_info>
				<attribute name="fused_names" version="0" value="data_add_1103620264"/>
			</rt_info>
			<output>
				<port id="0" precision="FP32">
					<dim>1</dim>
					<dim>3</dim>
					<dim>1</dim>
					<dim>1</dim>
				</port>
			</output>
		</layer>
		<layer id="4" name="data/mean/Fused_Add_" type="Add" version="opset1">
			<data auto_broadcast="numpy"/>
			<rt_info>
				<attribute name="fused_names" version="0" value="data/mean/Fused_Add_"/>
			</rt_info>
			<input>
				<port id="0" precision="FP32">
					<dim>1</dim>
					<dim>3</dim>
					<dim>384</dim>
					<dim>672</dim>
				</port>
				<port id="1" precision="FP32">
					<dim>1</dim>
					<dim>3</dim>
					<dim>1</dim>
					<dim>1</dim>
				</port>
			</input>
			<output>
				<port id="2" precision="FP32">
					<dim>1</dim>
					<dim>3</dim>
					<dim>384</dim>
					<dim>672</dim>
				</port>
			</output>
		</layer>
		<layer id="5" name="conv1/bn/mean/Fused_Mul__copy" type="Const" version="opset1">
			<data element_type="f32" shape="32, 3, 3, 3" offset="16" size="3456"/>
			<rt_info>
				<attribute name="fused_names" version="0" value="conv1/bn/mean/Fused_Mul__copy"/>
			</rt_info>
			<output>
				<port id="0" precision="FP32">
					<dim>32</dim>
					<dim>3</dim>
					<dim>3</dim>
					<dim>3</dim>
				</port>
			</output>
		</layer>
		<layer id="6" name="conv1" type="Convolution" version="opset1">
			<data strides="2, 2" dilations="1, 1" pads_begin="1, 1" pads_end="1, 1" auto_pad="explicit"/>
			<rt_info>
				<attribute name="fused_names" version="0" value="conv1"/>
			</rt_info>
			<input>
				<port id="0" precision="FP32">
					<dim>1</dim>
					<dim>3</dim>
					<dim>384</dim>
					<dim>672</dim>
				</port>
				<port id="1" precision="FP32">
					<dim>32</dim>
					<dim>3</dim>
					<dim>3</dim>
					<dim>3</dim>
				</port>
			</input>
			<output>
				<port id="2" precision="FP32">
					<dim>1</dim>
					<dim>32</dim>
					<dim>192</dim>
					<dim>336</dim>
				</port>
			</output>
		</layer>
		<layer id="7" name="data_add_1103911044" type="Const" version="opset1">
			<data element_type="f32" shape="1, 32, 1, 1" offset="3472" size="128"/>
			<rt_info>
				<attribute name="fused_names" version="0" value="data_add_1103911044"/>
			</rt_info>
			<output>
				<port id="0" precision="FP32">
					<dim>1</dim>
					<dim>32</dim>
					<dim>1</dim>
					<dim>1</dim>
				</port>
			</output>
		</layer>
		<layer id="8" name="conv1/bn/variance/Fused_Add_" type="Add" version="opset1">
			<data auto_broadcast="numpy"/>
			<rt_info>
				<attribute name="fused_names" version="0" value="conv1/bn/variance/Fused_Add_"/>
			</rt_info>
			<input>
				<port id="0" precision="FP32">
					<dim>1</dim>
					<dim>32</dim>
					<dim>192</dim>
					<dim>336</dim>
				</port>
				<port id="1" precision="FP32">
					<dim>1</dim>
					<dim>32</dim>
					<dim>1</dim>
					<dim>1</dim>
				</port>
			</input>
			<output>
				<port id="2" precision="FP32" names="conv1">
					<dim>1</dim>
					<dim>32</dim>
					<dim>192</dim>
					<dim>336</dim>
				</port>
			</output>
		</layer>
		<layer id="9" name="relu1" type="ReLU" version="opset1">
			<rt_info>
				<attribute name="fused_names" version="0" value="relu1"/>
			</rt_info>
			<input>
				<port id="0" precision="FP32">
					<dim>1</dim>
					<dim>32</dim>
					<dim>192</dim>
					<dim>336</dim>
				</port>
			</input>
			<output>
				<port id="1" precision="FP32" names="conv1">
					<dim>1</dim>
					<dim>32</dim>
					<dim>192</dim>
					<dim>336</dim>
				</port>
			</output>
		</layer>
		<layer id="10" name="conv2_1/dw/bn/mean/Fused_Mul__copy" type="Const" version="opset1">
			<data element_type="f32" shape="32, 1, 1, 3, 3" offset="3600" size="1152"/>
			<rt_info>
				<attribute name="fused_names" version="0" value="conv2_1/dw/bn/mean/Fused_Mul__copy"/>
			</rt_info>
			<output>
				<port id="0" precision="FP32">
					<dim>32</dim>
					<dim>1</dim>
					<dim>1</dim>
					<dim>3</dim>
					<dim>3</dim>
				</port>
			</output>
		</layer>
		<layer id="11" name="conv2_1/dw" type="GroupConvolution" version="opset1">
			<data strides="1, 1" pads_begin="1, 1" pads_end="1, 1" dilations="1, 1" auto_pad="explicit"/>
			<rt_info>
				<attribute name="fused_names" version="0" value="conv2_1/dw"/>
			</rt_info>
			<input>
				<port id="0" precision="FP32">
					<dim>1</dim>
					<dim>32</dim>
					<dim>192</dim>
					<dim>336</dim>
				</port>
				<port id="1" precision="FP32">
					<dim>32</dim>
					<dim>1</dim>
					<dim>1</dim>
					<dim>3</dim>
					<dim>3</dim>
				</port>
			</input>
			<output>
				<port id="2" precision="FP32">
					<dim>1</dim>
					<dim>32</dim>
					<dim>192</dim>
					<dim>336</dim>
				</port>
			</output>
		</layer>
		<layer id="12" name="data_add_1104711052" type="Const" version="opset1">
			<data element_type="f32" shape="1, 32, 1, 1" offset="4752" size="128"/>
			<rt_info>
				<attribute name="fused_names" version="0" value="data_add_1104711052"/>
			</rt_info>
			<output>
				<port id="0" precision="FP32">
					<dim>1</dim>
					<dim>32</dim>
					<dim>1</dim>
					<dim>1</dim>
				</port>
			</output>
		</layer>
		<layer id="13" name="conv2_1/dw/bn/variance/Fused_Add_" type="Add" version="opset1">
			<data auto_broadcast="numpy"/>
			<rt_info>
				<attribute name="fused_names" version="0" value="conv2_1/dw/bn/variance/Fused_Add_"/>
			</rt_info>
			<input>
				<port id="0" precision="FP32">
					<dim>1</dim>
					<dim>32</dim>
					<dim>192</dim>
					<dim>336</dim>
				</port>
				<port id="1" precision="FP32">
					<dim>1</dim>
					<dim>32</dim>
					<dim>1</dim>
					<dim>1</dim>
				</port>
			</input>
			<output>
				<port id="2" precision="FP32" names="conv2_1/dw">
					<dim>1</dim>
					<dim>32</dim>
					<dim>192</dim>
					<dim>336</dim>
				</port>
			</output>
		</layer>
		<layer id="14" name="relu2_1/dw" type="ReLU" version="opset1">
			<rt_info>
				<attribute name="fused_names" version="0" value="relu2_1/dw"/>
			</rt_info>
			<input>
				<port id="0" precision="FP32">
					<dim>1</dim>
					<dim>32</dim>
					<dim>192</dim>
					<dim>336</dim>
				</port>
			</input>
			<output>
				<port id="1" precision="FP32" names="conv2_1/dw">
					<dim>1</dim>
					<dim>32</dim>
					<dim>192</dim>
					<dim>336</dim>
				</port>
			</output>
		</layer>
		<layer id="15" name="conv2_1/sep/bn/mean/Fused_Mul__copy" type="Const" version="opset1">
			<data element_type="f32" shape="56, 32, 1, 1" offset="4880" size="7168"/>
			<rt_info>
				<attribute name="fused_names" version="0" value="conv2_1/sep/bn/mean/Fused_Mul__copy"/>
			</rt_info>
			<output>
				<port id="0" precision="FP32">
					<dim>56</dim>
					<dim>32</dim>
					<dim>1</dim>
					<dim>1</dim>
				</port>
			</output>
		</layer>
		<layer id="16" name="conv2_1/sep" type="Convolution" version="opset1">
			<data strides="1, 1" dilations="1, 1" pads_begin="0, 0" pads_end="0, 0" auto_pad="explicit"/>
			<rt_info>
				<attribute name="fused_names" version="0" value="conv2_1/sep"/>
			</rt_info>
			<input>
				<port id="0" precision="FP32">
					<dim>1</dim>
					<dim>32</dim>
					<dim>192</dim>
					<dim>336</dim>
				</port>
				<port id="1" precision="FP32">
					<dim>56</dim>
					<dim>32</dim>
					<dim>1</dim>
					<dim>1</dim>
				</port>
			</input>
			<output>
				<port id="2" precision="FP32">
					<dim>1</dim>
					<dim>56</dim>
					<dim>192</dim>
					<dim>336</dim>
				</port>
			</output>
		</layer>
		<layer id="17" name="data_add_1105511060" type="Const" version="opset1">
			<data element_type="f32" shape="1, 56, 1, 1" offset="12048" size="224"/>
			<rt_info>
				<attribute name="fused_names" version="0" value="data_add_1105511060"/>
			</rt_info>
			<output>
				<port id="0" precision="FP32">
					<dim>1</dim>
					<dim>56</dim>
					<dim>1</dim>
					<dim>1</dim>
				</port>
			</output>
		</layer>
		<layer id="18" name="conv2_1/sep/bn/variance/Fused_Add_" type="Add" version="opset1">
			<data auto_broadcast="numpy"/>
			<rt_info>
				<attribute name="fused_names" version="0" value="conv2_1/sep/bn/variance/Fused_Add_"/>
			</rt_info>
			<input>
				<port id="0" precision="FP32">
					<dim>1</dim>
					<dim>56</dim>
					<dim>192</dim>
					<dim>336</dim>
				</port>
				<port id="1" precision="FP32">
					<dim>1</dim>
					<dim>56</dim>
					<dim>1</dim>
					<dim>1</dim>
				</port>
			</input>
			<output>
				<port id="2" precision="FP32" names="conv2_1/sep">
					<dim>1</dim>
					<dim>56</dim>
					<dim>192</dim>
					<dim>336</dim>
				</port>
			</output>
		</layer>
		<layer id="19" name="relu2_1/sep" type="ReLU" version="opset1">
			<rt_info>
				<attribute name="fused_names" version="0" value="relu2_1/sep"/>
			</rt_info>
			<input>
				<port id="0" precision="FP32">
					<dim>1</dim>
					<dim>56</dim>
					<dim>192</dim>
					<dim>336</dim>
				</port>
			</input>
			<output>
				<port id="1" precision="FP32" names="conv2_1/sep">
					<dim>1</dim>
					<dim>56</dim>
					<dim>192</dim>
					<dim>336</dim>
				</port>
			</output>
		</layer>
		<layer id="20" name="conv2_2/dw/bn/mean/Fused_Mul__copy" type="Const" version="opset1">
			<data element_type="f32" shape="56, 1, 1, 3, 3" offset="12272" size="2016"/>
			<rt_info>
				<attribute name="fused_names" version="0" value="conv2_2/dw/bn/mean/Fused_Mul__copy"/>
			</rt_info>
			<output>
				<port id="0" precision="FP32">
					<dim>56</dim>
					<dim>1</dim>
					<dim>1</dim>
					<dim>3</dim>
					<dim>3</dim>
				</port>
			</output>
		</layer>
		<layer id="21" name="conv2_2/dw" type="GroupConvolution" version="opset1">
			<data strides="2, 2" pads_begin="1, 1" pads_end="1, 1" dilations="1, 1" auto_pad="explicit"/>
			<rt_info>
				<attribute name="fused_names" version="0" value="conv2_2/dw"/>
			</rt_info>
			<input>
				<port id="0" precision="FP32">
					<dim>1</dim>
					<dim>56</dim>
					<dim>192</dim>
					<dim>336</dim>
				</port>
				<port id="1" precision="FP32">
					<dim>56</dim>
					<dim>1</dim>
					<dim>1</dim>
					<dim>3</dim>
					<dim>3</dim>
				</port>
			</input>
			<output>
				<port id="2" precision="FP32">
					<dim>1</dim>
					<dim>56</dim>
					<dim>96</dim>
					<dim>168</dim>
				</port>
			</output>
		</layer>
		<layer id="22" name="data_add_1106311068" type="Const" version="opset1">
			<data element_type="f32" shape="1, 56, 1, 1" offset="14288" size="224"/>
			<rt_info>
				<attribute name="fused_names" version="0" value="data_add_1106311068"/>
			</rt_info>
			<output>
				<port id="0" precision="FP32">
					<dim>1</dim>
					<dim>56</dim>
					<dim>1</dim>
					<dim>1</dim>
				</port>
			</output>
		</layer>
		<layer id="23" name="conv2_2/dw/bn/variance/Fused_Add_" type="Add" version="opset1">
			<data auto_broadcast="numpy"/>
			<rt_info>
				<attribute name="fused_names" version="0" value="conv2_2/dw/bn/variance/Fused_Add_"/>
			</rt_info>
			<input>
				<port id="0" precision="FP32">
					<dim>1</dim>
					<dim>56</dim>
					<dim>96</dim>
					<dim>168</dim>
				</port>
				<port id="1" precision="FP32">
					<dim>1</dim>
					<dim>56</dim>
					<dim>1</dim>
					<dim>1</dim>
				</port>
			</input>
			<output>
				<port id="2" precision="FP32" names="conv2_2/dw">
					<dim>1</dim>
					<dim>56</dim>
					<dim>96</dim>
					<dim>168</dim>
				</port>
			</output>
		</layer>
		<layer id="24" name="relu2_2/dw" type="ReLU" version="opset1">
			<rt_info>
				<attribute name="fused_names" version="0" value="relu2_2/dw"/>
			</rt_info>
			<input>
				<port id="0" precision="FP32">
					<dim>1</dim>
					<dim>56</dim>
					<dim>96</dim>
					<dim>168</dim>
				</port>
			</input>
			<output>
				<port id="1" precision="FP32" names="conv2_2/dw">
					<dim>1</dim>
					<dim>56</dim>
					<dim>96</dim>
					<dim>168</dim>
				</port>
			</output>
		</layer>
		<layer id="25" name="conv2_2/sep/bn/mean/Fused_Mul__copy" type="Const" version="opset1">
			<data element_type="f32" shape="112, 56, 1, 1" offset="14512" size="25088"/>
			<rt_info>
				<attribute name="fused_names" version="0" value="conv2_2/sep/bn/mean/Fused_Mul__copy"/>
			</rt_info>
			<output>
				<port id="0" precision="FP32">
					<dim>112</dim>
					<dim>56</dim>
					<dim>1</dim>
					<dim>1</dim>
				</port>
			</output>
		</layer>
		<layer id="26" name="conv2_2/sep" type="Convolution" version="opset1">
			<data strides="1, 1" dilations="1, 1" pads_begin="0, 0" pads_end="0, 0" auto_pad="explicit"/>
			<rt_info>
				<attribute name="fused_names" version="0" value="conv2_2/sep"/>
			</rt_info>
			<input>
				<port id="0" precision="FP32">
					<dim>1</dim>
					<dim>56</dim>
					<dim>96</dim>
					<dim>168</dim>
				</port>
				<port id="1" precision="FP32">
					<dim>112</dim>
					<dim>56</dim>
					<dim>1</dim>
					<dim>1</dim>
				</port>
			</input>
			<output>
				<port id="2" precision="FP32">
					<dim>1</dim>
					<dim>112</dim>
					<dim>96</dim>
					<dim>168</dim>
				</port>
			</output>
		</layer>
		<layer id="27" name="data_add_1107111076" type="Const" version="opset1">
			<data element_type="f32" shape="1, 112, 1, 1" offset="39600" size="448"/>
			<rt_info>
				<attribute name="fused_names" version="0" value="data_add_1107111076"/>
			</rt_info>
			<output>
				<port id="0" precision="FP32">
					<dim>1</dim>
					<dim>112</dim>
					<dim>1</dim>
					<dim>1</dim>
				</port>
			</output>
		</layer>
		<layer id="28" name="conv2_2/sep/bn/variance/Fused_Add_" type="Add" version="opset1">
			<data auto_broadcast="numpy"/>
			<rt_info>
				<attribute name="fused_names" version="0" value="conv2_2/sep/bn/variance/Fused_Add_"/>
			</rt_info>
			<input>
				<port id="0" precision="FP32">
					<dim>1</dim>
					<dim>112</dim>
					<dim>96</dim>
					<dim>168</dim>
				</port>
				<port id="1" precision="FP32">
					<dim>1</dim>
					<dim>112</dim>
					<dim>1</dim>
					<dim>1</dim>
				</port>
			</input>
			<output>
				<port id="2" precision="FP32" names="conv2_2/sep">
					<dim>1</dim>
					<dim>112</dim>
					<dim>96</dim>
					<dim>168</dim>
				</port>
			</output>
		</layer>
		<layer id="29" name="relu2_2/sep" type="ReLU" version="opset1">
			<rt_info>
				<attribute name="fused_names" version="0" value="relu2_2/sep"/>
			</rt_info>
			<input>
				<port id="0" precision="FP32">
					<dim>1</dim>
					<dim>112</dim>
					<dim>96</dim>
					<dim>168</dim>
				</port>
			</input>
			<output>
				<port id="1" precision="FP32" names="conv2_2/sep">
					<dim>1</dim>
					<dim>112</dim>
					<dim>96</dim>
					<dim>168</dim>
				</port>
			</output>
		</layer>
		<layer id="30" name="conv3_1/dw/bn/mean/Fused_Mul__copy" type="Const" version="opset1">
			<data element_type="f32" shape="112, 1, 1, 3, 3" offset="40048" size="4032"/>
			<rt_info>
				<attribute name="fused_names" version="0" value="conv3_1/dw/bn/mean/Fused_Mul__copy"/>
			</rt_info>
			<output>
				<port id="0" precision="FP32">
					<dim>112</dim>
					<dim>1</dim>
					<dim>1</dim>
					<dim>3</dim>
					<dim>3</dim>
				</port>
			</output>
		</layer>
		<layer id="31" name="conv3_1/dw" type="GroupConvolution" version="opset1">
			<data strides="1, 1" pads_begin="1, 1" pads_end="1, 1" dilations="1, 1" auto_pad="explicit"/>
			<rt_info>
				<attribute name="fused_names" version="0" value="conv3_1/dw"/>
			</rt_info>
			<input>
				<port id="0" precision="FP32">
					<dim>1</dim>
					<dim>112</dim>
					<dim>96</dim>
					<dim>168</dim>
				</port>
				<port id="1" precision="FP32">
					<dim>112</dim>
					<dim>1</dim>
					<dim>1</dim>
					<dim>3</dim>
					<dim>3</dim>
				</port>
			</input>
			<output>
				<port id="2" precision="FP32">
					<dim>1</dim>
					<dim>112</dim>
					<dim>96</dim>
					<dim>168</dim>
				</port>
			</output>
		</layer>
		<layer id="32" name="data_add_1107911084" type="Const" version="opset1">
			<data element_type="f32" shape="1, 112, 1, 1" offset="44080" size="448"/>
			<rt_info>
				<attribute name="fused_names" version="0" value="data_add_1107911084"/>
			</rt_info>
			<output>
				<port id="0" precision="FP32">
					<dim>1</dim>
					<dim>112</dim>
					<dim>1</dim>
					<dim>1</dim>
				</port>
			</output>
		</layer>
		<layer id="33" name="conv3_1/dw/bn/variance/Fused_Add_" type="Add" version="opset1">
			<data auto_broadcast="numpy"/>
			<rt_info>
				<attribute name="fused_names" version="0" value="conv3_1/dw/bn/variance/Fused_Add_"/>
			</rt_info>
			<input>
				<port id="0" precision="FP32">
					<dim>1</dim>
					<dim>112</dim>
					<dim>96</dim>
					<dim>168</dim>
				</port>
				<port id="1" precision="FP32">
					<dim>1</dim>
					<dim>112</dim>
					<dim>1</dim>
					<dim>1</dim>
				</port>
			</input>
			<output>
				<port id="2" precision="FP32" names="conv3_1/dw">
					<dim>1</dim>
					<dim>112</dim>
					<dim>96</dim>
					<dim>168</dim>
				</port>
			</output>
		</layer>
		<layer id="34" name="relu3_1/dw" type="ReLU" version="opset1">
			<rt_info>
				<attribute name="fused_names" version="0" value="relu3_1/dw"/>
			</rt_info>
			<input>
				<port id="0" precision="FP32">
					<dim>1</dim>
					<dim>112</dim>
					<dim>96</dim>
					<dim>168</dim>
				</port>
			</input>
			<output>
				<port id="1" precision="FP32" names="conv3_1/dw">
					<dim>1</dim>
					<dim>112</dim>
					<dim>96</dim>
					<dim>168</dim>
				</port>
			</output>
		</layer>
		<layer id="35" name="conv3_1/sep/bn/mean/Fused_Mul__copy" type="Const" version="opset1">
			<data element_type="f32" shape="96, 112, 1, 1" offset="44528" size="43008"/>
			<rt_info>
				<attribute name="fused_names" version="0" value="conv3_1/sep/bn/mean/Fused_Mul__copy"/>
			</rt_info>
			<output>
				<port id="0" precision="FP32">
					<dim>96</dim>
					<dim>112</dim>
					<dim>1</dim>
					<dim>1</dim>
				</port>
			</output>
		</layer>
		<layer id="36" name="conv3_1/sep" type="Convolution" version="opset1">
			<data strides="1, 1" dilations="1, 1" pads_begin="0, 0" pads_end="0, 0" auto_pad="explicit"/>
			<rt_info>
				<attribute name="fused_names" version="0" value="conv3_1/sep"/>
			</rt_info>
			<input>
				<port id="0" precision="FP32">
					<dim>1</dim>
					<dim>112</dim>
					<dim>96</dim>
					<dim>168</dim>
				</port>
				<port id="1" precision="FP32">
					<dim>96</dim>
					<dim>112</dim>
					<dim>1</dim>
					<dim>1</dim>
				</port>
			</input>
			<output>
				<port id="2" precision="FP32">
					<dim>1</dim>
					<dim>96</dim>
					<dim>96</dim>
					<dim>168</dim>
				</port>
			</output>
		</layer>
		<layer id="37" name="data_add_1108711092" type="Const" version="opset1">
			<data element_type="f32" shape="1, 96, 1, 1" offset="87536" size="384"/>
			<rt_info>
				<attribute name="fused_names" version="0" value="data_add_1108711092"/>
			</rt_info>
			<output>
				<port id="0" precision="FP32">
					<dim>1</dim>
					<dim>96</dim>
					<dim>1</dim>
					<dim>1</dim>
				</port>
			</output>
		</layer>
		<layer id="38" name="conv3_1/sep/bn/variance/Fused_Add_" type="Add" version="opset1">
			<data auto_broadcast="numpy"/>
			<rt_info>
				<attribute name="fused_names" version="0" value="conv3_1/sep/bn/variance/Fused_Add_"/>
			</rt_info>
			<input>
				<port id="0" precision="FP32">
					<dim>1</dim>
					<dim>96</dim>
					<dim>96</dim>
					<dim>168</dim>
				</port>
				<port id="1" precision="FP32">
					<dim>1</dim>
					<dim>96</dim>
					<dim>1</dim>
					<dim>1</dim>
				</port>
			</input>
			<output>
				<port id="2" precision="FP32" names="conv3_1/sep">
					<dim>1</dim>
					<dim>96</dim>
					<dim>96</dim>
					<dim>168</dim>
				</port>
			</output>
		</layer>
		<layer id="39" name="relu3_1/sep" type="ReLU" version="opset1">
			<rt_info>
				<attribute name="fused_names" version="0" value="relu3_1/sep"/>
			</rt_info>
			<input>
				<port id="0" precision="FP32">
					<dim>1</dim>
					<dim>96</dim>
					<dim>96</dim>
					<dim>168</dim>
				</port>
			</input>
			<output>
				<port id="1" precision="FP32" names="conv3_1/sep">
					<dim>1</dim>
					<dim>96</dim>
					<dim>96</dim>
					<dim>168</dim>
				</port>
			</output>
		</layer>
		<layer id="40" name="conv3_2/dw/bn/mean/Fused_Mul__copy" type="Const" version="opset1">
			<data element_type="f32" shape="96, 1, 1, 3, 3" offset="87920" size="3456"/>
			<rt_info>
				<attribute name="fused_names" version="0" value="conv3_2/dw/bn/mean/Fused_Mul__copy"/>
			</rt_info>
			<output>
				<port id="0" precision="FP32">
					<dim>96</dim>
					<dim>1</dim>
					<dim>1</dim>
					<dim>3</dim>
					<dim>3</dim>
				</port>
			</output>
		</layer>
		<layer id="41" name="conv3_2/dw" type="GroupConvolution" version="opset1">
			<data strides="2, 2" pads_begin="1, 1" pads_end="1, 1" dilations="1, 1" auto_pad="explicit"/>
			<rt_info>
				<attribute name="fused_names" version="0" value="conv3_2/dw"/>
			</rt_info>
			<input>
				<port id="0" precision="FP32">
					<dim>1</dim>
					<dim>96</dim>
					<dim>96</dim>
					<dim>168</dim>
				</port>
				<port id="1" precision="FP32">
					<dim>96</dim>
					<dim>1</dim>
					<dim>1</dim>
					<dim>3</dim>
					<dim>3</dim>
				</port>
			</input>
			<output>
				<port id="2" precision="FP32">
					<dim>1</dim>
					<dim>96</dim>
					<dim>48</dim>
					<dim>84</dim>
				</port>
			</output>
		</layer>
		<layer id="42" name="data_add_1109511100" type="Const" version="opset1">
			<data element_type="f32" shape="1, 96, 1, 1" offset="91376" size="384"/>
			<rt_info>
				<attribute name="fused_names" version="0" value="data_add_1109511100"/>
			</rt_info>
			<output>
				<port id="0" precision="FP32">
					<dim>1</dim>
					<dim>96</dim>
					<dim>1</dim>
					<dim>1</dim>
				</port>
			</output>
		</layer>
		<layer id="43" name="conv3_2/dw/bn/variance/Fused_Add_" type="Add" version="opset1">
			<data auto_broadcast="numpy"/>
			<rt_info>
				<attribute name="fused_names" version="0" value="conv3_2/dw/bn/variance/Fused_Add_"/>
			</rt_info>
			<input>
				<port id="0" precision="FP32">
					<dim>1</dim>
					<dim>96</dim>
					<dim>48</dim>
					<dim>84</dim>
				</port>
				<port id="1" precision="FP32">
					<dim>1</dim>
					<dim>96</dim>
					<dim>1</dim>
					<dim>1</dim>
				</port>
			</input>
			<output>
				<port id="2" precision="FP32" names="conv3_2/dw">
					<dim>1</dim>
					<dim>96</dim>
					<dim>48</dim>
					<dim>84</dim>
				</port>
			</output>
		</layer>
		<layer id="44" name="relu3_2/dw" type="ReLU" version="opset1">
			<rt_info>
				<attribute name="fused_names" version="0" value="relu3_2/dw"/>
			</rt_info>
			<input>
				<port id="0" precision="FP32">
					<dim>1</dim>
					<dim>96</dim>
					<dim>48</dim>
					<dim>84</dim>
				</port>
			</input>
			<output>
				<port id="1" precision="FP32" names="conv3_2/dw">
					<dim>1</dim>
					<dim>96</dim>
					<dim>48</dim>
					<dim>84</dim>
				</port>
			</output>
		</layer>
		<layer id="45" name="conv3_2/sep/bn/mean/Fused_Mul__copy" type="Const" version="opset1">
			<data element_type="f32" shape="232, 96, 1, 1" offset="91760" size="89088"/>
			<rt_info>
				<attribute name="fused_names" version="0" value="conv3_2/sep/bn/mean/Fused_Mul__copy"/>
			</rt_info>
			<output>
				<port id="0" precision="FP32">
					<dim>232</dim>
					<dim>96</dim>
					<dim>1</dim>
					<dim>1</dim>
				</port>
			</output>
		</layer>
		<layer id="46" name="conv3_2/sep" type="Convolution" version="opset1">
			<data strides="1, 1" dilations="1, 1" pads_begin="0, 0" pads_end="0, 0" auto_pad="explicit"/>
			<rt_info>
				<attribute name="fused_names" version="0" value="conv3_2/sep"/>
			</rt_info>
			<input>
				<port id="0" precision="FP32">
					<dim>1</dim>
					<dim>96</dim>
					<dim>48</dim>
					<dim>84</dim>
				</port>
				<port id="1" precision="FP32">
					<dim>232</dim>
					<dim>96</dim>
					<dim>1</dim>
					<dim>1</dim>
				</port>
			</input>
			<output>
				<port id="2" precision="FP32">
					<dim>1</dim>
					<dim>232</dim>
					<dim>48</dim>
					<dim>84</dim>
				</port>
			</output>
		</layer>
		<layer id="47" name="data_add_1110311108" type="Const" version="opset1">
			<data element_type="f32" shape="1, 232, 1, 1" offset="180848" size="928"/>
			<rt_info>
				<attribute name="fused_names" version="0" value="data_add_1110311108"/>
			</rt_info>
			<output>
				<port id="0" precision="FP32">
					<dim>1</dim>
					<dim>232</dim>
					<dim>1</dim>
					<dim>1</dim>
				</port>
			</output>
		</layer>
		<layer id="48" name="conv3_2/sep/bn/variance/Fused_Add_" type="Add" version="opset1">
			<data auto_broadcast="numpy"/>
			<rt_info>
				<attribute name="fused_names" version="0" value="conv3_2/sep/bn/variance/Fused_Add_"/>
			</rt_info>
			<input>
				<port id="0" precision="FP32">
					<dim>1</dim>
					<dim>232</dim>
					<dim>48</dim>
					<dim>84</dim>
				</port>
				<port id="1" precision="FP32">
					<dim>1</dim>
					<dim>232</dim>
					<dim>1</dim>
					<dim>1</dim>
				</port>
			</input>
			<output>
				<port id="2" precision="FP32" names="conv3_2/sep">
					<dim>1</dim>
					<dim>232</dim>
					<dim>48</dim>
					<dim>84</dim>
				</port>
			</output>
		</layer>
		<layer id="49" name="relu3_2/sep" type="ReLU" version="opset1">
			<rt_info>
				<attribute name="fused_names" version="0" value="relu3_2/sep"/>
			</rt_info>
			<input>
				<port id="0" precision="FP32">
					<dim>1</dim>
					<dim>232</dim>
					<dim>48</dim>
					<dim>84</dim>
				</port>
			</input>
			<output>
				<port id="1" precision="FP32" names="conv3_2/sep">
					<dim>1</dim>
					<dim>232</dim>
					<dim>48</dim>
					<dim>84</dim>
				</port>
			</output>
		</layer>
		<layer id="50" name="conv4_1/dw/bn/mean/Fused_Mul__copy" type="Const" version="opset1">
			<data element_type="f32" shape="232, 1, 1, 3, 3" offset="181776" size="8352"/>
			<rt_info>
				<attribute name="fused_names" version="0" value="conv4_1/dw/bn/mean/Fused_Mul__copy"/>
			</rt_info>
			<output>
				<port id="0" precision="FP32">
					<dim>232</dim>
					<dim>1</dim>
					<dim>1</dim>
					<dim>3</dim>
					<dim>3</dim>
				</port>
			</output>
		</layer>
		<layer id="51" name="conv4_1/dw" type="GroupConvolution" version="opset1">
			<data strides="1, 1" pads_begin="1, 1" pads_end="1, 1" dilations="1, 1" auto_pad="explicit"/>
			<rt_info>
				<attribute name="fused_names" version="0" value="conv4_1/dw"/>
			</rt_info>
			<input>
				<port id="0" precision="FP32">
					<dim>1</dim>
					<dim>232</dim>
					<dim>48</dim>
					<dim>84</dim>
				</port>
				<port id="1" precision="FP32">
					<dim>232</dim>
					<dim>1</dim>
					<dim>1</dim>
					<dim>3</dim>
					<dim>3</dim>
				</port>
			</input>
			<output>
				<port id="2" precision="FP32">
					<dim>1</dim>
					<dim>232</dim>
					<dim>48</dim>
					<dim>84</dim>
				</port>
			</output>
		</layer>
		<layer id="52" name="data_add_1111111116" type="Const" version="opset1">
			<data element_type="f32" shape="1, 232, 1, 1" offset="190128" size="928"/>
			<rt_info>
				<attribute name="fused_names" version="0" value="data_add_1111111116"/>
			</rt_info>
			<output>
				<port id="0" precision="FP32">
					<dim>1</dim>
					<dim>232</dim>
					<dim>1</dim>
					<dim>1</dim>
				</port>
			</output>
		</layer>
		<layer id="53" name="conv4_1/dw/bn/variance/Fused_Add_" type="Add" version="opset1">
			<data auto_broadcast="numpy"/>
			<rt_info>
				<attribute name="fused_names" version="0" value="conv4_1/dw/bn/variance/Fused_Add_"/>
			</rt_info>
			<input>
				<port id="0" precision="FP32">
					<dim>1</dim>
					<dim>232</dim>
					<dim>48</dim>
					<dim>84</dim>
				</port>
				<port id="1" precision="FP32">
					<dim>1</dim>
					<dim>232</dim>
					<dim>1</dim>
					<dim>1</dim>
				</port>
			</input>
			<output>
				<port id="2" precision="FP32" names="conv4_1/dw">
					<dim>1</dim>
					<dim>232</dim>
					<dim>48</dim>
					<dim>84</dim>
				</port>
			</output>
		</layer>
		<layer id="54" name="relu4_1/dw" type="ReLU" version="opset1">
			<rt_info>
				<attribute name="fused_names" version="0" value="relu4_1/dw"/>
			</rt_info>
			<input>
				<port id="0" precision="FP32">
					<dim>1</dim>
					<dim>232</dim>
					<dim>48</dim>
					<dim>84</dim>
				</port>
			</input>
			<output>
				<port id="1" precision="FP32" names="conv4_1/dw">
					<dim>1</dim>
					<dim>232</dim>
					<dim>48</dim>
					<dim>84</dim>
				</port>
			</output>
		</layer>
		<layer id="55" name="conv4_1/sep/bn/mean/Fused_Mul__copy" type="Const" version="opset1">
			<data element_type="f32" shape="208, 232, 1, 1" offset="191056" size="193024"/>
			<rt_info>
				<attribute name="fused_names" version="0" value="conv4_1/sep/bn/mean/Fused_Mul__copy"/>
			</rt_info>
			<output>
				<port id="0" precision="FP32">
					<dim>208</dim>
					<dim>232</dim>
					<dim>1</dim>
					<dim>1</dim>
				</port>
			</output>
		</layer>
		<layer id="56" name="conv4_1/sep" type="Convolution" version="opset1">
			<data strides="1, 1" dilations="1, 1" pads_begin="0, 0" pads_end="0, 0" auto_pad="explicit"/>
			<rt_info>
				<attribute name="fused_names" version="0" value="conv4_1/sep"/>
			</rt_info>
			<input>
				<port id="0" precision="FP32">
					<dim>1</dim>
					<dim>232</dim>
					<dim>48</dim>
					<dim>84</dim>
				</port>
				<port id="1" precision="FP32">
					<dim>208</dim>
					<dim>232</dim>
					<dim>1</dim>
					<dim>1</dim>
				</port>
			</input>
			<output>
				<port id="2" precision="FP32">
					<dim>1</dim>
					<dim>208</dim>
					<dim>48</dim>
					<dim>84</dim>
				</port>
			</output>
		</layer>
		<layer id="57" name="data_add_1111911124" type="Const" version="opset1">
			<data element_type="f32" shape="1, 208, 1, 1" offset="384080" size="832"/>
			<rt_info>
				<attribute name="fused_names" version="0" value="data_add_1111911124"/>
			</rt_info>
			<output>
				<port id="0" precision="FP32">
					<dim>1</dim>
					<dim>208</dim>
					<dim>1</dim>
					<dim>1</dim>
				</port>
			</output>
		</layer>
		<layer id="58" name="conv4_1/sep/bn/variance/Fused_Add_" type="Add" version="opset1">
			<data auto_broadcast="numpy"/>
			<rt_info>
				<attribute name="fused_names" version="0" value="conv4_1/sep/bn/variance/Fused_Add_"/>
			</rt_info>
			<input>
				<port id="0" precision="FP32">
					<dim>1</dim>
					<dim>208</dim>
					<dim>48</dim>
					<dim>84</dim>
				</port>
				<port id="1" precision="FP32">
					<dim>1</dim>
					<dim>208</dim>
					<dim>1</dim>
					<dim>1</dim>
				</port>
			</input>
			<output>
				<port id="2" precision="FP32" names="conv4_1/sep">
					<dim>1</dim>
					<dim>208</dim>
					<dim>48</dim>
					<dim>84</dim>
				</port>
			</output>
		</layer>
		<layer id="59" name="relu4_1/sep" type="ReLU" version="opset1">
			<rt_info>
				<attribute name="fused_names" version="0" value="relu4_1/sep"/>
			</rt_info>
			<input>
				<port id="0" precision="FP32">
					<dim>1</dim>
					<dim>208</dim>
					<dim>48</dim>
					<dim>84</dim>
				</port>
			</input>
			<output>
				<port id="1" precision="FP32" names="conv4_1/sep">
					<dim>1</dim>
					<dim>208</dim>
					<dim>48</dim>
					<dim>84</dim>
				</port>
			</output>
		</layer>
		<layer id="60" name="conv4_2/dw/bn/mean/Fused_Mul__copy" type="Const" version="opset1">
			<data element_type="f32" shape="208, 1, 1, 3, 3" offset="384912" size="7488"/>
			<rt_info>
				<attribute name="fused_names" version="0" value="conv4_2/dw/bn/mean/Fused_Mul__copy"/>
			</rt_info>
			<output>
				<port id="0" precision="FP32">
					<dim>208</dim>
					<dim>1</dim>
					<dim>1</dim>
					<dim>3</dim>
					<dim>3</dim>
				</port>
			</output>
		</layer>
		<layer id="61" name="conv4_2/dw" type="GroupConvolution" version="opset1">
			<data strides="2, 2" pads_begin="1, 1" pads_end="1, 1" dilations="1, 1" auto_pad="explicit"/>
			<rt_info>
				<attribute name="fused_names" version="0" value="conv4_2/dw"/>
			</rt_info>
			<input>
				<port id="0" precision="FP32">
					<dim>1</dim>
					<dim>208</dim>
					<dim>48</dim>
					<dim>84</dim>
				</port>
				<port id="1" precision="FP32">
					<dim>208</dim>
					<dim>1</dim>
					<dim>1</dim>
					<dim>3</dim>
					<dim>3</dim>
				</port>
			</input>
			<output>
				<port id="2" precision="FP32">
					<dim>1</dim>
					<dim>208</dim>
					<dim>24</dim>
					<dim>42</dim>
				</port>
			</output>
		</layer>
		<layer id="62" name="data_add_1112711132" type="Const" version="opset1">
			<data element_type="f32" shape="1, 208, 1, 1" offset="392400" size="832"/>
			<rt_info>
				<attribute name="fused_names" version="0" value="data_add_1112711132"/>
			</rt_info>
			<output>
				<port id="0" precision="FP32">
					<dim>1</dim>
					<dim>208</dim>
					<dim>1</dim>
					<dim>1</dim>
				</port>
			</output>
		</layer>
		<layer id="63" name="conv4_2/dw/bn/variance/Fused_Add_" type="Add" version="opset1">
			<data auto_broadcast="numpy"/>
			<rt_info>
				<attribute name="fused_names" version="0" value="conv4_2/dw/bn/variance/Fused_Add_"/>
			</rt_info>
			<input>
				<port id="0" precision="FP32">
					<dim>1</dim>
					<dim>208</dim>
					<dim>24</dim>
					<dim>42</dim>
				</port>
				<port id="1" precision="FP32">
					<dim>1</dim>
					<dim>208</dim>
					<dim>1</dim>
					<dim>1</dim>
				</port>
			</input>
			<output>
				<port id="2" precision="FP32" names="conv4_2/dw">
					<dim>1</dim>
					<dim>208</dim>
					<dim>24</dim>
					<dim>42</dim>
				</port>
			</output>
		</layer>
		<layer id="64" name="relu4_2/dw" type="ReLU" version="opset1">
			<rt_info>
				<attribute name="fused_names" version="0" value="relu4_2/dw"/>
			</rt_info>
			<input>
				<port id="0" precision="FP32">
					<dim>1</dim>
					<dim>208</dim>
					<dim>24</dim>
					<dim>42</dim>
				</port>
			</input>
			<output>
				<port id="1" precision="FP32" names="conv4_2/dw">
					<dim>1</dim>
					<dim>208</dim>
					<dim>24</dim>
					<dim>42</dim>
				</port>
			</output>
		</layer>
		<layer id="65" name="conv4_2/sep/bn/mean/Fused_Mul__copy" type="Const" version="opset1">
			<data element_type="f32" shape="352, 208, 1, 1" offset="393232" size="292864"/>
			<rt_info>
				<attribute name="fused_names" version="0" value="conv4_2/sep/bn/mean/Fused_Mul__copy"/>
			</rt_info>
			<output>
				<port id="0" precision="FP32">
					<dim>352</dim>
					<dim>208</dim>
					<dim>1</dim>
					<dim>1</dim>
				</port>
			</output>
		</layer>
		<layer id="66" name="conv4_2/sep" type="Convolution" version="opset1">
			<data strides="1, 1" dilations="1, 1" pads_begin="0, 0" pads_end="0, 0" auto_pad="explicit"/>
			<rt_info>
				<attribute name="fused_names" version="0" value="conv4_2/sep"/>
			</rt_info>
			<input>
				<port id="0" precision="FP32">
					<dim>1</dim>
					<dim>208</dim>
					<dim>24</dim>
					<dim>42</dim>
				</port>
				<port id="1" precision="FP32">
					<dim>352</dim>
					<dim>208</dim>
					<dim>1</dim>
					<dim>1</dim>
				</port>
			</input>
			<output>
				<port id="2" precision="FP32">
					<dim>1</dim>
					<dim>352</dim>
					<dim>24</dim>
					<dim>42</dim>
				</port>
			</output>
		</layer>
		<layer id="67" name="data_add_1113511140" type="Const" version="opset1">
			<data element_type="f32" shape="1, 352, 1, 1" offset="686096" size="1408"/>
			<rt_info>
				<attribute name="fused_names" version="0" value="data_add_1113511140"/>
			</rt_info>
			<output>
				<port id="0" precision="FP32">
					<dim>1</dim>
					<dim>352</dim>
					<dim>1</dim>
					<dim>1</dim>
				</port>
			</output>
		</layer>
		<layer id="68" name="conv4_2/sep/bn/variance/Fused_Add_" type="Add" version="opset1">
			<data auto_broadcast="numpy"/>
			<rt_info>
				<attribute name="fused_names" version="0" value="conv4_2/sep/bn/variance/Fused_Add_"/>
			</rt_info>
			<input>
				<port id="0" precision="FP32">
					<dim>1</dim>
					<dim>352</dim>
					<dim>24</dim>
					<dim>42</dim>
				</port>
				<port id="1" precision="FP32">
					<dim>1</dim>
					<dim>352</dim>
					<dim>1</dim>
					<dim>1</dim>
				</port>
			</input>
			<output>
				<port id="2" precision="FP32" names="conv4_2/sep">
					<dim>1</dim>
					<dim>352</dim>
					<dim>24</dim>
					<dim>42</dim>
				</port>
			</output>
		</layer>
		<layer id="69" name="relu4_2/sep" type="ReLU" version="opset1">
			<rt_info>
				<attribute name="fused_names" version="0" value="relu4_2/sep"/>
			</rt_info>
			<input>
				<port id="0" precision="FP32">
					<dim>1</dim>
					<dim>352</dim>
					<dim>24</dim>
					<dim>42</dim>
				</port>
			</input>
			<output>
				<port id="1" precision="FP32" names="conv4_2/sep">
					<dim>1</dim>
					<dim>352</dim>
					<dim>24</dim>
					<dim>42</dim>
				</port>
			</output>
		</layer>
		<layer id="70" name="conv5_1/dw/bn/mean/Fused_Mul__copy" type="Const" version="opset1">
			<data element_type="f32" shape="352, 1, 1, 3, 3" offset="687504" size="12672"/>
			<rt_info>
				<attribute name="fused_names" version="0" value="conv5_1/dw/bn/mean/Fused_Mul__copy"/>
			</rt_info>
			<output>
				<port id="0" precision="FP32">
					<dim>352</dim>
					<dim>1</dim>
					<dim>1</dim>
					<dim>3</dim>
					<dim>3</dim>
				</port>
			</output>
		</layer>
		<layer id="71" name="conv5_1/dw" type="GroupConvolution" version="opset1">
			<data strides="1, 1" pads_begin="1, 1" pads_end="1, 1" dilations="1, 1" auto_pad="explicit"/>
			<rt_info>
				<attribute name="fused_names" version="0" value="conv5_1/dw"/>
			</rt_info>
			<input>
				<port id="0" precision="FP32">
					<dim>1</dim>
					<dim>352</dim>
					<dim>24</dim>
					<dim>42</dim>
				</port>
				<port id="1" precision="FP32">
					<dim>352</dim>
					<dim>1</dim>
					<dim>1</dim>
					<dim>3</dim>
					<dim>3</dim>
				</port>
			</input>
			<output>
				<port id="2" precision="FP32">
					<dim>1</dim>
					<dim>352</dim>
					<dim>24</dim>
					<dim>42</dim>
				</port>
			</output>
		</layer>
		<layer id="72" name="data_add_1114311148" type="Const" version="opset1">
			<data element_type="f32" shape="1, 352, 1, 1" offset="700176" size="1408"/>
			<rt_info>
				<attribute name="fused_names" version="0" value="data_add_1114311148"/>
			</rt_info>
			<output>
				<port id="0" precision="FP32">
					<dim>1</dim>
					<dim>352</dim>
					<dim>1</dim>
					<dim>1</dim>
				</port>
			</output>
		</layer>
		<layer id="73" name="conv5_1/dw/bn/variance/Fused_Add_" type="Add" version="opset1">
			<data auto_broadcast="numpy"/>
			<rt_info>
				<attribute name="fused_names" version="0" value="conv5_1/dw/bn/variance/Fused_Add_"/>
			</rt_info>
			<input>
				<port id="0" precision="FP32">
					<dim>1</dim>
					<dim>352</dim>
					<dim>24</dim>
					<dim>42</dim>
				</port>
				<port id="1" precision="FP32">
					<dim>1</dim>
					<dim>352</dim>
					<dim>1</dim>
					<dim>1</dim>
				</port>
			</input>
			<output>
				<port id="2" precision="FP32" names="conv5_1/dw">
					<dim>1</dim>
					<dim>352</dim>
					<dim>24</dim>
					<dim>42</dim>
				</port>
			</output>
		</layer>
		<layer id="74" name="relu5_1/dw" type="ReLU" version="opset1">
			<rt_info>
				<attribute name="fused_names" version="0" value="relu5_1/dw"/>
			</rt_info>
			<input>
				<port id="0" precision="FP32">
					<dim>1</dim>
					<dim>352</dim>
					<dim>24</dim>
					<dim>42</dim>
				</port>
			</input>
			<output>
				<port id="1" precision="FP32" names="conv5_1/dw">
					<dim>1</dim>
					<dim>352</dim>
					<dim>24</dim>
					<dim>42</dim>
				</port>
			</output>
		</layer>
		<layer id="75" name="conv5_1/sep/bn/mean/Fused_Mul__copy" type="Const" version="opset1">
			<data element_type="f32" shape="320, 352, 1, 1" offset="701584" size="450560"/>
			<rt_info>
				<attribute name="fused_names" version="0" value="conv5_1/sep/bn/mean/Fused_Mul__copy"/>
			</rt_info>
			<output>
				<port id="0" precision="FP32">
					<dim>320</dim>
					<dim>352</dim>
					<dim>1</dim>
					<dim>1</dim>
				</port>
			</output>
		</layer>
		<layer id="76" name="conv5_1/sep" type="Convolution" version="opset1">
			<data strides="1, 1" dilations="1, 1" pads_begin="0, 0" pads_end="0, 0" auto_pad="explicit"/>
			<rt_info>
				<attribute name="fused_names" version="0" value="conv5_1/sep"/>
			</rt_info>
			<input>
				<port id="0" precision="FP32">
					<dim>1</dim>
					<dim>352</dim>
					<dim>24</dim>
					<dim>42</dim>
				</port>
				<port id="1" precision="FP32">
					<dim>320</dim>
					<dim>352</dim>
					<dim>1</dim>
					<dim>1</dim>
				</port>
			</input>
			<output>
				<port id="2" precision="FP32">
					<dim>1</dim>
					<dim>320</dim>
					<dim>24</dim>
					<dim>42</dim>
				</port>
			</output>
		</layer>
		<layer id="77" name="data_add_1115111156" type="Const" version="opset1">
			<data element_type="f32" shape="1, 320, 1, 1" offset="1152144" size="1280"/>
			<rt_info>
				<attribute name="fused_names" version="0" value="data_add_1115111156"/>
			</rt_info>
			<output>
				<port id="0" precision="FP32">
					<dim>1</dim>
					<dim>320</dim>
					<dim>1</dim>
					<dim>1</dim>
				</port>
			</output>
		</layer>
		<layer id="78" name="conv5_1/sep/bn/variance/Fused_Add_" type="Add" version="opset1">
			<data auto_broadcast="numpy"/>
			<rt_info>
				<attribute name="fused_names" version="0" value="conv5_1/sep/bn/variance/Fused_Add_"/>
			</rt_info>
			<input>
				<port id="0" precision="FP32">
					<dim>1</dim>
					<dim>320</dim>
					<dim>24</dim>
					<dim>42</dim>
				</port>
				<port id="1" precision="FP32">
					<dim>1</dim>
					<dim>320</dim>
					<dim>1</dim>
					<dim>1</dim>
				</port>
			</input>
			<output>
				<port id="2" precision="FP32" names="conv5_1/sep">
					<dim>1</dim>
					<dim>320</dim>
					<dim>24</dim>
					<dim>42</dim>
				</port>
			</output>
		</layer>
		<layer id="79" name="relu5_1/sep" type="ReLU" version="opset1">
			<rt_info>
				<attribute name="fused_names" version="0" value="relu5_1/sep"/>
			</rt_info>
			<input>
				<port id="0" precision="FP32">
					<dim>1</dim>
					<dim>320</dim>
					<dim>24</dim>
					<dim>42</dim>
				</port>
			</input>
			<output>
				<port id="1" precision="FP32" names="conv5_1/sep">
					<dim>1</dim>
					<dim>320</dim>
					<dim>24</dim>
					<dim>42</dim>
				</port>
			</output>
		</layer>
		<layer id="80" name="conv5_2/dw/bn/mean/Fused_Mul__copy" type="Const" version="opset1">
			<data element_type="f32" shape="320, 1, 1, 3, 3" offset="1153424" size="11520"/>
			<rt_info>
				<attribute name="fused_names" version="0" value="conv5_2/dw/bn/mean/Fused_Mul__copy"/>
			</rt_info>
			<output>
				<port id="0" precision="FP32">
					<dim>320</dim>
					<dim>1</dim>
					<dim>1</dim>
					<dim>3</dim>
					<dim>3</dim>
				</port>
			</output>
		</layer>
		<layer id="81" name="conv5_2/dw" type="GroupConvolution" version="opset1">
			<data strides="1, 1" pads_begin="1, 1" pads_end="1, 1" dilations="1, 1" auto_pad="explicit"/>
			<rt_info>
				<attribute name="fused_names" version="0" value="conv5_2/dw"/>
			</rt_info>
			<input>
				<port id="0" precision="FP32">
					<dim>1</dim>
					<dim>320</dim>
					<dim>24</dim>
					<dim>42</dim>
				</port>
				<port id="1" precision="FP32">
					<dim>320</dim>
					<dim>1</dim>
					<dim>1</dim>
					<dim>3</dim>
					<dim>3</dim>
				</port>
			</input>
			<output>
				<port id="2" precision="FP32">
					<dim>1</dim>
					<dim>320</dim>
					<dim>24</dim>
					<dim>42</dim>
				</port>
			</output>
		</layer>
		<layer id="82" name="data_add_1115911164" type="Const" version="opset1">
			<data element_type="f32" shape="1, 320, 1, 1" offset="1164944" size="1280"/>
			<rt_info>
				<attribute name="fused_names" version="0" value="data_add_1115911164"/>
			</rt_info>
			<output>
				<port id="0" precision="FP32">
					<dim>1</dim>
					<dim>320</dim>
					<dim>1</dim>
					<dim>1</dim>
				</port>
			</output>
		</layer>
		<layer id="83" name="conv5_2/dw/bn/variance/Fused_Add_" type="Add" version="opset1">
			<data auto_broadcast="numpy"/>
			<rt_info>
				<attribute name="fused_names" version="0" value="conv5_2/dw/bn/variance/Fused_Add_"/>
			</rt_info>
			<input>
				<port id="0" precision="FP32">
					<dim>1</dim>
					<dim>320</dim>
					<dim>24</dim>
					<dim>42</dim>
				</port>
				<port id="1" precision="FP32">
					<dim>1</dim>
					<dim>320</dim>
					<dim>1</dim>
					<dim>1</dim>
				</port>
			</input>
			<output>
				<port id="2" precision="FP32" names="conv5_2/dw">
					<dim>1</dim>
					<dim>320</dim>
					<dim>24</dim>
					<dim>42</dim>
				</port>
			</output>
		</layer>
		<layer id="84" name="relu5_2/dw" type="ReLU" version="opset1">
			<rt_info>
				<attribute name="fused_names" version="0" value="relu5_2/dw"/>
			</rt_info>
			<input>
				<port id="0" precision="FP32">
					<dim>1</dim>
					<dim>320</dim>
					<dim>24</dim>
					<dim>42</dim>
				</port>
			</input>
			<output>
				<port id="1" precision="FP32" names="conv5_2/dw">
					<dim>1</dim>
					<dim>320</dim>
					<dim>24</dim>
					<dim>42</dim>
				</port>
			</output>
		</layer>
		<layer id="85" name="conv5_2/sep/bn/mean/Fused_Mul__copy" type="Const" version="opset1">
			<data element_type="f32" shape="296, 320, 1, 1" offset="1166224" size="378880"/>
			<rt_info>
				<attribute name="fused_names" version="0" value="conv5_2/sep/bn/mean/Fused_Mul__copy"/>
			</rt_info>
			<output>
				<port id="0" precision="FP32">
					<dim>296</dim>
					<dim>320</dim>
					<dim>1</dim>
					<dim>1</dim>
				</port>
			</output>
		</layer>
		<layer id="86" name="conv5_2/sep" type="Convolution" version="opset1">
			<data strides="1, 1" dilations="1, 1" pads_begin="0, 0" pads_end="0, 0" auto_pad="explicit"/>
			<rt_info>
				<attribute name="fused_names" version="0" value="conv5_2/sep"/>
			</rt_info>
			<input>
				<port id="0" precision="FP32">
					<dim>1</dim>
					<dim>320</dim>
					<dim>24</dim>
					<dim>42</dim>
				</port>
				<port id="1" precision="FP32">
					<dim>296</dim>
					<dim>320</dim>
					<dim>1</dim>
					<dim>1</dim>
				</port>
			</input>
			<output>
				<port id="2" precision="FP32">
					<dim>1</dim>
					<dim>296</dim>
					<dim>24</dim>
					<dim>42</dim>
				</port>
			</output>
		</layer>
		<layer id="87" name="data_add_1116711172" type="Const" version="opset1">
			<data element_type="f32" shape="1, 296, 1, 1" offset="1545104" size="1184"/>
			<rt_info>
				<attribute name="fused_names" version="0" value="data_add_1116711172"/>
			</rt_info>
			<output>
				<port id="0" precision="FP32">
					<dim>1</dim>
					<dim>296</dim>
					<dim>1</dim>
					<dim>1</dim>
				</port>
			</output>
		</layer>
		<layer id="88" name="conv5_2/sep/bn/variance/Fused_Add_" type="Add" version="opset1">
			<data auto_broadcast="numpy"/>
			<rt_info>
				<attribute name="fused_names" version="0" value="conv5_2/sep/bn/variance/Fused_Add_"/>
			</rt_info>
			<input>
				<port id="0" precision="FP32">
					<dim>1</dim>
					<dim>296</dim>
					<dim>24</dim>
					<dim>42</dim>
				</port>
				<port id="1" precision="FP32">
					<dim>1</dim>
					<dim>296</dim>
					<dim>1</dim>
					<dim>1</dim>
				</port>
			</input>
			<output>
				<port id="2" precision="FP32" names="conv5_2/sep">
					<dim>1</dim>
					<dim>296</dim>
					<dim>24</dim>
					<dim>42</dim>
				</port>
			</output>
		</layer>
		<layer id="89" name="relu5_2/sep" type="ReLU" version="opset1">
			<rt_info>
				<attribute name="fused_names" version="0" value="relu5_2/sep"/>
			</rt_info>
			<input>
				<port id="0" precision="FP32">
					<dim>1</dim>
					<dim>296</dim>
					<dim>24</dim>
					<dim>42</dim>
				</port>
			</input>
			<output>
				<port id="1" precision="FP32" names="conv5_2/sep">
					<dim>1</dim>
					<dim>296</dim>
					<dim>24</dim>
					<dim>42</dim>
				</port>
			</output>
		</layer>
		<layer id="90" name="conv5_3/dw/bn/mean/Fused_Mul__copy" type="Const" version="opset1">
			<data element_type="f32" shape="296, 1, 1, 3, 3" offset="1546288" size="10656"/>
			<rt_info>
				<attribute name="fused_names" version="0" value="conv5_3/dw/bn/mean/Fused_Mul__copy"/>
			</rt_info>
			<output>
				<port id="0" precision="FP32">
					<dim>296</dim>
					<dim>1</dim>
					<dim>1</dim>
					<dim>3</dim>
					<dim>3</dim>
				</port>
			</output>
		</layer>
		<layer id="91" name="conv5_3/dw" type="GroupConvolution" version="opset1">
			<data strides="1, 1" pads_begin="1, 1" pads_end="1, 1" dilations="1, 1" auto_pad="explicit"/>
			<rt_info>
				<attribute name="fused_names" version="0" value="conv5_3/dw"/>
			</rt_info>
			<input>
				<port id="0" precision="FP32">
					<dim>1</dim>
					<dim>296</dim>
					<dim>24</dim>
					<dim>42</dim>
				</port>
				<port id="1" precision="FP32">
					<dim>296</dim>
					<dim>1</dim>
					<dim>1</dim>
					<dim>3</dim>
					<dim>3</dim>
				</port>
			</input>
			<output>
				<port id="2" precision="FP32">
					<dim>1</dim>
					<dim>296</dim>
					<dim>24</dim>
					<dim>42</dim>
				</port>
			</output>
		</layer>
		<layer id="92" name="data_add_1117511180" type="Const" version="opset1">
			<data element_type="f32" shape="1, 296, 1, 1" offset="1556944" size="1184"/>
			<rt_info>
				<attribute name="fused_names" version="0" value="data_add_1117511180"/>
			</rt_info>
			<output>
				<port id="0" precision="FP32">
					<dim>1</dim>
					<dim>296</dim>
					<dim>1</dim>
					<dim>1</dim>
				</port>
			</output>
		</layer>
		<layer id="93" name="conv5_3/dw/bn/variance/Fused_Add_" type="Add" version="opset1">
			<data auto_broadcast="numpy"/>
			<rt_info>
				<attribute name="fused_names" version="0" value="conv5_3/dw/bn/variance/Fused_Add_"/>
			</rt_info>
			<input>
				<port id="0" precision="FP32">
					<dim>1</dim>
					<dim>296</dim>
					<dim>24</dim>
					<dim>42</dim>
				</port>
				<port id="1" precision="FP32">
					<dim>1</dim>
					<dim>296</dim>
					<dim>1</dim>
					<dim>1</dim>
				</port>
			</input>
			<output>
				<port id="2" precision="FP32" names="conv5_3/dw">
					<dim>1</dim>
					<dim>296</dim>
					<dim>24</dim>
					<dim>42</dim>
				</port>
			</output>
		</layer>
		<layer id="94" name="relu5_3/dw" type="ReLU" version="opset1">
			<rt_info>
				<attribute name="fused_names" version="0" value="relu5_3/dw"/>
			</rt_info>
			<input>
				<port id="0" precision="FP32">
					<dim>1</dim>
					<dim>296</dim>
					<dim>24</dim>
					<dim>42</dim>
				</port>
			</input>
			<output>
				<port id="1" precision="FP32" names="conv5_3/dw">
					<dim>1</dim>
					<dim>296</dim>
					<dim>24</dim>
					<dim>42</dim>
				</port>
			</output>
		</layer>
		<layer id="95" name="conv5_3/sep/bn/mean/Fused_Mul__copy" type="Const" version="opset1">
			<data element_type="f32" shape="248, 296, 1, 1" offset="1558128" size="293632"/>
			<rt_info>
				<attribute name="fused_names" version="0" value="conv5_3/sep/bn/mean/Fused_Mul__copy"/>
			</rt_info>
			<output>
				<port id="0" precision="FP32">
					<dim>248</dim>
					<dim>296</dim>
					<dim>1</dim>
					<dim>1</dim>
				</port>
			</output>
		</layer>
		<layer id="96" name="conv5_3/sep" type="Convolution" version="opset1">
			<data strides="1, 1" dilations="1, 1" pads_begin="0, 0" pads_end="0, 0" auto_pad="explicit"/>
			<rt_info>
				<attribute name="fused_names" version="0" value="conv5_3/sep"/>
			</rt_info>
			<input>
				<port id="0" precision="FP32">
					<dim>1</dim>
					<dim>296</dim>
					<dim>24</dim>
					<dim>42</dim>
				</port>
				<port id="1" precision="FP32">
					<dim>248</dim>
					<dim>296</dim>
					<dim>1</dim>
					<dim>1</dim>
				</port>
			</input>
			<output>
				<port id="2" precision="FP32">
					<dim>1</dim>
					<dim>248</dim>
					<dim>24</dim>
					<dim>42</dim>
				</port>
			</output>
		</layer>
		<layer id="97" name="data_add_1118311188" type="Const" version="opset1">
			<data element_type="f32" shape="1, 248, 1, 1" offset="1851760" size="992"/>
			<rt_info>
				<attribute name="fused_names" version="0" value="data_add_1118311188"/>
			</rt_info>
			<output>
				<port id="0" precision="FP32">
					<dim>1</dim>
					<dim>248</dim>
					<dim>1</dim>
					<dim>1</dim>
				</port>
			</output>
		</layer>
		<layer id="98" name="conv5_3/sep/bn/variance/Fused_Add_" type="Add" version="opset1">
			<data auto_broadcast="numpy"/>
			<rt_info>
				<attribute name="fused_names" version="0" value="conv5_3/sep/bn/variance/Fused_Add_"/>
			</rt_info>
			<input>
				<port id="0" precision="FP32">
					<dim>1</dim>
					<dim>248</dim>
					<dim>24</dim>
					<dim>42</dim>
				</port>
				<port id="1" precision="FP32">
					<dim>1</dim>
					<dim>248</dim>
					<dim>1</dim>
					<dim>1</dim>
				</port>
			</input>
			<output>
				<port id="2" precision="FP32" names="conv5_3/sep">
					<dim>1</dim>
					<dim>248</dim>
					<dim>24</dim>
					<dim>42</dim>
				</port>
			</output>
		</layer>
		<layer id="99" name="relu5_3/sep" type="ReLU" version="opset1">
			<rt_info>
				<attribute name="fused_names" version="0" value="relu5_3/sep"/>
			</rt_info>
			<input>
				<port id="0" precision="FP32">
					<dim>1</dim>
					<dim>248</dim>
					<dim>24</dim>
					<dim>42</dim>
				</port>
			</input>
			<output>
				<port id="1" precision="FP32" names="conv5_3/sep">
					<dim>1</dim>
					<dim>248</dim>
					<dim>24</dim>
					<dim>42</dim>
				</port>
			</output>
		</layer>
		<layer id="100" name="conv5_4/dw/bn/mean/Fused_Mul__copy" type="Const" version="opset1">
			<data element_type="f32" shape="248, 1, 1, 3, 3" offset="1852752" size="8928"/>
			<rt_info>
				<attribute name="fused_names" version="0" value="conv5_4/dw/bn/mean/Fused_Mul__copy"/>
			</rt_info>
			<output>
				<port id="0" precision="FP32">
					<dim>248</dim>
					<dim>1</dim>
					<dim>1</dim>
					<dim>3</dim>
					<dim>3</dim>
				</port>
			</output>
		</layer>
		<layer id="101" name="conv5_4/dw" type="GroupConvolution" version="opset1">
			<data strides="1, 1" pads_begin="1, 1" pads_end="1, 1" dilations="1, 1" auto_pad="explicit"/>
			<rt_info>
				<attribute name="fused_names" version="0" value="conv5_4/dw"/>
			</rt_info>
			<input>
				<port id="0" precision="FP32">
					<dim>1</dim>
					<dim>248</dim>
					<dim>24</dim>
					<dim>42</dim>
				</port>
				<port id="1" precision="FP32">
					<dim>248</dim>
					<dim>1</dim>
					<dim>1</dim>
					<dim>3</dim>
					<dim>3</dim>
				</port>
			</input>
			<output>
				<port id="2" precision="FP32">
					<dim>1</dim>
					<dim>248</dim>
					<dim>24</dim>
					<dim>42</dim>
				</port>
			</output>
		</layer>
		<layer id="102" name="data_add_1119111196" type="Const" version="opset1">
			<data element_type="f32" shape="1, 248, 1, 1" offset="1861680" size="992"/>
			<rt_info>
				<attribute name="fused_names" version="0" value="data_add_1119111196"/>
			</rt_info>
			<output>
				<port id="0" precision="FP32">
					<dim>1</dim>
					<dim>248</dim>
					<dim>1</dim>
					<dim>1</dim>
				</port>
			</output>
		</layer>
		<layer id="103" name="conv5_4/dw/bn/variance/Fused_Add_" type="Add" version="opset1">
			<data auto_broadcast="numpy"/>
			<rt_info>
				<attribute name="fused_names" version="0" value="conv5_4/dw/bn/variance/Fused_Add_"/>
			</rt_info>
			<input>
				<port id="0" precision="FP32">
					<dim>1</dim>
					<dim>248</dim>
					<dim>24</dim>
					<dim>42</dim>
				</port>
				<port id="1" precision="FP32">
					<dim>1</dim>
					<dim>248</dim>
					<dim>1</dim>
					<dim>1</dim>
				</port>
			</input>
			<output>
				<port id="2" precision="FP32" names="conv5_4/dw">
					<dim>1</dim>
					<dim>248</dim>
					<dim>24</dim>
					<dim>42</dim>
				</port>
			</output>
		</layer>
		<layer id="104" name="relu5_4/dw" type="ReLU" version="opset1">
			<rt_info>
				<attribute name="fused_names" version="0" value="relu5_4/dw"/>
			</rt_info>
			<input>
				<port id="0" precision="FP32">
					<dim>1</dim>
					<dim>248</dim>
					<dim>24</dim>
					<dim>42</dim>
				</port>
			</input>
			<output>
				<port id="1" precision="FP32" names="conv5_4/dw">
					<dim>1</dim>
					<dim>248</dim>
					<dim>24</dim>
					<dim>42</dim>
				</port>
			</output>
		</layer>
		<layer id="105" name="conv5_4/sep/bn/mean/Fused_Mul__copy" type="Const" version="opset1">
			<data element_type="f32" shape="272, 248, 1, 1" offset="1862672" size="269824"/>
			<rt_info>
				<attribute name="fused_names" version="0" value="conv5_4/sep/bn/mean/Fused_Mul__copy"/>
			</rt_info>
			<output>
				<port id="0" precision="FP32">
					<dim>272</dim>
					<dim>248</dim>
					<dim>1</dim>
					<dim>1</dim>
				</port>
			</output>
		</layer>
		<layer id="106" name="conv5_4/sep" type="Convolution" version="opset1">
			<data strides="1, 1" dilations="1, 1" pads_begin="0, 0" pads_end="0, 0" auto_pad="explicit"/>
			<rt_info>
				<attribute name="fused_names" version="0" value="conv5_4/sep"/>
			</rt_info>
			<input>
				<port id="0" precision="FP32">
					<dim>1</dim>
					<dim>248</dim>
					<dim>24</dim>
					<dim>42</dim>
				</port>
				<port id="1" precision="FP32">
					<dim>272</dim>
					<dim>248</dim>
					<dim>1</dim>
					<dim>1</dim>
				</port>
			</input>
			<output>
				<port id="2" precision="FP32">
					<dim>1</dim>
					<dim>272</dim>
					<dim>24</dim>
					<dim>42</dim>
				</port>
			</output>
		</layer>
		<layer id="107" name="data_add_1119911204" type="Const" version="opset1">
			<data element_type="f32" shape="1, 272, 1, 1" offset="2132496" size="1088"/>
			<rt_info>
				<attribute name="fused_names" version="0" value="data_add_1119911204"/>
			</rt_info>
			<output>
				<port id="0" precision="FP32">
					<dim>1</dim>
					<dim>272</dim>
					<dim>1</dim>
					<dim>1</dim>
				</port>
			</output>
		</layer>
		<layer id="108" name="conv5_4/sep/bn/variance/Fused_Add_" type="Add" version="opset1">
			<data auto_broadcast="numpy"/>
			<rt_info>
				<attribute name="fused_names" version="0" value="conv5_4/sep/bn/variance/Fused_Add_"/>
			</rt_info>
			<input>
				<port id="0" precision="FP32">
					<dim>1</dim>
					<dim>272</dim>
					<dim>24</dim>
					<dim>42</dim>
				</port>
				<port id="1" precision="FP32">
					<dim>1</dim>
					<dim>272</dim>
					<dim>1</dim>
					<dim>1</dim>
				</port>
			</input>
			<output>
				<port id="2" precision="FP32" names="conv5_4/sep">
					<dim>1</dim>
					<dim>272</dim>
					<dim>24</dim>
					<dim>42</dim>
				</port>
			</output>
		</layer>
		<layer id="109" name="relu5_4/sep" type="ReLU" version="opset1">
			<rt_info>
				<attribute name="fused_names" version="0" value="relu5_4/sep"/>
			</rt_info>
			<input>
				<port id="0" precision="FP32">
					<dim>1</dim>
					<dim>272</dim>
					<dim>24</dim>
					<dim>42</dim>
				</port>
			</input>
			<output>
				<port id="1" precision="FP32" names="conv5_4/sep">
					<dim>1</dim>
					<dim>272</dim>
					<dim>24</dim>
					<dim>42</dim>
				</port>
			</output>
		</layer>
		<layer id="110" name="conv5_5/dw/bn/mean/Fused_Mul__copy" type="Const" version="opset1">
			<data element_type="f32" shape="272, 1, 1, 3, 3" offset="2133584" size="9792"/>
			<rt_info>
				<attribute name="fused_names" version="0" value="conv5_5/dw/bn/mean/Fused_Mul__copy"/>
			</rt_info>
			<output>
				<port id="0" precision="FP32">
					<dim>272</dim>
					<dim>1</dim>
					<dim>1</dim>
					<dim>3</dim>
					<dim>3</dim>
				</port>
			</output>
		</layer>
		<layer id="111" name="conv5_5/dw" type="GroupConvolution" version="opset1">
			<data strides="1, 1" pads_begin="1, 1" pads_end="1, 1" dilations="1, 1" auto_pad="explicit"/>
			<rt_info>
				<attribute name="fused_names" version="0" value="conv5_5/dw"/>
			</rt_info>
			<input>
				<port id="0" precision="FP32">
					<dim>1</dim>
					<dim>272</dim>
					<dim>24</dim>
					<dim>42</dim>
				</port>
				<port id="1" precision="FP32">
					<dim>272</dim>
					<dim>1</dim>
					<dim>1</dim>
					<dim>3</dim>
					<dim>3</dim>
				</port>
			</input>
			<output>
				<port id="2" precision="FP32">
					<dim>1</dim>
					<dim>272</dim>
					<dim>24</dim>
					<dim>42</dim>
				</port>
			</output>
		</layer>
		<layer id="112" name="data_add_1120711212" type="Const" version="opset1">
			<data element_type="f32" shape="1, 272, 1, 1" offset="2143376" size="1088"/>
			<rt_info>
				<attribute name="fused_names" version="0" value="data_add_1120711212"/>
			</rt_info>
			<output>
				<port id="0" precision="FP32">
					<dim>1</dim>
					<dim>272</dim>
					<dim>1</dim>
					<dim>1</dim>
				</port>
			</output>
		</layer>
		<layer id="113" name="conv5_5/dw/bn/variance/Fused_Add_" type="Add" version="opset1">
			<data auto_broadcast="numpy"/>
			<rt_info>
				<attribute name="fused_names" version="0" value="conv5_5/dw/bn/variance/Fused_Add_"/>
			</rt_info>
			<input>
				<port id="0" precision="FP32">
					<dim>1</dim>
					<dim>272</dim>
					<dim>24</dim>
					<dim>42</dim>
				</port>
				<port id="1" precision="FP32">
					<dim>1</dim>
					<dim>272</dim>
					<dim>1</dim>
					<dim>1</dim>
				</port>
			</input>
			<output>
				<port id="2" precision="FP32" names="conv5_5/dw">
					<dim>1</dim>
					<dim>272</dim>
					<dim>24</dim>
					<dim>42</dim>
				</port>
			</output>
		</layer>
		<layer id="114" name="relu5_5/dw" type="ReLU" version="opset1">
			<rt_info>
				<attribute name="fused_names" version="0" value="relu5_5/dw"/>
			</rt_info>
			<input>
				<port id="0" precision="FP32">
					<dim>1</dim>
					<dim>272</dim>
					<dim>24</dim>
					<dim>42</dim>
				</port>
			</input>
			<output>
				<port id="1" precision="FP32" names="conv5_5/dw">
					<dim>1</dim>
					<dim>272</dim>
					<dim>24</dim>
					<dim>42</dim>
				</port>
			</output>
		</layer>
		<layer id="115" name="conv5_5/sep/bn/mean/Fused_Mul__copy" type="Const" version="opset1">
			<data element_type="f32" shape="176, 272, 1, 1" offset="2144464" size="191488"/>
			<rt_info>
				<attribute name="fused_names" version="0" value="conv5_5/sep/bn/mean/Fused_Mul__copy"/>
			</rt_info>
			<output>
				<port id="0" precision="FP32">
					<dim>176</dim>
					<dim>272</dim>
					<dim>1</dim>
					<dim>1</dim>
				</port>
			</output>
		</layer>
		<layer id="116" name="conv5_5/sep" type="Convolution" version="opset1">
			<data strides="1, 1" dilations="1, 1" pads_begin="0, 0" pads_end="0, 0" auto_pad="explicit"/>
			<rt_info>
				<attribute name="fused_names" version="0" value="conv5_5/sep"/>
			</rt_info>
			<input>
				<port id="0" precision="FP32">
					<dim>1</dim>
					<dim>272</dim>
					<dim>24</dim>
					<dim>42</dim>
				</port>
				<port id="1" precision="FP32">
					<dim>176</dim>
					<dim>272</dim>
					<dim>1</dim>
					<dim>1</dim>
				</port>
			</input>
			<output>
				<port id="2" precision="FP32">
					<dim>1</dim>
					<dim>176</dim>
					<dim>24</dim>
					<dim>42</dim>
				</port>
			</output>
		</layer>
		<layer id="117" name="data_add_1121511220" type="Const" version="opset1">
			<data element_type="f32" shape="1, 176, 1, 1" offset="2335952" size="704"/>
			<rt_info>
				<attribute name="fused_names" version="0" value="data_add_1121511220"/>
			</rt_info>
			<output>
				<port id="0" precision="FP32">
					<dim>1</dim>
					<dim>176</dim>
					<dim>1</dim>
					<dim>1</dim>
				</port>
			</output>
		</layer>
		<layer id="118" name="conv5_5/sep/bn/variance/Fused_Add_" type="Add" version="opset1">
			<data auto_broadcast="numpy"/>
			<rt_info>
				<attribute name="fused_names" version="0" value="conv5_5/sep/bn/variance/Fused_Add_"/>
			</rt_info>
			<input>
				<port id="0" precision="FP32">
					<dim>1</dim>
					<dim>176</dim>
					<dim>24</dim>
					<dim>42</dim>
				</port>
				<port id="1" precision="FP32">
					<dim>1</dim>
					<dim>176</dim>
					<dim>1</dim>
					<dim>1</dim>
				</port>
			</input>
			<output>
				<port id="2" precision="FP32" names="conv5_5/sep">
					<dim>1</dim>
					<dim>176</dim>
					<dim>24</dim>
					<dim>42</dim>
				</port>
			</output>
		</layer>
		<layer id="119" name="relu5_5/sep" type="ReLU" version="opset1">
			<rt_info>
				<attribute name="fused_names" version="0" value="relu5_5/sep"/>
			</rt_info>
			<input>
				<port id="0" precision="FP32">
					<dim>1</dim>
					<dim>176</dim>
					<dim>24</dim>
					<dim>42</dim>
				</port>
			</input>
			<output>
				<port id="1" precision="FP32" names="conv5_5/sep">
					<dim>1</dim>
					<dim>176</dim>
					<dim>24</dim>
					<dim>42</dim>
				</port>
			</output>
		</layer>
		<layer id="120" name="375" type="Const" version="opset1">
			<data element_type="f32" shape="16, 176, 3, 3" offset="2336656" size="101376"/>
			<rt_info>
				<attribute name="fused_names" version="0" value="375"/>
			</rt_info>
			<output>
				<port id="0" precision="FP32">
					<dim>16</dim>
					<dim>176</dim>
					<dim>3</dim>
					<dim>3</dim>
				</port>
			</output>
		</layer>
		<layer id="121" name="conv4_3_0_norm_mbox_loc/WithoutBiases" type="Convolution" version="opset1">
			<data strides="1, 1" dilations="1, 1" pads_begin="1, 1" pads_end="1, 1" auto_pad="explicit"/>
			<rt_info>
				<attribute name="fused_names" version="0" value="conv4_3_0_norm_mbox_loc/WithoutBiases"/>
			</rt_info>
			<input>
				<port id="0" precision="FP32">
					<dim>1</dim>
					<dim>176</dim>
					<dim>24</dim>
					<dim>42</dim>
				</port>
				<port id="1" precision="FP32">
					<dim>16</dim>
					<dim>176</dim>
					<dim>3</dim>
					<dim>3</dim>
				</port>
			</input>
			<output>
				<port id="2" precision="FP32">
					<dim>1</dim>
					<dim>16</dim>
					<dim>24</dim>
					<dim>42</dim>
				</port>
			</output>
		</layer>
		<layer id="122" name="conv4_3_0_norm_mbox_loc/Dims6383" type="Const" version="opset1">
			<data element_type="f32" shape="1, 16, 1, 1" offset="2438032" size="64"/>
			<rt_info>
				<attribute name="fused_names" version="0" value="conv4_3_0_norm_mbox_loc/Dims6383"/>
			</rt_info>
			<output>
				<port id="0" precision="FP32">
					<dim>1</dim>
					<dim>16</dim>
					<dim>1</dim>
					<dim>1</dim>
				</port>
			</output>
		</layer>
		<layer id="123" name="conv4_3_0_norm_mbox_loc" type="Add" version="opset1">
			<data auto_broadcast="numpy"/>
			<rt_info>
				<attribute name="fused_names" version="0" value="conv4_3_0_norm_mbox_loc"/>
			</rt_info>
			<input>
				<port id="0" precision="FP32">
					<dim>1</dim>
					<dim>16</dim>
					<dim>24</dim>
					<dim>42</dim>
				</port>
				<port id="1" precision="FP32">
					<dim>1</dim>
					<dim>16</dim>
					<dim>1</dim>
					<dim>1</dim>
				</port>
			</input>
			<output>
				<port id="2" precision="FP32" names="conv4_3_0_norm_mbox_loc">
					<dim>1</dim>
					<dim>16</dim>
					<dim>24</dim>
					<dim>42</dim>
				</port>
			</output>
		</layer>
		<layer id="124" name="567" type="Const" version="opset1">
			<data element_type="i64" shape="4" offset="2438096" size="32"/>
			<rt_info>
				<attribute name="fused_names" version="0" value="567"/>
			</rt_info>
			<output>
				<port id="0" precision="I64">
					<dim>4</dim>
				</port>
			</output>
		</layer>
		<layer id="125" name="conv4_3_0_norm_mbox_loc_perm" type="Transpose" version="opset1">
			<rt_info>
				<attribute name="fused_names" version="0" value="conv4_3_0_norm_mbox_loc_perm"/>
			</rt_info>
			<input>
				<port id="0" precision="FP32">
					<dim>1</dim>
					<dim>16</dim>
					<dim>24</dim>
					<dim>42</dim>
				</port>
				<port id="1" precision="I64">
					<dim>4</dim>
				</port>
			</input>
			<output>
				<port id="2" precision="FP32" names="conv4_3_0_norm_mbox_loc_perm">
					<dim>1</dim>
					<dim>24</dim>
					<dim>42</dim>
					<dim>16</dim>
				</port>
			</output>
		</layer>
		<layer id="126" name="632/shapes_concat" type="Const" version="opset1">
			<data element_type="i64" shape="2" offset="2438128" size="16"/>
			<rt_info>
				<attribute name="fused_names" version="0" value="632/shapes_concat"/>
			</rt_info>
			<output>
				<port id="0" precision="I64">
					<dim>2</dim>
				</port>
			</output>
		</layer>
		<layer id="127" name="conv4_3_0_norm_mbox_loc_flat" type="Reshape" version="opset1">
			<data special_zero="true"/>
			<rt_info>
				<attribute name="fused_names" version="0" value="conv4_3_0_norm_mbox_loc_flat"/>
			</rt_info>
			<input>
				<port id="0" precision="FP32">
					<dim>1</dim>
					<dim>24</dim>
					<dim>42</dim>
					<dim>16</dim>
				</port>
				<port id="1" precision="I64">
					<dim>2</dim>
				</port>
			</input>
			<output>
				<port id="2" precision="FP32" names="conv4_3_0_norm_mbox_loc_flat">
					<dim>1</dim>
					<dim>16128</dim>
				</port>
			</output>
		</layer>
		<layer id="128" name="361" type="Const" version="opset1">
			<data element_type="f32" shape="16, 176, 3, 3" offset="2438144" size="101376"/>
			<rt_info>
				<attribute name="fused_names" version="0" value="361"/>
			</rt_info>
			<output>
				<port id="0" precision="FP32">
					<dim>16</dim>
					<dim>176</dim>
					<dim>3</dim>
					<dim>3</dim>
				</port>
			</output>
		</layer>
		<layer id="129" name="conv4_3_norm_mbox_loc/WithoutBiases" type="Convolution" version="opset1">
			<data strides="1, 1" dilations="1, 1" pads_begin="1, 1" pads_end="1, 1" auto_pad="explicit"/>
			<rt_info>
				<attribute name="fused_names" version="0" value="conv4_3_norm_mbox_loc/WithoutBiases"/>
			</rt_info>
			<input>
				<port id="0" precision="FP32">
					<dim>1</dim>
					<dim>176</dim>
					<dim>24</dim>
					<dim>42</dim>
				</port>
				<port id="1" precision="FP32">
					<dim>16</dim>
					<dim>176</dim>
					<dim>3</dim>
					<dim>3</dim>
				</port>
			</input>
			<output>
				<port id="2" precision="FP32">
					<dim>1</dim>
					<dim>16</dim>
					<dim>24</dim>
					<dim>42</dim>
				</port>
			</output>
		</layer>
		<layer id="130" name="conv4_3_norm_mbox_loc/Dims6353" type="Const" version="opset1">
			<data element_type="f32" shape="1, 16, 1, 1" offset="2539520" size="64"/>
			<rt_info>
				<attribute name="fused_names" version="0" value="conv4_3_norm_mbox_loc/Dims6353"/>
			</rt_info>
			<output>
				<port id="0" precision="FP32">
					<dim>1</dim>
					<dim>16</dim>
					<dim>1</dim>
					<dim>1</dim>
				</port>
			</output>
		</layer>
		<layer id="131" name="conv4_3_norm_mbox_loc" type="Add" version="opset1">
			<data auto_broadcast="numpy"/>
			<rt_info>
				<attribute name="fused_names" version="0" value="conv4_3_norm_mbox_loc"/>
			</rt_info>
			<input>
				<port id="0" precision="FP32">
					<dim>1</dim>
					<dim>16</dim>
					<dim>24</dim>
					<dim>42</dim>
				</port>
				<port id="1" precision="FP32">
					<dim>1</dim>
					<dim>16</dim>
					<dim>1</dim>
					<dim>1</dim>
				</port>
			</input>
			<output>
				<port id="2" precision="FP32" names="conv4_3_norm_mbox_loc">
					<dim>1</dim>
					<dim>16</dim>
					<dim>24</dim>
					<dim>42</dim>
				</port>
			</output>
		</layer>
		<layer id="132" name="568" type="Const" version="opset1">
			<data element_type="i64" shape="4" offset="2438096" size="32"/>
			<rt_info>
				<attribute name="fused_names" version="0" value="568"/>
			</rt_info>
			<output>
				<port id="0" precision="I64">
					<dim>4</dim>
				</port>
			</output>
		</layer>
		<layer id="133" name="conv4_3_norm_mbox_loc_perm" type="Transpose" version="opset1">
			<rt_info>
				<attribute name="fused_names" version="0" value="conv4_3_norm_mbox_loc_perm"/>
			</rt_info>
			<input>
				<port id="0" precision="FP32">
					<dim>1</dim>
					<dim>16</dim>
					<dim>24</dim>
					<dim>42</dim>
				</port>
				<port id="1" precision="I64">
					<dim>4</dim>
				</port>
			</input>
			<output>
				<port id="2" precision="FP32" names="conv4_3_norm_mbox_loc_perm">
					<dim>1</dim>
					<dim>24</dim>
					<dim>42</dim>
					<dim>16</dim>
				</port>
			</output>
		</layer>
		<layer id="134" name="652/shapes_concat" type="Const" version="opset1">
			<data element_type="i64" shape="2" offset="2438128" size="16"/>
			<rt_info>
				<attribute name="fused_names" version="0" value="652/shapes_concat"/>
			</rt_info>
			<output>
				<port id="0" precision="I64">
					<dim>2</dim>
				</port>
			</output>
		</layer>
		<layer id="135" name="conv4_3_norm_mbox_loc_flat" type="Reshape" version="opset1">
			<data special_zero="true"/>
			<rt_info>
				<attribute name="fused_names" version="0" value="conv4_3_norm_mbox_loc_flat"/>
			</rt_info>
			<input>
				<port id="0" precision="FP32">
					<dim>1</dim>
					<dim>24</dim>
					<dim>42</dim>
					<dim>16</dim>
				</port>
				<port id="1" precision="I64">
					<dim>2</dim>
				</port>
			</input>
			<output>
				<port id="2" precision="FP32" names="conv4_3_norm_mbox_loc_flat">
					<dim>1</dim>
					<dim>16128</dim>
				</port>
			</output>
		</layer>
		<layer id="136" name="conv5_6/dw/bn/mean/Fused_Mul__copy" type="Const" version="opset1">
			<data element_type="f32" shape="176, 1, 1, 3, 3" offset="2539584" size="6336"/>
			<rt_info>
				<attribute name="fused_names" version="0" value="conv5_6/dw/bn/mean/Fused_Mul__copy"/>
			</rt_info>
			<output>
				<port id="0" precision="FP32">
					<dim>176</dim>
					<dim>1</dim>
					<dim>1</dim>
					<dim>3</dim>
					<dim>3</dim>
				</port>
			</output>
		</layer>
		<layer id="137" name="conv5_6/dw" type="GroupConvolution" version="opset1">
			<data strides="2, 2" pads_begin="1, 1" pads_end="1, 1" dilations="1, 1" auto_pad="explicit"/>
			<rt_info>
				<attribute name="fused_names" version="0" value="conv5_6/dw"/>
			</rt_info>
			<input>
				<port id="0" precision="FP32">
					<dim>1</dim>
					<dim>176</dim>
					<dim>24</dim>
					<dim>42</dim>
				</port>
				<port id="1" precision="FP32">
					<dim>176</dim>
					<dim>1</dim>
					<dim>1</dim>
					<dim>3</dim>
					<dim>3</dim>
				</port>
			</input>
			<output>
				<port id="2" precision="FP32">
					<dim>1</dim>
					<dim>176</dim>
					<dim>12</dim>
					<dim>21</dim>
				</port>
			</output>
		</layer>
		<layer id="138" name="data_add_1122311228" type="Const" version="opset1">
			<data element_type="f32" shape="1, 176, 1, 1" offset="2545920" size="704"/>
			<rt_info>
				<attribute name="fused_names" version="0" value="data_add_1122311228"/>
			</rt_info>
			<output>
				<port id="0" precision="FP32">
					<dim>1</dim>
					<dim>176</dim>
					<dim>1</dim>
					<dim>1</dim>
				</port>
			</output>
		</layer>
		<layer id="139" name="conv5_6/dw/bn/variance/Fused_Add_" type="Add" version="opset1">
			<data auto_broadcast="numpy"/>
			<rt_info>
				<attribute name="fused_names" version="0" value="conv5_6/dw/bn/variance/Fused_Add_"/>
			</rt_info>
			<input>
				<port id="0" precision="FP32">
					<dim>1</dim>
					<dim>176</dim>
					<dim>12</dim>
					<dim>21</dim>
				</port>
				<port id="1" precision="FP32">
					<dim>1</dim>
					<dim>176</dim>
					<dim>1</dim>
					<dim>1</dim>
				</port>
			</input>
			<output>
				<port id="2" precision="FP32" names="conv5_6/dw">
					<dim>1</dim>
					<dim>176</dim>
					<dim>12</dim>
					<dim>21</dim>
				</port>
			</output>
		</layer>
		<layer id="140" name="relu5_6/dw" type="ReLU" version="opset1">
			<rt_info>
				<attribute name="fused_names" version="0" value="relu5_6/dw"/>
			</rt_info>
			<input>
				<port id="0" precision="FP32">
					<dim>1</dim>
					<dim>176</dim>
					<dim>12</dim>
					<dim>21</dim>
				</port>
			</input>
			<output>
				<port id="1" precision="FP32" names="conv5_6/dw">
					<dim>1</dim>
					<dim>176</dim>
					<dim>12</dim>
					<dim>21</dim>
				</port>
			</output>
		</layer>
		<layer id="141" name="conv5_6/sep/bn/mean/Fused_Mul__copy" type="Const" version="opset1">
			<data element_type="f32" shape="256, 176, 1, 1" offset="2546624" size="180224"/>
			<rt_info>
				<attribute name="fused_names" version="0" value="conv5_6/sep/bn/mean/Fused_Mul__copy"/>
			</rt_info>
			<output>
				<port id="0" precision="FP32">
					<dim>256</dim>
					<dim>176</dim>
					<dim>1</dim>
					<dim>1</dim>
				</port>
			</output>
		</layer>
		<layer id="142" name="conv5_6/sep/WithoutBiases" type="Convolution" version="opset1">
			<data strides="1, 1" dilations="1, 1" pads_begin="0, 0" pads_end="0, 0" auto_pad="explicit"/>
			<rt_info>
				<attribute name="fused_names" version="0" value="conv5_6/sep/WithoutBiases"/>
			</rt_info>
			<input>
				<port id="0" precision="FP32">
					<dim>1</dim>
					<dim>176</dim>
					<dim>12</dim>
					<dim>21</dim>
				</port>
				<port id="1" precision="FP32">
					<dim>256</dim>
					<dim>176</dim>
					<dim>1</dim>
					<dim>1</dim>
				</port>
			</input>
			<output>
				<port id="2" precision="FP32">
					<dim>1</dim>
					<dim>256</dim>
					<dim>12</dim>
					<dim>21</dim>
				</port>
			</output>
		</layer>
		<layer id="143" name="data_add_1123111236" type="Const" version="opset1">
			<data element_type="f32" shape="1, 256, 1, 1" offset="2726848" size="1024"/>
			<rt_info>
				<attribute name="fused_names" version="0" value="data_add_1123111236"/>
			</rt_info>
			<output>
				<port id="0" precision="FP32">
					<dim>1</dim>
					<dim>256</dim>
					<dim>1</dim>
					<dim>1</dim>
				</port>
			</output>
		</layer>
		<layer id="144" name="conv5_6/sep/Fused_Add_" type="Add" version="opset1">
			<data auto_broadcast="numpy"/>
			<rt_info>
				<attribute name="fused_names" version="0" value="conv5_6/sep/Fused_Add_"/>
			</rt_info>
			<input>
				<port id="0" precision="FP32">
					<dim>1</dim>
					<dim>256</dim>
					<dim>12</dim>
					<dim>21</dim>
				</port>
				<port id="1" precision="FP32">
					<dim>1</dim>
					<dim>256</dim>
					<dim>1</dim>
					<dim>1</dim>
				</port>
			</input>
			<output>
				<port id="2" precision="FP32" names="conv5_6/sep">
					<dim>1</dim>
					<dim>256</dim>
					<dim>12</dim>
					<dim>21</dim>
				</port>
			</output>
		</layer>
		<layer id="145" name="relu5_6/sep" type="ReLU" version="opset1">
			<rt_info>
				<attribute name="fused_names" version="0" value="relu5_6/sep"/>
			</rt_info>
			<input>
				<port id="0" precision="FP32">
					<dim>1</dim>
					<dim>256</dim>
					<dim>12</dim>
					<dim>21</dim>
				</port>
			</input>
			<output>
				<port id="1" precision="FP32" names="conv5_6/sep">
					<dim>1</dim>
					<dim>256</dim>
					<dim>12</dim>
					<dim>21</dim>
				</port>
			</output>
		</layer>
		<layer id="146" name="conv6/dw/bn/mean/Fused_Mul__copy" type="Const" version="opset1">
			<data element_type="f32" shape="256, 1, 1, 3, 3" offset="2727872" size="9216"/>
			<rt_info>
				<attribute name="fused_names" version="0" value="conv6/dw/bn/mean/Fused_Mul__copy"/>
			</rt_info>
			<output>
				<port id="0" precision="FP32">
					<dim>256</dim>
					<dim>1</dim>
					<dim>1</dim>
					<dim>3</dim>
					<dim>3</dim>
				</port>
			</output>
		</layer>
		<layer id="147" name="conv6/dw" type="GroupConvolution" version="opset1">
			<data strides="1, 1" pads_begin="1, 1" pads_end="1, 1" dilations="1, 1" auto_pad="explicit"/>
			<rt_info>
				<attribute name="fused_names" version="0" value="conv6/dw"/>
			</rt_info>
			<input>
				<port id="0" precision="FP32">
					<dim>1</dim>
					<dim>256</dim>
					<dim>12</dim>
					<dim>21</dim>
				</port>
				<port id="1" precision="FP32">
					<dim>256</dim>
					<dim>1</dim>
					<dim>1</dim>
					<dim>3</dim>
					<dim>3</dim>
				</port>
			</input>
			<output>
				<port id="2" precision="FP32">
					<dim>1</dim>
					<dim>256</dim>
					<dim>12</dim>
					<dim>21</dim>
				</port>
			</output>
		</layer>
		<layer id="148" name="data_add_1123911244" type="Const" version="opset1">
			<data element_type="f32" shape="1, 256, 1, 1" offset="2737088" size="1024"/>
			<rt_info>
				<attribute name="fused_names" version="0" value="data_add_1123911244"/>
			</rt_info>
			<output>
				<port id="0" precision="FP32">
					<dim>1</dim>
					<dim>256</dim>
					<dim>1</dim>
					<dim>1</dim>
				</port>
			</output>
		</layer>
		<layer id="149" name="conv6/dw/bn/variance/Fused_Add_" type="Add" version="opset1">
			<data auto_broadcast="numpy"/>
			<rt_info>
				<attribute name="fused_names" version="0" value="conv6/dw/bn/variance/Fused_Add_"/>
			</rt_info>
			<input>
				<port id="0" precision="FP32">
					<dim>1</dim>
					<dim>256</dim>
					<dim>12</dim>
					<dim>21</dim>
				</port>
				<port id="1" precision="FP32">
					<dim>1</dim>
					<dim>256</dim>
					<dim>1</dim>
					<dim>1</dim>
				</port>
			</input>
			<output>
				<port id="2" precision="FP32" names="conv6/dw">
					<dim>1</dim>
					<dim>256</dim>
					<dim>12</dim>
					<dim>21</dim>
				</port>
			</output>
		</layer>
		<layer id="150" name="relu6/dw" type="ReLU" version="opset1">
			<rt_info>
				<attribute name="fused_names" version="0" value="relu6/dw"/>
			</rt_info>
			<input>
				<port id="0" precision="FP32">
					<dim>1</dim>
					<dim>256</dim>
					<dim>12</dim>
					<dim>21</dim>
				</port>
			</input>
			<output>
				<port id="1" precision="FP32" names="conv6/dw">
					<dim>1</dim>
					<dim>256</dim>
					<dim>12</dim>
					<dim>21</dim>
				</port>
			</output>
		</layer>
		<layer id="151" name="conv6/sep/bn/mean/Fused_Mul__copy" type="Const" version="opset1">
			<data element_type="f32" shape="96, 256, 1, 1" offset="2738112" size="98304"/>
			<rt_info>
				<attribute name="fused_names" version="0" value="conv6/sep/bn/mean/Fused_Mul__copy"/>
			</rt_info>
			<output>
				<port id="0" precision="FP32">
					<dim>96</dim>
					<dim>256</dim>
					<dim>1</dim>
					<dim>1</dim>
				</port>
			</output>
		</layer>
		<layer id="152" name="conv6/sep" type="Convolution" version="opset1">
			<data strides="1, 1" dilations="1, 1" pads_begin="0, 0" pads_end="0, 0" auto_pad="explicit"/>
			<rt_info>
				<attribute name="fused_names" version="0" value="conv6/sep"/>
			</rt_info>
			<input>
				<port id="0" precision="FP32">
					<dim>1</dim>
					<dim>256</dim>
					<dim>12</dim>
					<dim>21</dim>
				</port>
				<port id="1" precision="FP32">
					<dim>96</dim>
					<dim>256</dim>
					<dim>1</dim>
					<dim>1</dim>
				</port>
			</input>
			<output>
				<port id="2" precision="FP32">
					<dim>1</dim>
					<dim>96</dim>
					<dim>12</dim>
					<dim>21</dim>
				</port>
			</output>
		</layer>
		<layer id="153" name="data_add_1124711252" type="Const" version="opset1">
			<data element_type="f32" shape="1, 96, 1, 1" offset="2836416" size="384"/>
			<rt_info>
				<attribute name="fused_names" version="0" value="data_add_1124711252"/>
			</rt_info>
			<output>
				<port id="0" precision="FP32">
					<dim>1</dim>
					<dim>96</dim>
					<dim>1</dim>
					<dim>1</dim>
				</port>
			</output>
		</layer>
		<layer id="154" name="conv6/sep/bn/variance/Fused_Add_" type="Add" version="opset1">
			<data auto_broadcast="numpy"/>
			<rt_info>
				<attribute name="fused_names" version="0" value="conv6/sep/bn/variance/Fused_Add_"/>
			</rt_info>
			<input>
				<port id="0" precision="FP32">
					<dim>1</dim>
					<dim>96</dim>
					<dim>12</dim>
					<dim>21</dim>
				</port>
				<port id="1" precision="FP32">
					<dim>1</dim>
					<dim>96</dim>
					<dim>1</dim>
					<dim>1</dim>
				</port>
			</input>
			<output>
				<port id="2" precision="FP32" names="conv6/sep">
					<dim>1</dim>
					<dim>96</dim>
					<dim>12</dim>
					<dim>21</dim>
				</port>
			</output>
		</layer>
		<layer id="155" name="relu6/sep" type="ReLU" version="opset1">
			<rt_info>
				<attribute name="fused_names" version="0" value="relu6/sep"/>
			</rt_info>
			<input>
				<port id="0" precision="FP32">
					<dim>1</dim>
					<dim>96</dim>
					<dim>12</dim>
					<dim>21</dim>
				</port>
			</input>
			<output>
				<port id="1" precision="FP32" names="conv6/sep">
					<dim>1</dim>
					<dim>96</dim>
					<dim>12</dim>
					<dim>21</dim>
				</port>
			</output>
		</layer>
		<layer id="156" name="528" type="Const" version="opset1">
			<data element_type="f32" shape="24, 96, 3, 3" offset="2836800" size="82944"/>
			<rt_info>
				<attribute name="fused_names" version="0" value="528"/>
			</rt_info>
			<output>
				<port id="0" precision="FP32">
					<dim>24</dim>
					<dim>96</dim>
					<dim>3</dim>
					<dim>3</dim>
				</port>
			</output>
		</layer>
		<layer id="157" name="fc7_0_mbox_loc/WithoutBiases" type="Convolution" version="opset1">
			<data strides="1, 1" dilations="1, 1" pads_begin="1, 1" pads_end="1, 1" auto_pad="explicit"/>
			<rt_info>
				<attribute name="fused_names" version="0" value="fc7_0_mbox_loc/WithoutBiases"/>
			</rt_info>
			<input>
				<port id="0" precision="FP32">
					<dim>1</dim>
					<dim>96</dim>
					<dim>12</dim>
					<dim>21</dim>
				</port>
				<port id="1" precision="FP32">
					<dim>24</dim>
					<dim>96</dim>
					<dim>3</dim>
					<dim>3</dim>
				</port>
			</input>
			<output>
				<port id="2" precision="FP32">
					<dim>1</dim>
					<dim>24</dim>
					<dim>12</dim>
					<dim>21</dim>
				</port>
			</output>
		</layer>
		<layer id="158" name="fc7_0_mbox_loc/Dims6401" type="Const" version="opset1">
			<data element_type="f32" shape="1, 24, 1, 1" offset="2919744" size="96"/>
			<rt_info>
				<attribute name="fused_names" version="0" value="fc7_0_mbox_loc/Dims6401"/>
			</rt_info>
			<output>
				<port id="0" precision="FP32">
					<dim>1</dim>
					<dim>24</dim>
					<dim>1</dim>
					<dim>1</dim>
				</port>
			</output>
		</layer>
		<layer id="159" name="fc7_0_mbox_loc" type="Add" version="opset1">
			<data auto_broadcast="numpy"/>
			<rt_info>
				<attribute name="fused_names" version="0" value="fc7_0_mbox_loc"/>
			</rt_info>
			<input>
				<port id="0" precision="FP32">
					<dim>1</dim>
					<dim>24</dim>
					<dim>12</dim>
					<dim>21</dim>
				</port>
				<port id="1" precision="FP32">
					<dim>1</dim>
					<dim>24</dim>
					<dim>1</dim>
					<dim>1</dim>
				</port>
			</input>
			<output>
				<port id="2" precision="FP32" names="fc7_0_mbox_loc">
					<dim>1</dim>
					<dim>24</dim>
					<dim>12</dim>
					<dim>21</dim>
				</port>
			</output>
		</layer>
		<layer id="160" name="566" type="Const" version="opset1">
			<data element_type="i64" shape="4" offset="2438096" size="32"/>
			<rt_info>
				<attribute name="fused_names" version="0" value="566"/>
			</rt_info>
			<output>
				<port id="0" precision="I64">
					<dim>4</dim>
				</port>
			</output>
		</layer>
		<layer id="161" name="fc7_0_mbox_loc_perm" type="Transpose" version="opset1">
			<rt_info>
				<attribute name="fused_names" version="0" value="fc7_0_mbox_loc_perm"/>
			</rt_info>
			<input>
				<port id="0" precision="FP32">
					<dim>1</dim>
					<dim>24</dim>
					<dim>12</dim>
					<dim>21</dim>
				</port>
				<port id="1" precision="I64">
					<dim>4</dim>
				</port>
			</input>
			<output>
				<port id="2" precision="FP32" names="fc7_0_mbox_loc_perm">
					<dim>1</dim>
					<dim>12</dim>
					<dim>21</dim>
					<dim>24</dim>
				</port>
			</output>
		</layer>
		<layer id="162" name="612/shapes_concat" type="Const" version="opset1">
			<data element_type="i64" shape="2" offset="2438128" size="16"/>
			<rt_info>
				<attribute name="fused_names" version="0" value="612/shapes_concat"/>
			</rt_info>
			<output>
				<port id="0" precision="I64">
					<dim>2</dim>
				</port>
			</output>
		</layer>
		<layer id="163" name="fc7_0_mbox_loc_flat" type="Reshape" version="opset1">
			<data special_zero="true"/>
			<rt_info>
				<attribute name="fused_names" version="0" value="fc7_0_mbox_loc_flat"/>
			</rt_info>
			<input>
				<port id="0" precision="FP32">
					<dim>1</dim>
					<dim>12</dim>
					<dim>21</dim>
					<dim>24</dim>
				</port>
				<port id="1" precision="I64">
					<dim>2</dim>
				</port>
			</input>
			<output>
				<port id="2" precision="FP32" names="fc7_0_mbox_loc_flat">
					<dim>1</dim>
					<dim>6048</dim>
				</port>
			</output>
		</layer>
		<layer id="164" name="289" type="Const" version="opset1">
			<data element_type="f32" shape="24, 96, 3, 3" offset="2919840" size="82944"/>
			<rt_info>
				<attribute name="fused_names" version="0" value="289"/>
			</rt_info>
			<output>
				<port id="0" precision="FP32">
					<dim>24</dim>
					<dim>96</dim>
					<dim>3</dim>
					<dim>3</dim>
				</port>
			</output>
		</layer>
		<layer id="165" name="fc7_mbox_loc/WithoutBiases" type="Convolution" version="opset1">
			<data strides="1, 1" dilations="1, 1" pads_begin="1, 1" pads_end="1, 1" auto_pad="explicit"/>
			<rt_info>
				<attribute name="fused_names" version="0" value="fc7_mbox_loc/WithoutBiases"/>
			</rt_info>
			<input>
				<port id="0" precision="FP32">
					<dim>1</dim>
					<dim>96</dim>
					<dim>12</dim>
					<dim>21</dim>
				</port>
				<port id="1" precision="FP32">
					<dim>24</dim>
					<dim>96</dim>
					<dim>3</dim>
					<dim>3</dim>
				</port>
			</input>
			<output>
				<port id="2" precision="FP32">
					<dim>1</dim>
					<dim>24</dim>
					<dim>12</dim>
					<dim>21</dim>
				</port>
			</output>
		</layer>
		<layer id="166" name="fc7_mbox_loc/Dims6347" type="Const" version="opset1">
			<data element_type="f32" shape="1, 24, 1, 1" offset="3002784" size="96"/>
			<rt_info>
				<attribute name="fused_names" version="0" value="fc7_mbox_loc/Dims6347"/>
			</rt_info>
			<output>
				<port id="0" precision="FP32">
					<dim>1</dim>
					<dim>24</dim>
					<dim>1</dim>
					<dim>1</dim>
				</port>
			</output>
		</layer>
		<layer id="167" name="fc7_mbox_loc" type="Add" version="opset1">
			<data auto_broadcast="numpy"/>
			<rt_info>
				<attribute name="fused_names" version="0" value="fc7_mbox_loc"/>
			</rt_info>
			<input>
				<port id="0" precision="FP32">
					<dim>1</dim>
					<dim>24</dim>
					<dim>12</dim>
					<dim>21</dim>
				</port>
				<port id="1" precision="FP32">
					<dim>1</dim>
					<dim>24</dim>
					<dim>1</dim>
					<dim>1</dim>
				</port>
			</input>
			<output>
				<port id="2" precision="FP32" names="fc7_mbox_loc">
					<dim>1</dim>
					<dim>24</dim>
					<dim>12</dim>
					<dim>21</dim>
				</port>
			</output>
		</layer>
		<layer id="168" name="571" type="Const" version="opset1">
			<data element_type="i64" shape="4" offset="2438096" size="32"/>
			<rt_info>
				<attribute name="fused_names" version="0" value="571"/>
			</rt_info>
			<output>
				<port id="0" precision="I64">
					<dim>4</dim>
				</port>
			</output>
		</layer>
		<layer id="169" name="fc7_mbox_loc_perm" type="Transpose" version="opset1">
			<rt_info>
				<attribute name="fused_names" version="0" value="fc7_mbox_loc_perm"/>
			</rt_info>
			<input>
				<port id="0" precision="FP32">
					<dim>1</dim>
					<dim>24</dim>
					<dim>12</dim>
					<dim>21</dim>
				</port>
				<port id="1" precision="I64">
					<dim>4</dim>
				</port>
			</input>
			<output>
				<port id="2" precision="FP32" names="fc7_mbox_loc_perm">
					<dim>1</dim>
					<dim>12</dim>
					<dim>21</dim>
					<dim>24</dim>
				</port>
			</output>
		</layer>
		<layer id="170" name="667/shapes_concat" type="Const" version="opset1">
			<data element_type="i64" shape="2" offset="2438128" size="16"/>
			<rt_info>
				<attribute name="fused_names" version="0" value="667/shapes_concat"/>
			</rt_info>
			<output>
				<port id="0" precision="I64">
					<dim>2</dim>
				</port>
			</output>
		</layer>
		<layer id="171" name="fc7_mbox_loc_flat" type="Reshape" version="opset1">
			<data special_zero="true"/>
			<rt_info>
				<attribute name="fused_names" version="0" value="fc7_mbox_loc_flat"/>
			</rt_info>
			<input>
				<port id="0" precision="FP32">
					<dim>1</dim>
					<dim>12</dim>
					<dim>21</dim>
					<dim>24</dim>
				</port>
				<port id="1" precision="I64">
					<dim>2</dim>
				</port>
			</input>
			<output>
				<port id="2" precision="FP32" names="fc7_mbox_loc_flat">
					<dim>1</dim>
					<dim>6048</dim>
				</port>
			</output>
		</layer>
		<layer id="172" name="conv6_1/bn/mean/Fused_Mul__copy" type="Const" version="opset1">
			<data element_type="f32" shape="96, 96, 1, 1" offset="3002880" size="36864"/>
			<rt_info>
				<attribute name="fused_names" version="0" value="conv6_1/bn/mean/Fused_Mul__copy"/>
			</rt_info>
			<output>
				<port id="0" precision="FP32">
					<dim>96</dim>
					<dim>96</dim>
					<dim>1</dim>
					<dim>1</dim>
				</port>
			</output>
		</layer>
		<layer id="173" name="conv6_1" type="Convolution" version="opset1">
			<data strides="1, 1" dilations="1, 1" pads_begin="0, 0" pads_end="0, 0" auto_pad="explicit"/>
			<rt_info>
				<attribute name="fused_names" version="0" value="conv6_1"/>
			</rt_info>
			<input>
				<port id="0" precision="FP32">
					<dim>1</dim>
					<dim>96</dim>
					<dim>12</dim>
					<dim>21</dim>
				</port>
				<port id="1" precision="FP32">
					<dim>96</dim>
					<dim>96</dim>
					<dim>1</dim>
					<dim>1</dim>
				</port>
			</input>
			<output>
				<port id="2" precision="FP32">
					<dim>1</dim>
					<dim>96</dim>
					<dim>12</dim>
					<dim>21</dim>
				</port>
			</output>
		</layer>
		<layer id="174" name="data_add_1125511260" type="Const" version="opset1">
			<data element_type="f32" shape="1, 96, 1, 1" offset="3039744" size="384"/>
			<rt_info>
				<attribute name="fused_names" version="0" value="data_add_1125511260"/>
			</rt_info>
			<output>
				<port id="0" precision="FP32">
					<dim>1</dim>
					<dim>96</dim>
					<dim>1</dim>
					<dim>1</dim>
				</port>
			</output>
		</layer>
		<layer id="175" name="conv6_1/bn/variance/Fused_Add_" type="Add" version="opset1">
			<data auto_broadcast="numpy"/>
			<rt_info>
				<attribute name="fused_names" version="0" value="conv6_1/bn/variance/Fused_Add_"/>
			</rt_info>
			<input>
				<port id="0" precision="FP32">
					<dim>1</dim>
					<dim>96</dim>
					<dim>12</dim>
					<dim>21</dim>
				</port>
				<port id="1" precision="FP32">
					<dim>1</dim>
					<dim>96</dim>
					<dim>1</dim>
					<dim>1</dim>
				</port>
			</input>
			<output>
				<port id="2" precision="FP32" names="conv6_1">
					<dim>1</dim>
					<dim>96</dim>
					<dim>12</dim>
					<dim>21</dim>
				</port>
			</output>
		</layer>
		<layer id="176" name="relu6_1" type="ReLU" version="opset1">
			<rt_info>
				<attribute name="fused_names" version="0" value="relu6_1"/>
			</rt_info>
			<input>
				<port id="0" precision="FP32">
					<dim>1</dim>
					<dim>96</dim>
					<dim>12</dim>
					<dim>21</dim>
				</port>
			</input>
			<output>
				<port id="1" precision="FP32" names="conv6_1">
					<dim>1</dim>
					<dim>96</dim>
					<dim>12</dim>
					<dim>21</dim>
				</port>
			</output>
		</layer>
		<layer id="177" name="conv6_2/dw/bn/mean/Fused_Mul__copy" type="Const" version="opset1">
			<data element_type="f32" shape="96, 1, 1, 3, 3" offset="3040128" size="3456"/>
			<rt_info>
				<attribute name="fused_names" version="0" value="conv6_2/dw/bn/mean/Fused_Mul__copy"/>
			</rt_info>
			<output>
				<port id="0" precision="FP32">
					<dim>96</dim>
					<dim>1</dim>
					<dim>1</dim>
					<dim>3</dim>
					<dim>3</dim>
				</port>
			</output>
		</layer>
		<layer id="178" name="conv6_2/dw" type="GroupConvolution" version="opset1">
			<data strides="2, 2" pads_begin="1, 1" pads_end="1, 1" dilations="1, 1" auto_pad="explicit"/>
			<rt_info>
				<attribute name="fused_names" version="0" value="conv6_2/dw"/>
			</rt_info>
			<input>
				<port id="0" precision="FP32">
					<dim>1</dim>
					<dim>96</dim>
					<dim>12</dim>
					<dim>21</dim>
				</port>
				<port id="1" precision="FP32">
					<dim>96</dim>
					<dim>1</dim>
					<dim>1</dim>
					<dim>3</dim>
					<dim>3</dim>
				</port>
			</input>
			<output>
				<port id="2" precision="FP32">
					<dim>1</dim>
					<dim>96</dim>
					<dim>6</dim>
					<dim>11</dim>
				</port>
			</output>
		</layer>
		<layer id="179" name="data_add_1126311268" type="Const" version="opset1">
			<data element_type="f32" shape="1, 96, 1, 1" offset="3043584" size="384"/>
			<rt_info>
				<attribute name="fused_names" version="0" value="data_add_1126311268"/>
			</rt_info>
			<output>
				<port id="0" precision="FP32">
					<dim>1</dim>
					<dim>96</dim>
					<dim>1</dim>
					<dim>1</dim>
				</port>
			</output>
		</layer>
		<layer id="180" name="conv6_2/dw/bn/variance/Fused_Add_" type="Add" version="opset1">
			<data auto_broadcast="numpy"/>
			<rt_info>
				<attribute name="fused_names" version="0" value="conv6_2/dw/bn/variance/Fused_Add_"/>
			</rt_info>
			<input>
				<port id="0" precision="FP32">
					<dim>1</dim>
					<dim>96</dim>
					<dim>6</dim>
					<dim>11</dim>
				</port>
				<port id="1" precision="FP32">
					<dim>1</dim>
					<dim>96</dim>
					<dim>1</dim>
					<dim>1</dim>
				</port>
			</input>
			<output>
				<port id="2" precision="FP32" names="conv6_2/dw">
					<dim>1</dim>
					<dim>96</dim>
					<dim>6</dim>
					<dim>11</dim>
				</port>
			</output>
		</layer>
		<layer id="181" name="relu6_2/dw" type="ReLU" version="opset1">
			<rt_info>
				<attribute name="fused_names" version="0" value="relu6_2/dw"/>
			</rt_info>
			<input>
				<port id="0" precision="FP32">
					<dim>1</dim>
					<dim>96</dim>
					<dim>6</dim>
					<dim>11</dim>
				</port>
			</input>
			<output>
				<port id="1" precision="FP32" names="conv6_2/dw">
					<dim>1</dim>
					<dim>96</dim>
					<dim>6</dim>
					<dim>11</dim>
				</port>
			</output>
		</layer>
		<layer id="182" name="conv6_2/bn/mean/Fused_Mul__copy" type="Const" version="opset1">
			<data element_type="f32" shape="120, 96, 1, 1" offset="3043968" size="46080"/>
			<rt_info>
				<attribute name="fused_names" version="0" value="conv6_2/bn/mean/Fused_Mul__copy"/>
			</rt_info>
			<output>
				<port id="0" precision="FP32">
					<dim>120</dim>
					<dim>96</dim>
					<dim>1</dim>
					<dim>1</dim>
				</port>
			</output>
		</layer>
		<layer id="183" name="conv6_2_new" type="Convolution" version="opset1">
			<data strides="1, 1" dilations="1, 1" pads_begin="0, 0" pads_end="0, 0" auto_pad="explicit"/>
			<rt_info>
				<attribute name="fused_names" version="0" value="conv6_2_new"/>
			</rt_info>
			<input>
				<port id="0" precision="FP32">
					<dim>1</dim>
					<dim>96</dim>
					<dim>6</dim>
					<dim>11</dim>
				</port>
				<port id="1" precision="FP32">
					<dim>120</dim>
					<dim>96</dim>
					<dim>1</dim>
					<dim>1</dim>
				</port>
			</input>
			<output>
				<port id="2" precision="FP32">
					<dim>1</dim>
					<dim>120</dim>
					<dim>6</dim>
					<dim>11</dim>
				</port>
			</output>
		</layer>
		<layer id="184" name="data_add_1127111276" type="Const" version="opset1">
			<data element_type="f32" shape="1, 120, 1, 1" offset="3090048" size="480"/>
			<rt_info>
				<attribute name="fused_names" version="0" value="data_add_1127111276"/>
			</rt_info>
			<output>
				<port id="0" precision="FP32">
					<dim>1</dim>
					<dim>120</dim>
					<dim>1</dim>
					<dim>1</dim>
				</port>
			</output>
		</layer>
		<layer id="185" name="conv6_2/bn/variance/Fused_Add_" type="Add" version="opset1">
			<data auto_broadcast="numpy"/>
			<rt_info>
				<attribute name="fused_names" version="0" value="conv6_2/bn/variance/Fused_Add_"/>
			</rt_info>
			<input>
				<port id="0" precision="FP32">
					<dim>1</dim>
					<dim>120</dim>
					<dim>6</dim>
					<dim>11</dim>
				</port>
				<port id="1" precision="FP32">
					<dim>1</dim>
					<dim>120</dim>
					<dim>1</dim>
					<dim>1</dim>
				</port>
			</input>
			<output>
				<port id="2" precision="FP32" names="conv6_2">
					<dim>1</dim>
					<dim>120</dim>
					<dim>6</dim>
					<dim>11</dim>
				</port>
			</output>
		</layer>
		<layer id="186" name="relu6_2" type="ReLU" version="opset1">
			<rt_info>
				<attribute name="fused_names" version="0" value="relu6_2"/>
			</rt_info>
			<input>
				<port id="0" precision="FP32">
					<dim>1</dim>
					<dim>120</dim>
					<dim>6</dim>
					<dim>11</dim>
				</port>
			</input>
			<output>
				<port id="1" precision="FP32" names="conv6_2">
					<dim>1</dim>
					<dim>120</dim>
					<dim>6</dim>
					<dim>11</dim>
				</port>
			</output>
		</layer>
		<layer id="187" name="545" type="Const" version="opset1">
			<data element_type="f32" shape="24, 120, 3, 3" offset="3090528" size="103680"/>
			<rt_info>
				<attribute name="fused_names" version="0" value="545"/>
			</rt_info>
			<output>
				<port id="0" precision="FP32">
					<dim>24</dim>
					<dim>120</dim>
					<dim>3</dim>
					<dim>3</dim>
				</port>
			</output>
		</layer>
		<layer id="188" name="conv6_2_mbox_loc/WithoutBiases" type="Convolution" version="opset1">
			<data strides="1, 1" dilations="1, 1" pads_begin="1, 1" pads_end="1, 1" auto_pad="explicit"/>
			<rt_info>
				<attribute name="fused_names" version="0" value="conv6_2_mbox_loc/WithoutBiases"/>
			</rt_info>
			<input>
				<port id="0" precision="FP32">
					<dim>1</dim>
					<dim>120</dim>
					<dim>6</dim>
					<dim>11</dim>
				</port>
				<port id="1" precision="FP32">
					<dim>24</dim>
					<dim>120</dim>
					<dim>3</dim>
					<dim>3</dim>
				</port>
			</input>
			<output>
				<port id="2" precision="FP32">
					<dim>1</dim>
					<dim>24</dim>
					<dim>6</dim>
					<dim>11</dim>
				</port>
			</output>
		</layer>
		<layer id="189" name="conv6_2_mbox_loc/Dims6407" type="Const" version="opset1">
			<data element_type="f32" shape="1, 24, 1, 1" offset="3194208" size="96"/>
			<rt_info>
				<attribute name="fused_names" version="0" value="conv6_2_mbox_loc/Dims6407"/>
			</rt_info>
			<output>
				<port id="0" precision="FP32">
					<dim>1</dim>
					<dim>24</dim>
					<dim>1</dim>
					<dim>1</dim>
				</port>
			</output>
		</layer>
		<layer id="190" name="conv6_2_mbox_loc" type="Add" version="opset1">
			<data auto_broadcast="numpy"/>
			<rt_info>
				<attribute name="fused_names" version="0" value="conv6_2_mbox_loc"/>
			</rt_info>
			<input>
				<port id="0" precision="FP32">
					<dim>1</dim>
					<dim>24</dim>
					<dim>6</dim>
					<dim>11</dim>
				</port>
				<port id="1" precision="FP32">
					<dim>1</dim>
					<dim>24</dim>
					<dim>1</dim>
					<dim>1</dim>
				</port>
			</input>
			<output>
				<port id="2" precision="FP32" names="conv6_2_mbox_loc">
					<dim>1</dim>
					<dim>24</dim>
					<dim>6</dim>
					<dim>11</dim>
				</port>
			</output>
		</layer>
		<layer id="191" name="559" type="Const" version="opset1">
			<data element_type="i64" shape="4" offset="2438096" size="32"/>
			<rt_info>
				<attribute name="fused_names" version="0" value="559"/>
			</rt_info>
			<output>
				<port id="0" precision="I64">
					<dim>4</dim>
				</port>
			</output>
		</layer>
		<layer id="192" name="conv6_2_mbox_loc_perm" type="Transpose" version="opset1">
			<rt_info>
				<attribute name="fused_names" version="0" value="conv6_2_mbox_loc_perm"/>
			</rt_info>
			<input>
				<port id="0" precision="FP32">
					<dim>1</dim>
					<dim>24</dim>
					<dim>6</dim>
					<dim>11</dim>
				</port>
				<port id="1" precision="I64">
					<dim>4</dim>
				</port>
			</input>
			<output>
				<port id="2" precision="FP32" names="conv6_2_mbox_loc_perm">
					<dim>1</dim>
					<dim>6</dim>
					<dim>11</dim>
					<dim>24</dim>
				</port>
			</output>
		</layer>
		<layer id="193" name="607/shapes_concat" type="Const" version="opset1">
			<data element_type="i64" shape="2" offset="2438128" size="16"/>
			<rt_info>
				<attribute name="fused_names" version="0" value="607/shapes_concat"/>
			</rt_info>
			<output>
				<port id="0" precision="I64">
					<dim>2</dim>
				</port>
			</output>
		</layer>
		<layer id="194" name="conv6_2_mbox_loc_flat" type="Reshape" version="opset1">
			<data special_zero="true"/>
			<rt_info>
				<attribute name="fused_names" version="0" value="conv6_2_mbox_loc_flat"/>
			</rt_info>
			<input>
				<port id="0" precision="FP32">
					<dim>1</dim>
					<dim>6</dim>
					<dim>11</dim>
					<dim>24</dim>
				</port>
				<port id="1" precision="I64">
					<dim>2</dim>
				</port>
			</input>
			<output>
				<port id="2" precision="FP32" names="conv6_2_mbox_loc_flat">
					<dim>1</dim>
					<dim>1584</dim>
				</port>
			</output>
		</layer>
		<layer id="195" name="463" type="Const" version="opset1">
			<data element_type="f32" shape="24, 120, 3, 3" offset="3194304" size="103680"/>
			<rt_info>
				<attribute name="fused_names" version="0" value="463"/>
			</rt_info>
			<output>
				<port id="0" precision="FP32">
					<dim>24</dim>
					<dim>120</dim>
					<dim>3</dim>
					<dim>3</dim>
				</port>
			</output>
		</layer>
		<layer id="196" name="conv6_2_mbox_loc_bigpriors/WithoutBiases" type="Convolution" version="opset1">
			<data strides="1, 1" dilations="1, 1" pads_begin="1, 1" pads_end="1, 1" auto_pad="explicit"/>
			<rt_info>
				<attribute name="fused_names" version="0" value="conv6_2_mbox_loc_bigpriors/WithoutBiases"/>
			</rt_info>
			<input>
				<port id="0" precision="FP32">
					<dim>1</dim>
					<dim>120</dim>
					<dim>6</dim>
					<dim>11</dim>
				</port>
				<port id="1" precision="FP32">
					<dim>24</dim>
					<dim>120</dim>
					<dim>3</dim>
					<dim>3</dim>
				</port>
			</input>
			<output>
				<port id="2" precision="FP32">
					<dim>1</dim>
					<dim>24</dim>
					<dim>6</dim>
					<dim>11</dim>
				</port>
			</output>
		</layer>
		<layer id="197" name="conv6_2_mbox_loc_bigpriors/Dims6443" type="Const" version="opset1">
			<data element_type="f32" shape="1, 24, 1, 1" offset="3297984" size="96"/>
			<rt_info>
				<attribute name="fused_names" version="0" value="conv6_2_mbox_loc_bigpriors/Dims6443"/>
			</rt_info>
			<output>
				<port id="0" precision="FP32">
					<dim>1</dim>
					<dim>24</dim>
					<dim>1</dim>
					<dim>1</dim>
				</port>
			</output>
		</layer>
		<layer id="198" name="conv6_2_mbox_loc_bigpriors" type="Add" version="opset1">
			<data auto_broadcast="numpy"/>
			<rt_info>
				<attribute name="fused_names" version="0" value="conv6_2_mbox_loc_bigpriors"/>
			</rt_info>
			<input>
				<port id="0" precision="FP32">
					<dim>1</dim>
					<dim>24</dim>
					<dim>6</dim>
					<dim>11</dim>
				</port>
				<port id="1" precision="FP32">
					<dim>1</dim>
					<dim>24</dim>
					<dim>1</dim>
					<dim>1</dim>
				</port>
			</input>
			<output>
				<port id="2" precision="FP32" names="conv6_2_mbox_loc_bigpriors">
					<dim>1</dim>
					<dim>24</dim>
					<dim>6</dim>
					<dim>11</dim>
				</port>
			</output>
		</layer>
		<layer id="199" name="554" type="Const" version="opset1">
			<data element_type="i64" shape="4" offset="2438096" size="32"/>
			<rt_info>
				<attribute name="fused_names" version="0" value="554"/>
			</rt_info>
			<output>
				<port id="0" precision="I64">
					<dim>4</dim>
				</port>
			</output>
		</layer>
		<layer id="200" name="conv6_2_mbox_loc_perm_bigpriors" type="Transpose" version="opset1">
			<rt_info>
				<attribute name="fused_names" version="0" value="conv6_2_mbox_loc_perm_bigpriors"/>
			</rt_info>
			<input>
				<port id="0" precision="FP32">
					<dim>1</dim>
					<dim>24</dim>
					<dim>6</dim>
					<dim>11</dim>
				</port>
				<port id="1" precision="I64">
					<dim>4</dim>
				</port>
			</input>
			<output>
				<port id="2" precision="FP32" names="conv6_2_mbox_loc_perm_bigpriors">
					<dim>1</dim>
					<dim>6</dim>
					<dim>11</dim>
					<dim>24</dim>
				</port>
			</output>
		</layer>
		<layer id="201" name="602/shapes_concat" type="Const" version="opset1">
			<data element_type="i64" shape="2" offset="2438128" size="16"/>
			<rt_info>
				<attribute name="fused_names" version="0" value="602/shapes_concat"/>
			</rt_info>
			<output>
				<port id="0" precision="I64">
					<dim>2</dim>
				</port>
			</output>
		</layer>
		<layer id="202" name="conv6_2_mbox_loc_flat_bigpriors" type="Reshape" version="opset1">
			<data special_zero="true"/>
			<rt_info>
				<attribute name="fused_names" version="0" value="conv6_2_mbox_loc_flat_bigpriors"/>
			</rt_info>
			<input>
				<port id="0" precision="FP32">
					<dim>1</dim>
					<dim>6</dim>
					<dim>11</dim>
					<dim>24</dim>
				</port>
				<port id="1" precision="I64">
					<dim>2</dim>
				</port>
			</input>
			<output>
				<port id="2" precision="FP32" names="conv6_2_mbox_loc_flat_bigpriors">
					<dim>1</dim>
					<dim>1584</dim>
				</port>
			</output>
		</layer>
		<layer id="203" name="conv7_1/bn/mean/Fused_Mul__copy" type="Const" version="opset1">
			<data element_type="f32" shape="120, 120, 1, 1" offset="3298080" size="57600"/>
			<rt_info>
				<attribute name="fused_names" version="0" value="conv7_1/bn/mean/Fused_Mul__copy"/>
			</rt_info>
			<output>
				<port id="0" precision="FP32">
					<dim>120</dim>
					<dim>120</dim>
					<dim>1</dim>
					<dim>1</dim>
				</port>
			</output>
		</layer>
		<layer id="204" name="conv7_1" type="Convolution" version="opset1">
			<data strides="1, 1" dilations="1, 1" pads_begin="0, 0" pads_end="0, 0" auto_pad="explicit"/>
			<rt_info>
				<attribute name="fused_names" version="0" value="conv7_1"/>
			</rt_info>
			<input>
				<port id="0" precision="FP32">
					<dim>1</dim>
					<dim>120</dim>
					<dim>6</dim>
					<dim>11</dim>
				</port>
				<port id="1" precision="FP32">
					<dim>120</dim>
					<dim>120</dim>
					<dim>1</dim>
					<dim>1</dim>
				</port>
			</input>
			<output>
				<port id="2" precision="FP32">
					<dim>1</dim>
					<dim>120</dim>
					<dim>6</dim>
					<dim>11</dim>
				</port>
			</output>
		</layer>
		<layer id="205" name="data_add_1127911284" type="Const" version="opset1">
			<data element_type="f32" shape="1, 120, 1, 1" offset="3355680" size="480"/>
			<rt_info>
				<attribute name="fused_names" version="0" value="data_add_1127911284"/>
			</rt_info>
			<output>
				<port id="0" precision="FP32">
					<dim>1</dim>
					<dim>120</dim>
					<dim>1</dim>
					<dim>1</dim>
				</port>
			</output>
		</layer>
		<layer id="206" name="conv7_1/bn/variance/Fused_Add_" type="Add" version="opset1">
			<data auto_broadcast="numpy"/>
			<rt_info>
				<attribute name="fused_names" version="0" value="conv7_1/bn/variance/Fused_Add_"/>
			</rt_info>
			<input>
				<port id="0" precision="FP32">
					<dim>1</dim>
					<dim>120</dim>
					<dim>6</dim>
					<dim>11</dim>
				</port>
				<port id="1" precision="FP32">
					<dim>1</dim>
					<dim>120</dim>
					<dim>1</dim>
					<dim>1</dim>
				</port>
			</input>
			<output>
				<port id="2" precision="FP32" names="conv7_1">
					<dim>1</dim>
					<dim>120</dim>
					<dim>6</dim>
					<dim>11</dim>
				</port>
			</output>
		</layer>
		<layer id="207" name="relu7_1" type="ReLU" version="opset1">
			<rt_info>
				<attribute name="fused_names" version="0" value="relu7_1"/>
			</rt_info>
			<input>
				<port id="0" precision="FP32">
					<dim>1</dim>
					<dim>120</dim>
					<dim>6</dim>
					<dim>11</dim>
				</port>
			</input>
			<output>
				<port id="1" precision="FP32" names="conv7_1">
					<dim>1</dim>
					<dim>120</dim>
					<dim>6</dim>
					<dim>11</dim>
				</port>
			</output>
		</layer>
		<layer id="208" name="conv7_2/dw/bn/mean/Fused_Mul__copy" type="Const" version="opset1">
			<data element_type="f32" shape="120, 1, 1, 3, 3" offset="3356160" size="4320"/>
			<rt_info>
				<attribute name="fused_names" version="0" value="conv7_2/dw/bn/mean/Fused_Mul__copy"/>
			</rt_info>
			<output>
				<port id="0" precision="FP32">
					<dim>120</dim>
					<dim>1</dim>
					<dim>1</dim>
					<dim>3</dim>
					<dim>3</dim>
				</port>
			</output>
		</layer>
		<layer id="209" name="conv7_2/dw" type="GroupConvolution" version="opset1">
			<data strides="2, 2" pads_begin="1, 1" pads_end="1, 1" dilations="1, 1" auto_pad="explicit"/>
			<rt_info>
				<attribute name="fused_names" version="0" value="conv7_2/dw"/>
			</rt_info>
			<input>
				<port id="0" precision="FP32">
					<dim>1</dim>
					<dim>120</dim>
					<dim>6</dim>
					<dim>11</dim>
				</port>
				<port id="1" precision="FP32">
					<dim>120</dim>
					<dim>1</dim>
					<dim>1</dim>
					<dim>3</dim>
					<dim>3</dim>
				</port>
			</input>
			<output>
				<port id="2" precision="FP32">
					<dim>1</dim>
					<dim>120</dim>
					<dim>3</dim>
					<dim>6</dim>
				</port>
			</output>
		</layer>
		<layer id="210" name="data_add_1128711292" type="Const" version="opset1">
			<data element_type="f32" shape="1, 120, 1, 1" offset="3360480" size="480"/>
			<rt_info>
				<attribute name="fused_names" version="0" value="data_add_1128711292"/>
			</rt_info>
			<output>
				<port id="0" precision="FP32">
					<dim>1</dim>
					<dim>120</dim>
					<dim>1</dim>
					<dim>1</dim>
				</port>
			</output>
		</layer>
		<layer id="211" name="conv7_2/dw/bn/variance/Fused_Add_" type="Add" version="opset1">
			<data auto_broadcast="numpy"/>
			<rt_info>
				<attribute name="fused_names" version="0" value="conv7_2/dw/bn/variance/Fused_Add_"/>
			</rt_info>
			<input>
				<port id="0" precision="FP32">
					<dim>1</dim>
					<dim>120</dim>
					<dim>3</dim>
					<dim>6</dim>
				</port>
				<port id="1" precision="FP32">
					<dim>1</dim>
					<dim>120</dim>
					<dim>1</dim>
					<dim>1</dim>
				</port>
			</input>
			<output>
				<port id="2" precision="FP32" names="conv7_2/dw">
					<dim>1</dim>
					<dim>120</dim>
					<dim>3</dim>
					<dim>6</dim>
				</port>
			</output>
		</layer>
		<layer id="212" name="relu7_2/dw" type="ReLU" version="opset1">
			<rt_info>
				<attribute name="fused_names" version="0" value="relu7_2/dw"/>
			</rt_info>
			<input>
				<port id="0" precision="FP32">
					<dim>1</dim>
					<dim>120</dim>
					<dim>3</dim>
					<dim>6</dim>
				</port>
			</input>
			<output>
				<port id="1" precision="FP32" names="conv7_2/dw">
					<dim>1</dim>
					<dim>120</dim>
					<dim>3</dim>
					<dim>6</dim>
				</port>
			</output>
		</layer>
		<layer id="213" name="conv7_2/bn/mean/Fused_Mul__copy" type="Const" version="opset1">
			<data element_type="f32" shape="144, 120, 1, 1" offset="3360960" size="69120"/>
			<rt_info>
				<attribute name="fused_names" version="0" value="conv7_2/bn/mean/Fused_Mul__copy"/>
			</rt_info>
			<output>
				<port id="0" precision="FP32">
					<dim>144</dim>
					<dim>120</dim>
					<dim>1</dim>
					<dim>1</dim>
				</port>
			</output>
		</layer>
		<layer id="214" name="conv7_2_new" type="Convolution" version="opset1">
			<data strides="1, 1" dilations="1, 1" pads_begin="0, 0" pads_end="0, 0" auto_pad="explicit"/>
			<rt_info>
				<attribute name="fused_names" version="0" value="conv7_2_new"/>
			</rt_info>
			<input>
				<port id="0" precision="FP32">
					<dim>1</dim>
					<dim>120</dim>
					<dim>3</dim>
					<dim>6</dim>
				</port>
				<port id="1" precision="FP32">
					<dim>144</dim>
					<dim>120</dim>
					<dim>1</dim>
					<dim>1</dim>
				</port>
			</input>
			<output>
				<port id="2" precision="FP32">
					<dim>1</dim>
					<dim>144</dim>
					<dim>3</dim>
					<dim>6</dim>
				</port>
			</output>
		</layer>
		<layer id="215" name="data_add_1129511300" type="Const" version="opset1">
			<data element_type="f32" shape="1, 144, 1, 1" offset="3430080" size="576"/>
			<rt_info>
				<attribute name="fused_names" version="0" value="data_add_1129511300"/>
			</rt_info>
			<output>
				<port id="0" precision="FP32">
					<dim>1</dim>
					<dim>144</dim>
					<dim>1</dim>
					<dim>1</dim>
				</port>
			</output>
		</layer>
		<layer id="216" name="conv7_2/bn/variance/Fused_Add_" type="Add" version="opset1">
			<data auto_broadcast="numpy"/>
			<rt_info>
				<attribute name="fused_names" version="0" value="conv7_2/bn/variance/Fused_Add_"/>
			</rt_info>
			<input>
				<port id="0" precision="FP32">
					<dim>1</dim>
					<dim>144</dim>
					<dim>3</dim>
					<dim>6</dim>
				</port>
				<port id="1" precision="FP32">
					<dim>1</dim>
					<dim>144</dim>
					<dim>1</dim>
					<dim>1</dim>
				</port>
			</input>
			<output>
				<port id="2" precision="FP32" names="conv7_2">
					<dim>1</dim>
					<dim>144</dim>
					<dim>3</dim>
					<dim>6</dim>
				</port>
			</output>
		</layer>
		<layer id="217" name="relu7_2" type="ReLU" version="opset1">
			<rt_info>
				<attribute name="fused_names" version="0" value="relu7_2"/>
			</rt_info>
			<input>
				<port id="0" precision="FP32">
					<dim>1</dim>
					<dim>144</dim>
					<dim>3</dim>
					<dim>6</dim>
				</port>
			</input>
			<output>
				<port id="1" precision="FP32" names="conv7_2">
					<dim>1</dim>
					<dim>144</dim>
					<dim>3</dim>
					<dim>6</dim>
				</port>
			</output>
		</layer>
		<layer id="218" name="522" type="Const" version="opset1">
			<data element_type="f32" shape="24, 144, 3, 3" offset="3430656" size="124416"/>
			<rt_info>
				<attribute name="fused_names" version="0" value="522"/>
			</rt_info>
			<output>
				<port id="0" precision="FP32">
					<dim>24</dim>
					<dim>144</dim>
					<dim>3</dim>
					<dim>3</dim>
				</port>
			</output>
		</layer>
		<layer id="219" name="conv7_2_mbox_loc/WithoutBiases" type="Convolution" version="opset1">
			<data strides="1, 1" dilations="1, 1" pads_begin="1, 1" pads_end="1, 1" auto_pad="explicit"/>
			<rt_info>
				<attribute name="fused_names" version="0" value="conv7_2_mbox_loc/WithoutBiases"/>
			</rt_info>
			<input>
				<port id="0" precision="FP32">
					<dim>1</dim>
					<dim>144</dim>
					<dim>3</dim>
					<dim>6</dim>
				</port>
				<port id="1" precision="FP32">
					<dim>24</dim>
					<dim>144</dim>
					<dim>3</dim>
					<dim>3</dim>
				</port>
			</input>
			<output>
				<port id="2" precision="FP32">
					<dim>1</dim>
					<dim>24</dim>
					<dim>3</dim>
					<dim>6</dim>
				</port>
			</output>
		</layer>
		<layer id="220" name="conv7_2_mbox_loc/Dims6467" type="Const" version="opset1">
			<data element_type="f32" shape="1, 24, 1, 1" offset="3555072" size="96"/>
			<rt_info>
				<attribute name="fused_names" version="0" value="conv7_2_mbox_loc/Dims6467"/>
			</rt_info>
			<output>
				<port id="0" precision="FP32">
					<dim>1</dim>
					<dim>24</dim>
					<dim>1</dim>
					<dim>1</dim>
				</port>
			</output>
		</layer>
		<layer id="221" name="conv7_2_mbox_loc" type="Add" version="opset1">
			<data auto_broadcast="numpy"/>
			<rt_info>
				<attribute name="fused_names" version="0" value="conv7_2_mbox_loc"/>
			</rt_info>
			<input>
				<port id="0" precision="FP32">
					<dim>1</dim>
					<dim>24</dim>
					<dim>3</dim>
					<dim>6</dim>
				</port>
				<port id="1" precision="FP32">
					<dim>1</dim>
					<dim>24</dim>
					<dim>1</dim>
					<dim>1</dim>
				</port>
			</input>
			<output>
				<port id="2" precision="FP32" names="conv7_2_mbox_loc">
					<dim>1</dim>
					<dim>24</dim>
					<dim>3</dim>
					<dim>6</dim>
				</port>
			</output>
		</layer>
		<layer id="222" name="552" type="Const" version="opset1">
			<data element_type="i64" shape="4" offset="2438096" size="32"/>
			<rt_info>
				<attribute name="fused_names" version="0" value="552"/>
			</rt_info>
			<output>
				<port id="0" precision="I64">
					<dim>4</dim>
				</port>
			</output>
		</layer>
		<layer id="223" name="conv7_2_mbox_loc_perm" type="Transpose" version="opset1">
			<rt_info>
				<attribute name="fused_names" version="0" value="conv7_2_mbox_loc_perm"/>
			</rt_info>
			<input>
				<port id="0" precision="FP32">
					<dim>1</dim>
					<dim>24</dim>
					<dim>3</dim>
					<dim>6</dim>
				</port>
				<port id="1" precision="I64">
					<dim>4</dim>
				</port>
			</input>
			<output>
				<port id="2" precision="FP32" names="conv7_2_mbox_loc_perm">
					<dim>1</dim>
					<dim>3</dim>
					<dim>6</dim>
					<dim>24</dim>
				</port>
			</output>
		</layer>
		<layer id="224" name="617/shapes_concat" type="Const" version="opset1">
			<data element_type="i64" shape="2" offset="2438128" size="16"/>
			<rt_info>
				<attribute name="fused_names" version="0" value="617/shapes_concat"/>
			</rt_info>
			<output>
				<port id="0" precision="I64">
					<dim>2</dim>
				</port>
			</output>
		</layer>
		<layer id="225" name="conv7_2_mbox_loc_flat" type="Reshape" version="opset1">
			<data special_zero="true"/>
			<rt_info>
				<attribute name="fused_names" version="0" value="conv7_2_mbox_loc_flat"/>
			</rt_info>
			<input>
				<port id="0" precision="FP32">
					<dim>1</dim>
					<dim>3</dim>
					<dim>6</dim>
					<dim>24</dim>
				</port>
				<port id="1" precision="I64">
					<dim>2</dim>
				</port>
			</input>
			<output>
				<port id="2" precision="FP32" names="conv7_2_mbox_loc_flat">
					<dim>1</dim>
					<dim>432</dim>
				</port>
			</output>
		</layer>
		<layer id="226" name="383" type="Const" version="opset1">
			<data element_type="f32" shape="24, 144, 3, 3" offset="3555168" size="124416"/>
			<rt_info>
				<attribute name="fused_names" version="0" value="383"/>
			</rt_info>
			<output>
				<port id="0" precision="FP32">
					<dim>24</dim>
					<dim>144</dim>
					<dim>3</dim>
					<dim>3</dim>
				</port>
			</output>
		</layer>
		<layer id="227" name="conv7_2_mbox_loc_bigpriors/WithoutBiases" type="Convolution" version="opset1">
			<data strides="1, 1" dilations="1, 1" pads_begin="1, 1" pads_end="1, 1" auto_pad="explicit"/>
			<rt_info>
				<attribute name="fused_names" version="0" value="conv7_2_mbox_loc_bigpriors/WithoutBiases"/>
			</rt_info>
			<input>
				<port id="0" precision="FP32">
					<dim>1</dim>
					<dim>144</dim>
					<dim>3</dim>
					<dim>6</dim>
				</port>
				<port id="1" precision="FP32">
					<dim>24</dim>
					<dim>144</dim>
					<dim>3</dim>
					<dim>3</dim>
				</port>
			</input>
			<output>
				<port id="2" precision="FP32">
					<dim>1</dim>
					<dim>24</dim>
					<dim>3</dim>
					<dim>6</dim>
				</port>
			</output>
		</layer>
		<layer id="228" name="conv7_2_mbox_loc_bigpriors/Dims6389" type="Const" version="opset1">
			<data element_type="f32" shape="1, 24, 1, 1" offset="3679584" size="96"/>
			<rt_info>
				<attribute name="fused_names" version="0" value="conv7_2_mbox_loc_bigpriors/Dims6389"/>
			</rt_info>
			<output>
				<port id="0" precision="FP32">
					<dim>1</dim>
					<dim>24</dim>
					<dim>1</dim>
					<dim>1</dim>
				</port>
			</output>
		</layer>
		<layer id="229" name="conv7_2_mbox_loc_bigpriors" type="Add" version="opset1">
			<data auto_broadcast="numpy"/>
			<rt_info>
				<attribute name="fused_names" version="0" value="conv7_2_mbox_loc_bigpriors"/>
			</rt_info>
			<input>
				<port id="0" precision="FP32">
					<dim>1</dim>
					<dim>24</dim>
					<dim>3</dim>
					<dim>6</dim>
				</port>
				<port id="1" precision="FP32">
					<dim>1</dim>
					<dim>24</dim>
					<dim>1</dim>
					<dim>1</dim>
				</port>
			</input>
			<output>
				<port id="2" precision="FP32" names="conv7_2_mbox_loc_bigpriors">
					<dim>1</dim>
					<dim>24</dim>
					<dim>3</dim>
					<dim>6</dim>
				</port>
			</output>
		</layer>
		<layer id="230" name="564" type="Const" version="opset1">
			<data element_type="i64" shape="4" offset="2438096" size="32"/>
			<rt_info>
				<attribute name="fused_names" version="0" value="564"/>
			</rt_info>
			<output>
				<port id="0" precision="I64">
					<dim>4</dim>
				</port>
			</output>
		</layer>
		<layer id="231" name="conv7_2_mbox_loc_perm_bigpriors" type="Transpose" version="opset1">
			<rt_info>
				<attribute name="fused_names" version="0" value="conv7_2_mbox_loc_perm_bigpriors"/>
			</rt_info>
			<input>
				<port id="0" precision="FP32">
					<dim>1</dim>
					<dim>24</dim>
					<dim>3</dim>
					<dim>6</dim>
				</port>
				<port id="1" precision="I64">
					<dim>4</dim>
				</port>
			</input>
			<output>
				<port id="2" precision="FP32" names="conv7_2_mbox_loc_perm_bigpriors">
					<dim>1</dim>
					<dim>3</dim>
					<dim>6</dim>
					<dim>24</dim>
				</port>
			</output>
		</layer>
		<layer id="232" name="642/shapes_concat" type="Const" version="opset1">
			<data element_type="i64" shape="2" offset="2438128" size="16"/>
			<rt_info>
				<attribute name="fused_names" version="0" value="642/shapes_concat"/>
			</rt_info>
			<output>
				<port id="0" precision="I64">
					<dim>2</dim>
				</port>
			</output>
		</layer>
		<layer id="233" name="conv7_2_mbox_loc_flat_bigpriors" type="Reshape" version="opset1">
			<data special_zero="true"/>
			<rt_info>
				<attribute name="fused_names" version="0" value="conv7_2_mbox_loc_flat_bigpriors"/>
			</rt_info>
			<input>
				<port id="0" precision="FP32">
					<dim>1</dim>
					<dim>3</dim>
					<dim>6</dim>
					<dim>24</dim>
				</port>
				<port id="1" precision="I64">
					<dim>2</dim>
				</port>
			</input>
			<output>
				<port id="2" precision="FP32" names="conv7_2_mbox_loc_flat_bigpriors">
					<dim>1</dim>
					<dim>432</dim>
				</port>
			</output>
		</layer>
		<layer id="234" name="conv8_1/bn/mean/Fused_Mul__copy" type="Const" version="opset1">
			<data element_type="f32" shape="120, 144, 1, 1" offset="3679680" size="69120"/>
			<rt_info>
				<attribute name="fused_names" version="0" value="conv8_1/bn/mean/Fused_Mul__copy"/>
			</rt_info>
			<output>
				<port id="0" precision="FP32">
					<dim>120</dim>
					<dim>144</dim>
					<dim>1</dim>
					<dim>1</dim>
				</port>
			</output>
		</layer>
		<layer id="235" name="conv8_1" type="Convolution" version="opset1">
			<data strides="1, 1" dilations="1, 1" pads_begin="0, 0" pads_end="0, 0" auto_pad="explicit"/>
			<rt_info>
				<attribute name="fused_names" version="0" value="conv8_1"/>
			</rt_info>
			<input>
				<port id="0" precision="FP32">
					<dim>1</dim>
					<dim>144</dim>
					<dim>3</dim>
					<dim>6</dim>
				</port>
				<port id="1" precision="FP32">
					<dim>120</dim>
					<dim>144</dim>
					<dim>1</dim>
					<dim>1</dim>
				</port>
			</input>
			<output>
				<port id="2" precision="FP32">
					<dim>1</dim>
					<dim>120</dim>
					<dim>3</dim>
					<dim>6</dim>
				</port>
			</output>
		</layer>
		<layer id="236" name="data_add_1130311308" type="Const" version="opset1">
			<data element_type="f32" shape="1, 120, 1, 1" offset="3748800" size="480"/>
			<rt_info>
				<attribute name="fused_names" version="0" value="data_add_1130311308"/>
			</rt_info>
			<output>
				<port id="0" precision="FP32">
					<dim>1</dim>
					<dim>120</dim>
					<dim>1</dim>
					<dim>1</dim>
				</port>
			</output>
		</layer>
		<layer id="237" name="conv8_1/bn/variance/Fused_Add_" type="Add" version="opset1">
			<data auto_broadcast="numpy"/>
			<rt_info>
				<attribute name="fused_names" version="0" value="conv8_1/bn/variance/Fused_Add_"/>
			</rt_info>
			<input>
				<port id="0" precision="FP32">
					<dim>1</dim>
					<dim>120</dim>
					<dim>3</dim>
					<dim>6</dim>
				</port>
				<port id="1" precision="FP32">
					<dim>1</dim>
					<dim>120</dim>
					<dim>1</dim>
					<dim>1</dim>
				</port>
			</input>
			<output>
				<port id="2" precision="FP32" names="conv8_1">
					<dim>1</dim>
					<dim>120</dim>
					<dim>3</dim>
					<dim>6</dim>
				</port>
			</output>
		</layer>
		<layer id="238" name="relu8_1" type="ReLU" version="opset1">
			<rt_info>
				<attribute name="fused_names" version="0" value="relu8_1"/>
			</rt_info>
			<input>
				<port id="0" precision="FP32">
					<dim>1</dim>
					<dim>120</dim>
					<dim>3</dim>
					<dim>6</dim>
				</port>
			</input>
			<output>
				<port id="1" precision="FP32" names="conv8_1">
					<dim>1</dim>
					<dim>120</dim>
					<dim>3</dim>
					<dim>6</dim>
				</port>
			</output>
		</layer>
		<layer id="239" name="conv8_2/dw/bn/mean/Fused_Mul__copy" type="Const" version="opset1">
			<data element_type="f32" shape="120, 1, 1, 3, 3" offset="3749280" size="4320"/>
			<rt_info>
				<attribute name="fused_names" version="0" value="conv8_2/dw/bn/mean/Fused_Mul__copy"/>
			</rt_info>
			<output>
				<port id="0" precision="FP32">
					<dim>120</dim>
					<dim>1</dim>
					<dim>1</dim>
					<dim>3</dim>
					<dim>3</dim>
				</port>
			</output>
		</layer>
		<layer id="240" name="conv8_2/dw" type="GroupConvolution" version="opset1">
			<data strides="2, 2" pads_begin="1, 1" pads_end="1, 1" dilations="1, 1" auto_pad="explicit"/>
			<rt_info>
				<attribute name="fused_names" version="0" value="conv8_2/dw"/>
			</rt_info>
			<input>
				<port id="0" precision="FP32">
					<dim>1</dim>
					<dim>120</dim>
					<dim>3</dim>
					<dim>6</dim>
				</port>
				<port id="1" precision="FP32">
					<dim>120</dim>
					<dim>1</dim>
					<dim>1</dim>
					<dim>3</dim>
					<dim>3</dim>
				</port>
			</input>
			<output>
				<port id="2" precision="FP32">
					<dim>1</dim>
					<dim>120</dim>
					<dim>2</dim>
					<dim>3</dim>
				</port>
			</output>
		</layer>
		<layer id="241" name="data_add_1131111316" type="Const" version="opset1">
			<data element_type="f32" shape="1, 120, 1, 1" offset="3753600" size="480"/>
			<rt_info>
				<attribute name="fused_names" version="0" value="data_add_1131111316"/>
			</rt_info>
			<output>
				<port id="0" precision="FP32">
					<dim>1</dim>
					<dim>120</dim>
					<dim>1</dim>
					<dim>1</dim>
				</port>
			</output>
		</layer>
		<layer id="242" name="conv8_2/dw/bn/variance/Fused_Add_" type="Add" version="opset1">
			<data auto_broadcast="numpy"/>
			<rt_info>
				<attribute name="fused_names" version="0" value="conv8_2/dw/bn/variance/Fused_Add_"/>
			</rt_info>
			<input>
				<port id="0" precision="FP32">
					<dim>1</dim>
					<dim>120</dim>
					<dim>2</dim>
					<dim>3</dim>
				</port>
				<port id="1" precision="FP32">
					<dim>1</dim>
					<dim>120</dim>
					<dim>1</dim>
					<dim>1</dim>
				</port>
			</input>
			<output>
				<port id="2" precision="FP32" names="conv8_2/dw">
					<dim>1</dim>
					<dim>120</dim>
					<dim>2</dim>
					<dim>3</dim>
				</port>
			</output>
		</layer>
		<layer id="243" name="relu8_2/dw" type="ReLU" version="opset1">
			<rt_info>
				<attribute name="fused_names" version="0" value="relu8_2/dw"/>
			</rt_info>
			<input>
				<port id="0" precision="FP32">
					<dim>1</dim>
					<dim>120</dim>
					<dim>2</dim>
					<dim>3</dim>
				</port>
			</input>
			<output>
				<port id="1" precision="FP32" names="conv8_2/dw">
					<dim>1</dim>
					<dim>120</dim>
					<dim>2</dim>
					<dim>3</dim>
				</port>
			</output>
		</layer>
		<layer id="244" name="conv8_2/bn/mean/Fused_Mul__copy" type="Const" version="opset1">
			<data element_type="f32" shape="216, 120, 1, 1" offset="3754080" size="103680"/>
			<rt_info>
				<attribute name="fused_names" version="0" value="conv8_2/bn/mean/Fused_Mul__copy"/>
			</rt_info>
			<output>
				<port id="0" precision="FP32">
					<dim>216</dim>
					<dim>120</dim>
					<dim>1</dim>
					<dim>1</dim>
				</port>
			</output>
		</layer>
		<layer id="245" name="conv8_2_new" type="Convolution" version="opset1">
			<data strides="1, 1" dilations="1, 1" pads_begin="0, 0" pads_end="0, 0" auto_pad="explicit"/>
			<rt_info>
				<attribute name="fused_names" version="0" value="conv8_2_new"/>
			</rt_info>
			<input>
				<port id="0" precision="FP32">
					<dim>1</dim>
					<dim>120</dim>
					<dim>2</dim>
					<dim>3</dim>
				</port>
				<port id="1" precision="FP32">
					<dim>216</dim>
					<dim>120</dim>
					<dim>1</dim>
					<dim>1</dim>
				</port>
			</input>
			<output>
				<port id="2" precision="FP32">
					<dim>1</dim>
					<dim>216</dim>
					<dim>2</dim>
					<dim>3</dim>
				</port>
			</output>
		</layer>
		<layer id="246" name="data_add_1131911324" type="Const" version="opset1">
			<data element_type="f32" shape="1, 216, 1, 1" offset="3857760" size="864"/>
			<rt_info>
				<attribute name="fused_names" version="0" value="data_add_1131911324"/>
			</rt_info>
			<output>
				<port id="0" precision="FP32">
					<dim>1</dim>
					<dim>216</dim>
					<dim>1</dim>
					<dim>1</dim>
				</port>
			</output>
		</layer>
		<layer id="247" name="conv8_2/bn/variance/Fused_Add_" type="Add" version="opset1">
			<data auto_broadcast="numpy"/>
			<rt_info>
				<attribute name="fused_names" version="0" value="conv8_2/bn/variance/Fused_Add_"/>
			</rt_info>
			<input>
				<port id="0" precision="FP32">
					<dim>1</dim>
					<dim>216</dim>
					<dim>2</dim>
					<dim>3</dim>
				</port>
				<port id="1" precision="FP32">
					<dim>1</dim>
					<dim>216</dim>
					<dim>1</dim>
					<dim>1</dim>
				</port>
			</input>
			<output>
				<port id="2" precision="FP32" names="conv8_2">
					<dim>1</dim>
					<dim>216</dim>
					<dim>2</dim>
					<dim>3</dim>
				</port>
			</output>
		</layer>
		<layer id="248" name="relu8_2" type="ReLU" version="opset1">
			<rt_info>
				<attribute name="fused_names" version="0" value="relu8_2"/>
			</rt_info>
			<input>
				<port id="0" precision="FP32">
					<dim>1</dim>
					<dim>216</dim>
					<dim>2</dim>
					<dim>3</dim>
				</port>
			</input>
			<output>
				<port id="1" precision="FP32" names="conv8_2">
					<dim>1</dim>
					<dim>216</dim>
					<dim>2</dim>
					<dim>3</dim>
				</port>
			</output>
		</layer>
		<layer id="249" name="385" type="Const" version="opset1">
			<data element_type="f32" shape="16, 216, 3, 3" offset="3858624" size="124416"/>
			<rt_info>
				<attribute name="fused_names" version="0" value="385"/>
			</rt_info>
			<output>
				<port id="0" precision="FP32">
					<dim>16</dim>
					<dim>216</dim>
					<dim>3</dim>
					<dim>3</dim>
				</port>
			</output>
		</layer>
		<layer id="250" name="conv8_2_mbox_loc/WithoutBiases" type="Convolution" version="opset1">
			<data strides="1, 1" dilations="1, 1" pads_begin="1, 1" pads_end="1, 1" auto_pad="explicit"/>
			<rt_info>
				<attribute name="fused_names" version="0" value="conv8_2_mbox_loc/WithoutBiases"/>
			</rt_info>
			<input>
				<port id="0" precision="FP32">
					<dim>1</dim>
					<dim>216</dim>
					<dim>2</dim>
					<dim>3</dim>
				</port>
				<port id="1" precision="FP32">
					<dim>16</dim>
					<dim>216</dim>
					<dim>3</dim>
					<dim>3</dim>
				</port>
			</input>
			<output>
				<port id="2" precision="FP32">
					<dim>1</dim>
					<dim>16</dim>
					<dim>2</dim>
					<dim>3</dim>
				</port>
			</output>
		</layer>
		<layer id="251" name="conv8_2_mbox_loc/Dims6425" type="Const" version="opset1">
			<data element_type="f32" shape="1, 16, 1, 1" offset="3983040" size="64"/>
			<rt_info>
				<attribute name="fused_names" version="0" value="conv8_2_mbox_loc/Dims6425"/>
			</rt_info>
			<output>
				<port id="0" precision="FP32">
					<dim>1</dim>
					<dim>16</dim>
					<dim>1</dim>
					<dim>1</dim>
				</port>
			</output>
		</layer>
		<layer id="252" name="conv8_2_mbox_loc" type="Add" version="opset1">
			<data auto_broadcast="numpy"/>
			<rt_info>
				<attribute name="fused_names" version="0" value="conv8_2_mbox_loc"/>
			</rt_info>
			<input>
				<port id="0" precision="FP32">
					<dim>1</dim>
					<dim>16</dim>
					<dim>2</dim>
					<dim>3</dim>
				</port>
				<port id="1" precision="FP32">
					<dim>1</dim>
					<dim>16</dim>
					<dim>1</dim>
					<dim>1</dim>
				</port>
			</input>
			<output>
				<port id="2" precision="FP32" names="conv8_2_mbox_loc">
					<dim>1</dim>
					<dim>16</dim>
					<dim>2</dim>
					<dim>3</dim>
				</port>
			</output>
		</layer>
		<layer id="253" name="570" type="Const" version="opset1">
			<data element_type="i64" shape="4" offset="2438096" size="32"/>
			<rt_info>
				<attribute name="fused_names" version="0" value="570"/>
			</rt_info>
			<output>
				<port id="0" precision="I64">
					<dim>4</dim>
				</port>
			</output>
		</layer>
		<layer id="254" name="conv8_2_mbox_loc_perm" type="Transpose" version="opset1">
			<rt_info>
				<attribute name="fused_names" version="0" value="conv8_2_mbox_loc_perm"/>
			</rt_info>
			<input>
				<port id="0" precision="FP32">
					<dim>1</dim>
					<dim>16</dim>
					<dim>2</dim>
					<dim>3</dim>
				</port>
				<port id="1" precision="I64">
					<dim>4</dim>
				</port>
			</input>
			<output>
				<port id="2" precision="FP32" names="conv8_2_mbox_loc_perm">
					<dim>1</dim>
					<dim>2</dim>
					<dim>3</dim>
					<dim>16</dim>
				</port>
			</output>
		</layer>
		<layer id="255" name="587/shapes_concat" type="Const" version="opset1">
			<data element_type="i64" shape="2" offset="2438128" size="16"/>
			<rt_info>
				<attribute name="fused_names" version="0" value="587/shapes_concat"/>
			</rt_info>
			<output>
				<port id="0" precision="I64">
					<dim>2</dim>
				</port>
			</output>
		</layer>
		<layer id="256" name="conv8_2_mbox_loc_flat" type="Reshape" version="opset1">
			<data special_zero="true"/>
			<rt_info>
				<attribute name="fused_names" version="0" value="conv8_2_mbox_loc_flat"/>
			</rt_info>
			<input>
				<port id="0" precision="FP32">
					<dim>1</dim>
					<dim>2</dim>
					<dim>3</dim>
					<dim>16</dim>
				</port>
				<port id="1" precision="I64">
					<dim>2</dim>
				</port>
			</input>
			<output>
				<port id="2" precision="FP32" names="conv8_2_mbox_loc_flat">
					<dim>1</dim>
					<dim>96</dim>
				</port>
			</output>
		</layer>
		<layer id="257" name="conv9_1/bn/mean/Fused_Mul__copy" type="Const" version="opset1">
			<data element_type="f32" shape="64, 216, 1, 1" offset="3983104" size="55296"/>
			<rt_info>
				<attribute name="fused_names" version="0" value="conv9_1/bn/mean/Fused_Mul__copy"/>
			</rt_info>
			<output>
				<port id="0" precision="FP32">
					<dim>64</dim>
					<dim>216</dim>
					<dim>1</dim>
					<dim>1</dim>
				</port>
			</output>
		</layer>
		<layer id="258" name="conv9_1" type="Convolution" version="opset1">
			<data strides="1, 1" dilations="1, 1" pads_begin="0, 0" pads_end="0, 0" auto_pad="explicit"/>
			<rt_info>
				<attribute name="fused_names" version="0" value="conv9_1"/>
			</rt_info>
			<input>
				<port id="0" precision="FP32">
					<dim>1</dim>
					<dim>216</dim>
					<dim>2</dim>
					<dim>3</dim>
				</port>
				<port id="1" precision="FP32">
					<dim>64</dim>
					<dim>216</dim>
					<dim>1</dim>
					<dim>1</dim>
				</port>
			</input>
			<output>
				<port id="2" precision="FP32">
					<dim>1</dim>
					<dim>64</dim>
					<dim>2</dim>
					<dim>3</dim>
				</port>
			</output>
		</layer>
		<layer id="259" name="data_add_1132711332" type="Const" version="opset1">
			<data element_type="f32" shape="1, 64, 1, 1" offset="4038400" size="256"/>
			<rt_info>
				<attribute name="fused_names" version="0" value="data_add_1132711332"/>
			</rt_info>
			<output>
				<port id="0" precision="FP32">
					<dim>1</dim>
					<dim>64</dim>
					<dim>1</dim>
					<dim>1</dim>
				</port>
			</output>
		</layer>
		<layer id="260" name="conv9_1/bn/variance/Fused_Add_" type="Add" version="opset1">
			<data auto_broadcast="numpy"/>
			<rt_info>
				<attribute name="fused_names" version="0" value="conv9_1/bn/variance/Fused_Add_"/>
			</rt_info>
			<input>
				<port id="0" precision="FP32">
					<dim>1</dim>
					<dim>64</dim>
					<dim>2</dim>
					<dim>3</dim>
				</port>
				<port id="1" precision="FP32">
					<dim>1</dim>
					<dim>64</dim>
					<dim>1</dim>
					<dim>1</dim>
				</port>
			</input>
			<output>
				<port id="2" precision="FP32" names="conv9_1">
					<dim>1</dim>
					<dim>64</dim>
					<dim>2</dim>
					<dim>3</dim>
				</port>
			</output>
		</layer>
		<layer id="261" name="relu9_1" type="ReLU" version="opset1">
			<rt_info>
				<attribute name="fused_names" version="0" value="relu9_1"/>
			</rt_info>
			<input>
				<port id="0" precision="FP32">
					<dim>1</dim>
					<dim>64</dim>
					<dim>2</dim>
					<dim>3</dim>
				</port>
			</input>
			<output>
				<port id="1" precision="FP32" names="conv9_1">
					<dim>1</dim>
					<dim>64</dim>
					<dim>2</dim>
					<dim>3</dim>
				</port>
			</output>
		</layer>
		<layer id="262" name="conv9_2/dw/bn/mean/Fused_Mul__copy" type="Const" version="opset1">
			<data element_type="f32" shape="64, 1, 1, 3, 3" offset="4038656" size="2304"/>
			<rt_info>
				<attribute name="fused_names" version="0" value="conv9_2/dw/bn/mean/Fused_Mul__copy"/>
			</rt_info>
			<output>
				<port id="0" precision="FP32">
					<dim>64</dim>
					<dim>1</dim>
					<dim>1</dim>
					<dim>3</dim>
					<dim>3</dim>
				</port>
			</output>
		</layer>
		<layer id="263" name="conv9_2/dw" type="GroupConvolution" version="opset1">
			<data strides="2, 2" pads_begin="1, 1" pads_end="1, 1" dilations="1, 1" auto_pad="explicit"/>
			<rt_info>
				<attribute name="fused_names" version="0" value="conv9_2/dw"/>
			</rt_info>
			<input>
				<port id="0" precision="FP32">
					<dim>1</dim>
					<dim>64</dim>
					<dim>2</dim>
					<dim>3</dim>
				</port>
				<port id="1" precision="FP32">
					<dim>64</dim>
					<dim>1</dim>
					<dim>1</dim>
					<dim>3</dim>
					<dim>3</dim>
				</port>
			</input>
			<output>
				<port id="2" precision="FP32">
					<dim>1</dim>
					<dim>64</dim>
					<dim>1</dim>
					<dim>2</dim>
				</port>
			</output>
		</layer>
		<layer id="264" name="data_add_1133511340" type="Const" version="opset1">
			<data element_type="f32" shape="1, 64, 1, 1" offset="4040960" size="256"/>
			<rt_info>
				<attribute name="fused_names" version="0" value="data_add_1133511340"/>
			</rt_info>
			<output>
				<port id="0" precision="FP32">
					<dim>1</dim>
					<dim>64</dim>
					<dim>1</dim>
					<dim>1</dim>
				</port>
			</output>
		</layer>
		<layer id="265" name="conv9_2/dw/bn/variance/Fused_Add_" type="Add" version="opset1">
			<data auto_broadcast="numpy"/>
			<rt_info>
				<attribute name="fused_names" version="0" value="conv9_2/dw/bn/variance/Fused_Add_"/>
			</rt_info>
			<input>
				<port id="0" precision="FP32">
					<dim>1</dim>
					<dim>64</dim>
					<dim>1</dim>
					<dim>2</dim>
				</port>
				<port id="1" precision="FP32">
					<dim>1</dim>
					<dim>64</dim>
					<dim>1</dim>
					<dim>1</dim>
				</port>
			</input>
			<output>
				<port id="2" precision="FP32" names="conv9_2/dw">
					<dim>1</dim>
					<dim>64</dim>
					<dim>1</dim>
					<dim>2</dim>
				</port>
			</output>
		</layer>
		<layer id="266" name="relu9_2/dw" type="ReLU" version="opset1">
			<rt_info>
				<attribute name="fused_names" version="0" value="relu9_2/dw"/>
			</rt_info>
			<input>
				<port id="0" precision="FP32">
					<dim>1</dim>
					<dim>64</dim>
					<dim>1</dim>
					<dim>2</dim>
				</port>
			</input>
			<output>
				<port id="1" precision="FP32" names="conv9_2/dw">
					<dim>1</dim>
					<dim>64</dim>
					<dim>1</dim>
					<dim>2</dim>
				</port>
			</output>
		</layer>
		<layer id="267" name="conv9_2/bn/mean/Fused_Mul__copy" type="Const" version="opset1">
			<data element_type="f32" shape="128, 64, 1, 1" offset="4041216" size="32768"/>
			<rt_info>
				<attribute name="fused_names" version="0" value="conv9_2/bn/mean/Fused_Mul__copy"/>
			</rt_info>
			<output>
				<port id="0" precision="FP32">
					<dim>128</dim>
					<dim>64</dim>
					<dim>1</dim>
					<dim>1</dim>
				</port>
			</output>
		</layer>
		<layer id="268" name="conv9_2_new" type="Convolution" version="opset1">
			<data strides="1, 1" dilations="1, 1" pads_begin="0, 0" pads_end="0, 0" auto_pad="explicit"/>
			<rt_info>
				<attribute name="fused_names" version="0" value="conv9_2_new"/>
			</rt_info>
			<input>
				<port id="0" precision="FP32">
					<dim>1</dim>
					<dim>64</dim>
					<dim>1</dim>
					<dim>2</dim>
				</port>
				<port id="1" precision="FP32">
					<dim>128</dim>
					<dim>64</dim>
					<dim>1</dim>
					<dim>1</dim>
				</port>
			</input>
			<output>
				<port id="2" precision="FP32">
					<dim>1</dim>
					<dim>128</dim>
					<dim>1</dim>
					<dim>2</dim>
				</port>
			</output>
		</layer>
		<layer id="269" name="data_add_1134311348" type="Const" version="opset1">
			<data element_type="f32" shape="1, 128, 1, 1" offset="4073984" size="512"/>
			<rt_info>
				<attribute name="fused_names" version="0" value="data_add_1134311348"/>
			</rt_info>
			<output>
				<port id="0" precision="FP32">
					<dim>1</dim>
					<dim>128</dim>
					<dim>1</dim>
					<dim>1</dim>
				</port>
			</output>
		</layer>
		<layer id="270" name="conv9_2/bn/variance/Fused_Add_" type="Add" version="opset1">
			<data auto_broadcast="numpy"/>
			<rt_info>
				<attribute name="fused_names" version="0" value="conv9_2/bn/variance/Fused_Add_"/>
			</rt_info>
			<input>
				<port id="0" precision="FP32">
					<dim>1</dim>
					<dim>128</dim>
					<dim>1</dim>
					<dim>2</dim>
				</port>
				<port id="1" precision="FP32">
					<dim>1</dim>
					<dim>128</dim>
					<dim>1</dim>
					<dim>1</dim>
				</port>
			</input>
			<output>
				<port id="2" precision="FP32" names="conv9_2">
					<dim>1</dim>
					<dim>128</dim>
					<dim>1</dim>
					<dim>2</dim>
				</port>
			</output>
		</layer>
		<layer id="271" name="relu9_2" type="ReLU" version="opset1">
			<rt_info>
				<attribute name="fused_names" version="0" value="relu9_2"/>
			</rt_info>
			<input>
				<port id="0" precision="FP32">
					<dim>1</dim>
					<dim>128</dim>
					<dim>1</dim>
					<dim>2</dim>
				</port>
			</input>
			<output>
				<port id="1" precision="FP32" names="conv9_2">
					<dim>1</dim>
					<dim>128</dim>
					<dim>1</dim>
					<dim>2</dim>
				</port>
			</output>
		</layer>
		<layer id="272" name="349" type="Const" version="opset1">
			<data element_type="f32" shape="16, 128, 3, 3" offset="4074496" size="73728"/>
			<rt_info>
				<attribute name="fused_names" version="0" value="349"/>
			</rt_info>
			<output>
				<port id="0" precision="FP32">
					<dim>16</dim>
					<dim>128</dim>
					<dim>3</dim>
					<dim>3</dim>
				</port>
			</output>
		</layer>
		<layer id="273" name="conv9_2_mbox_loc/WithoutBiases" type="Convolution" version="opset1">
			<data strides="1, 1" dilations="1, 1" pads_begin="1, 1" pads_end="1, 1" auto_pad="explicit"/>
			<rt_info>
				<attribute name="fused_names" version="0" value="conv9_2_mbox_loc/WithoutBiases"/>
			</rt_info>
			<input>
				<port id="0" precision="FP32">
					<dim>1</dim>
					<dim>128</dim>
					<dim>1</dim>
					<dim>2</dim>
				</port>
				<port id="1" precision="FP32">
					<dim>16</dim>
					<dim>128</dim>
					<dim>3</dim>
					<dim>3</dim>
				</port>
			</input>
			<output>
				<port id="2" precision="FP32">
					<dim>1</dim>
					<dim>16</dim>
					<dim>1</dim>
					<dim>2</dim>
				</port>
			</output>
		</layer>
		<layer id="274" name="conv9_2_mbox_loc/Dims6455" type="Const" version="opset1">
			<data element_type="f32" shape="1, 16, 1, 1" offset="4148224" size="64"/>
			<rt_info>
				<attribute name="fused_names" version="0" value="conv9_2_mbox_loc/Dims6455"/>
			</rt_info>
			<output>
				<port id="0" precision="FP32">
					<dim>1</dim>
					<dim>16</dim>
					<dim>1</dim>
					<dim>1</dim>
				</port>
			</output>
		</layer>
		<layer id="275" name="conv9_2_mbox_loc" type="Add" version="opset1">
			<data auto_broadcast="numpy"/>
			<rt_info>
				<attribute name="fused_names" version="0" value="conv9_2_mbox_loc"/>
			</rt_info>
			<input>
				<port id="0" precision="FP32">
					<dim>1</dim>
					<dim>16</dim>
					<dim>1</dim>
					<dim>2</dim>
				</port>
				<port id="1" precision="FP32">
					<dim>1</dim>
					<dim>16</dim>
					<dim>1</dim>
					<dim>1</dim>
				</port>
			</input>
			<output>
				<port id="2" precision="FP32" names="conv9_2_mbox_loc">
					<dim>1</dim>
					<dim>16</dim>
					<dim>1</dim>
					<dim>2</dim>
				</port>
			</output>
		</layer>
		<layer id="276" name="558" type="Const" version="opset1">
			<data element_type="i64" shape="4" offset="2438096" size="32"/>
			<rt_info>
				<attribute name="fused_names" version="0" value="558"/>
			</rt_info>
			<output>
				<port id="0" precision="I64">
					<dim>4</dim>
				</port>
			</output>
		</layer>
		<layer id="277" name="conv9_2_mbox_loc_perm" type="Transpose" version="opset1">
			<rt_info>
				<attribute name="fused_names" version="0" value="conv9_2_mbox_loc_perm"/>
			</rt_info>
			<input>
				<port id="0" precision="FP32">
					<dim>1</dim>
					<dim>16</dim>
					<dim>1</dim>
					<dim>2</dim>
				</port>
				<port id="1" precision="I64">
					<dim>4</dim>
				</port>
			</input>
			<output>
				<port id="2" precision="FP32" names="conv9_2_mbox_loc_perm">
					<dim>1</dim>
					<dim>1</dim>
					<dim>2</dim>
					<dim>16</dim>
				</port>
			</output>
		</layer>
		<layer id="278" name="622/shapes_concat" type="Const" version="opset1">
			<data element_type="i64" shape="2" offset="2438128" size="16"/>
			<rt_info>
				<attribute name="fused_names" version="0" value="622/shapes_concat"/>
			</rt_info>
			<output>
				<port id="0" precision="I64">
					<dim>2</dim>
				</port>
			</output>
		</layer>
		<layer id="279" name="conv9_2_mbox_loc_flat" type="Reshape" version="opset1">
			<data special_zero="true"/>
			<rt_info>
				<attribute name="fused_names" version="0" value="conv9_2_mbox_loc_flat"/>
			</rt_info>
			<input>
				<port id="0" precision="FP32">
					<dim>1</dim>
					<dim>1</dim>
					<dim>2</dim>
					<dim>16</dim>
				</port>
				<port id="1" precision="I64">
					<dim>2</dim>
				</port>
			</input>
			<output>
				<port id="2" precision="FP32" names="conv9_2_mbox_loc_flat">
					<dim>1</dim>
					<dim>32</dim>
				</port>
			</output>
		</layer>
		<layer id="280" name="mbox_loc" type="Concat" version="opset1">
			<data axis="1"/>
			<rt_info>
				<attribute name="fused_names" version="0" value="mbox_loc"/>
			</rt_info>
			<input>
				<port id="0" precision="FP32">
					<dim>1</dim>
					<dim>16128</dim>
				</port>
				<port id="1" precision="FP32">
					<dim>1</dim>
					<dim>16128</dim>
				</port>
				<port id="2" precision="FP32">
					<dim>1</dim>
					<dim>6048</dim>
				</port>
				<port id="3" precision="FP32">
					<dim>1</dim>
					<dim>6048</dim>
				</port>
…
				<attribute name="fused_names" version="0" value="conv8_2_mbox_priorbox/ss_end1432619826"/>
			</rt_info>
			<output>
				<port id="0" precision="I64">
					<dim>1</dim>
				</port>
			</output>
		</layer>
		<layer id="467" name="conv8_2_mbox_priorbox/ss_stride1432720009" type="Const" version="opset1">
			<data element_type="i64" shape="1" offset="4660232" size="8"/>
			<rt_info>
				<attribute name="fused_names" version="0" value="conv8_2_mbox_priorbox/ss_stride1432720009"/>
			</rt_info>
			<output>
				<port id="0" precision="I64">
					<dim>1</dim>
				</port>
			</output>
		</layer>
		<layer id="468" name="conv8_2_mbox_priorbox/ss_1_port" type="StridedSlice" version="opset1">
			<data begin_mask="0" end_mask="1" new_axis_mask="0" shrink_axis_mask="0" ellipsis_mask="0"/>
			<rt_info>
				<attribute name="fused_names" version="0" value="conv8_2_mbox_priorbox/ss_1_port"/>
			</rt_info>
			<input>
				<port id="0" precision="I64">
					<dim>4</dim>
				</port>
				<port id="1" precision="I64">
					<dim>1</dim>
				</port>
				<port id="2" precision="I64">
					<dim>1</dim>
				</port>
				<port id="3" precision="I64">
					<dim>1</dim>
				</port>
			</input>
			<output>
				<port id="4" precision="I64">
					<dim>2</dim>
				</port>
			</output>
		</layer>
		<layer id="469" name="conv8_2_mbox_priorbox/naked_not_unsqueezed" type="PriorBox" version="opset1">
			<data min_size="288" max_size="345.6" aspect_ratio="2" density="" fixed_ratio="" fixed_size="" clip="false" flip="true" step="0" offset="0.5" variance="0.1, 0.1, 0.2, 0.2" scale_all_sizes="true"/>
			<rt_info>
				<attribute name="fused_names" version="0" value="conv8_2_mbox_priorbox/naked_not_unsqueezed"/>
			</rt_info>
			<input>
				<port id="0" precision="I64">
					<dim>2</dim>
				</port>
				<port id="1" precision="I64">
					<dim>2</dim>
				</port>
			</input>
			<output>
				<port id="2" precision="FP32">
					<dim>2</dim>
					<dim>96</dim>
				</port>
			</output>
		</layer>
		<layer id="470" name="conv8_2_mbox_priorbox/unsqueeze/value1433519847" type="Const" version="opset1">
			<data element_type="i64" shape="1" offset="4660240" size="8"/>
			<rt_info>
				<attribute name="fused_names" version="0" value="conv8_2_mbox_priorbox/unsqueeze/value1433519847"/>
			</rt_info>
			<output>
				<port id="0" precision="I64">
					<dim>1</dim>
				</port>
			</output>
		</layer>
		<layer id="471" name="conv8_2_mbox_priorbox" type="Unsqueeze" version="opset1">
			<rt_info>
				<attribute name="fused_names" version="0" value="conv8_2_mbox_priorbox"/>
			</rt_info>
			<input>
				<port id="0" precision="FP32">
					<dim>2</dim>
					<dim>96</dim>
				</port>
				<port id="1" precision="I64">
					<dim>1</dim>
				</port>
			</input>
			<output>
				<port id="2" precision="FP32" names="conv8_2_mbox_priorbox">
					<dim>1</dim>
					<dim>2</dim>
					<dim>96</dim>
				</port>
			</output>
		</layer>
		<layer id="472" name="conv9_2_mbox_priorbox/0_port" type="ShapeOf" version="opset3">
			<data output_type="i64"/>
			<rt_info>
				<attribute name="fused_names" version="0" value="conv9_2_mbox_priorbox/0_port"/>
			</rt_info>
			<input>
				<port id="0" precision="FP32">
					<dim>1</dim>
					<dim>128</dim>
					<dim>1</dim>
					<dim>2</dim>
				</port>
			</input>
			<output>
				<port id="1" precision="I64">
					<dim>4</dim>
				</port>
			</output>
		</layer>
		<layer id="473" name="conv9_2_mbox_priorbox/ss_begin1439720057" type="Const" version="opset1">
			<data element_type="i64" shape="1" offset="4660216" size="8"/>
			<rt_info>
				<attribute name="fused_names" version="0" value="conv9_2_mbox_priorbox/ss_begin1439720057"/>
			</rt_info>
			<output>
				<port id="0" precision="I64">
					<dim>1</dim>
				</port>
			</output>
		</layer>
		<layer id="474" name="conv9_2_mbox_priorbox/ss_end1439819718" type="Const" version="opset1">
			<data element_type="i64" shape="1" offset="4660224" size="8"/>
			<rt_info>
				<attribute name="fused_names" version="0" value="conv9_2_mbox_priorbox/ss_end1439819718"/>
			</rt_info>
			<output>
				<port id="0" precision="I64">
					<dim>1</dim>
				</port>
			</output>
		</layer>
		<layer id="475" name="conv9_2_mbox_priorbox/ss_stride1439919751" type="Const" version="opset1">
			<data element_type="i64" shape="1" offset="4660232" size="8"/>
			<rt_info>
				<attribute name="fused_names" version="0" value="conv9_2_mbox_priorbox/ss_stride1439919751"/>
			</rt_info>
			<output>
				<port id="0" precision="I64">
					<dim>1</dim>
				</port>
			</output>
		</layer>
		<layer id="476" name="conv9_2_mbox_priorbox/ss_0_port" type="StridedSlice" version="opset1">
			<data begin_mask="0" end_mask="1" new_axis_mask="0" shrink_axis_mask="0" ellipsis_mask="0"/>
			<rt_info>
				<attribute name="fused_names" version="0" value="conv9_2_mbox_priorbox/ss_0_port, conv9_2_mbox_priorbox/ss_begin1439720057, conv9_2_mbox_priorbox/ss_end1439819718, conv9_2_mbox_priorbox/ss_stride1439919751"/>
			</rt_info>
			<input>
				<port id="0" precision="I64">
					<dim>4</dim>
				</port>
				<port id="1" precision="I64">
					<dim>1</dim>
				</port>
				<port id="2" precision="I64">
					<dim>1</dim>
				</port>
				<port id="3" precision="I64">
					<dim>1</dim>
				</port>
			</input>
			<output>
				<port id="4" precision="I64">
					<dim>2</dim>
				</port>
			</output>
		</layer>
		<layer id="477" name="conv9_2_mbox_priorbox/ss_begin1439720183" type="Const" version="opset1">
			<data element_type="i64" shape="1" offset="4660216" size="8"/>
			<rt_info>
				<attribute name="fused_names" version="0" value="conv9_2_mbox_priorbox/ss_begin1439720183"/>
			</rt_info>
			<output>
				<port id="0" precision="I64">
					<dim>1</dim>
				</port>
			</output>
		</layer>
		<layer id="478" name="conv9_2_mbox_priorbox/ss_end1439819856" type="Const" version="opset1">
			<data element_type="i64" shape="1" offset="4660224" size="8"/>
			<rt_info>
				<attribute name="fused_names" version="0" value="conv9_2_mbox_priorbox/ss_end1439819856"/>
			</rt_info>
			<output>
				<port id="0" precision="I64">
					<dim>1</dim>
				</port>
			</output>
		</layer>
		<layer id="479" name="conv9_2_mbox_priorbox/ss_stride1439919934" type="Const" version="opset1">
			<data element_type="i64" shape="1" offset="4660232" size="8"/>
			<rt_info>
				<attribute name="fused_names" version="0" value="conv9_2_mbox_priorbox/ss_stride1439919934"/>
			</rt_info>
			<output>
				<port id="0" precision="I64">
					<dim>1</dim>
				</port>
			</output>
		</layer>
		<layer id="480" name="conv9_2_mbox_priorbox/ss_1_port" type="StridedSlice" version="opset1">
			<data begin_mask="0" end_mask="1" new_axis_mask="0" shrink_axis_mask="0" ellipsis_mask="0"/>
			<rt_info>
				<attribute name="fused_names" version="0" value="conv9_2_mbox_priorbox/ss_1_port"/>
			</rt_info>
			<input>
				<port id="0" precision="I64">
					<dim>4</dim>
				</port>
				<port id="1" precision="I64">
					<dim>1</dim>
				</port>
				<port id="2" precision="I64">
					<dim>1</dim>
				</port>
				<port id="3" precision="I64">
					<dim>1</dim>
				</port>
			</input>
			<output>
				<port id="4" precision="I64">
					<dim>2</dim>
				</port>
			</output>
		</layer>
		<layer id="481" name="conv9_2_mbox_priorbox/naked_not_unsqueezed" type="PriorBox" version="opset1">
			<data min_size="345.6" max_size="403.2" aspect_ratio="2" density="" fixed_ratio="" fixed_size="" clip="false" flip="true" step="0" offset="0.5" variance="0.1, 0.1, 0.2, 0.2" scale_all_sizes="true"/>
			<rt_info>
				<attribute name="fused_names" version="0" value="conv9_2_mbox_priorbox/naked_not_unsqueezed"/>
			</rt_info>
			<input>
				<port id="0" precision="I64">
					<dim>2</dim>
				</port>
				<port id="1" precision="I64">
					<dim>2</dim>
				</port>
			</input>
			<output>
				<port id="2" precision="FP32">
					<dim>2</dim>
					<dim>32</dim>
				</port>
			</output>
		</layer>
		<layer id="482" name="conv9_2_mbox_priorbox/unsqueeze/value1440720039" type="Const" version="opset1">
			<data element_type="i64" shape="1" offset="4660240" size="8"/>
			<rt_info>
				<attribute name="fused_names" version="0" value="conv9_2_mbox_priorbox/unsqueeze/value1440720039"/>
			</rt_info>
			<output>
				<port id="0" precision="I64">
					<dim>1</dim>
				</port>
			</output>
		</layer>
		<layer id="483" name="conv9_2_mbox_priorbox" type="Unsqueeze" version="opset1">
			<rt_info>
				<attribute name="fused_names" version="0" value="conv9_2_mbox_priorbox"/>
			</rt_info>
			<input>
				<port id="0" precision="FP32">
					<dim>2</dim>
					<dim>32</dim>
				</port>
				<port id="1" precision="I64">
					<dim>1</dim>
				</port>
			</input>
			<output>
				<port id="2" precision="FP32" names="conv9_2_mbox_priorbox">
					<dim>1</dim>
					<dim>2</dim>
					<dim>32</dim>
				</port>
			</output>
		</layer>
		<layer id="484" name="mbox_priorbox" type="Concat" version="opset1">
			<data axis="2"/>
			<rt_info>
				<attribute name="fused_names" version="0" value="mbox_priorbox"/>
			</rt_info>
			<input>
				<port id="0" precision="FP32">
					<dim>1</dim>
					<dim>2</dim>
					<dim>16128</dim>
				</port>
				<port id="1" precision="FP32">
					<dim>1</dim>
					<dim>2</dim>
					<dim>16128</dim>
				</port>
				<port id="2" precision="FP32">
					<dim>1</dim>
					<dim>2</dim>
					<dim>6048</dim>
				</port>
				<port id="3" precision="FP32">
					<dim>1</dim>
					<dim>2</dim>
					<dim>6048</dim>
				</port>
				<port id="4" precision="FP32">
					<dim>1</dim>
					<dim>2</dim>
					<dim>1584</dim>
				</port>
				<port id="5" precision="FP32">
					<dim>1</dim>
					<dim>2</dim>
					<dim>1584</dim>
				</port>
				<port id="6" precision="FP32">
					<dim>1</dim>
					<dim>2</dim>
					<dim>432</dim>
				</port>
				<port id="7" precision="FP32">
					<dim>1</dim>
					<dim>2</dim>
					<dim>432</dim>
				</port>
				<port id="8" precision="FP32">
					<dim>1</dim>
					<dim>2</dim>
					<dim>96</dim>
				</port>
				<port id="9" precision="FP32">
					<dim>1</dim>
					<dim>2</dim>
					<dim>32</dim>
				</port>
			</input>
			<output>
				<port id="10" precision="FP32" names="mbox_priorbox">
					<dim>1</dim>
					<dim>2</dim>
					<dim>48512</dim>
				</port>
			</output>
		</layer>
		<layer id="485" name="detection_out" type="DetectionOutput" version="opset8">
			<data background_label_id="0" top_k="400" variance_encoded_in_target="false" keep_top_k="200" code_type="caffe.PriorBoxParameter.CENTER_SIZE" share_location="true" nms_threshold="0.44999998807907104" confidence_threshold="0.0099999997764825821" clip_after_nms="false" clip_before_nms="false" decrease_label_id="false" normalized="true" input_height="1" input_width="1" objectness_score="0"/>
			<rt_info>
				<attribute name="fused_names" version="0" value="detection_out"/>
			</rt_info>
			<input>
				<port id="0" precision="FP32">
					<dim>1</dim>
					<dim>48512</dim>
				</port>
				<port id="1" precision="FP32">
					<dim>1</dim>
					<dim>24256</dim>
				</port>
				<port id="2" precision="FP32">
					<dim>1</dim>
					<dim>2</dim>
					<dim>48512</dim>
				</port>
			</input>
			<output>
				<port id="3" precision="FP32" names="detection_out">
					<dim>1</dim>
					<dim>1</dim>
					<dim>200</dim>
					<dim>7</dim>
				</port>
			</output>
		</layer>
		<layer id="486" name="detection_out/sink_port_0" type="Result" version="opset1">
			<rt_info>
				<attribute name="fused_names" version="0" value="detection_out/sink_port_0"/>
			</rt_info>
			<input>
				<port id="0" precision="FP32">
					<dim>1</dim>
					<dim>1</dim>
					<dim>200</dim>
					<dim>7</dim>
				</port>
			</input>
		</layer>
	</layers>
	<edges>
		<edge from-layer="0" from-port="0" to-layer="2" to-port="0"/>
		<edge from-layer="1" from-port="0" to-layer="2" to-port="1"/>
		<edge from-layer="2" from-port="2" to-layer="4" to-port="0"/>
		<edge from-layer="3" from-port="0" to-layer="4" to-port="1"/>
		<edge from-layer="4" from-port="2" to-layer="372" to-port="0"/>
		<edge from-layer="4" from-port="2" to-layer="6" to-port="0"/>
		<edge from-layer="5" from-port="0" to-layer="6" to-port="1"/>
		<edge from-layer="6" from-port="2" to-layer="8" to-port="0"/>
		<edge from-layer="7" from-port="0" to-layer="8" to-port="1"/>
		<edge from-layer="8" from-port="2" to-layer="9" to-port="0"/>
		<edge from-layer="9" from-port="1" to-layer="11" to-port="0"/>
		<edge from-layer="10" from-port="0" to-layer="11" to-port="1"/>
		<edge from-layer="11" from-port="2" to-layer="13" to-port="0"/>
		<edge from-layer="12" from-port="0" to-layer="13" to-port="1"/>
		<edge from-layer="13" from-port="2" to-layer="14" to-port="0"/>
		<edge from-layer="14" from-port="1" to-layer="16" to-port="0"/>
		<edge from-layer="15" from-port="0" to-layer="16" to-port="1"/>
		<edge from-layer="16" from-port="2" to-layer="18" to-port="0"/>
		<edge from-layer="17" from-port="0" to-layer="18" to-port="1"/>
		<edge from-layer="18" from-port="2" to-layer="19" to-port="0"/>
		<edge from-layer="19" from-port="1" to-layer="21" to-port="0"/>
		<edge from-layer="20" from-port="0" to-layer="21" to-port="1"/>
		<edge from-layer="21" from-port="2" to-layer="23" to-port="0"/>
		<edge from-layer="22" from-port="0" to-layer="23" to-port="1"/>
		<edge from-layer="23" from-port="2" to-layer="24" to-port="0"/>
		<edge from-layer="24" from-port="1" to-layer="26" to-port="0"/>
		<edge from-layer="25" from-port="0" to-layer="26" to-port="1"/>
		<edge from-layer="26" from-port="2" to-layer="28" to-port="0"/>
		<edge from-layer="27" from-port="0" to-layer="28" to-port="1"/>
		<edge from-layer="28" from-port="2" to-layer="29" to-port="0"/>
		<edge from-layer="29" from-port="1" to-layer="31" to-port="0"/>
		<edge from-layer="30" from-port="0" to-layer="31" to-port="1"/>
		<edge from-layer="31" from-port="2" to-layer="33" to-port="0"/>
		<edge from-layer="32" from-port="0" to-layer="33" to-port="1"/>
		<edge from-layer="33" from-port="2" to-layer="34" to-port="0"/>
		<edge from-layer="34" from-port="1" to-layer="36" to-port="0"/>
		<edge from-layer="35" from-port="0" to-layer="36" to-port="1"/>
		<edge from-layer="36" from-port="2" to-layer="38" to-port="0"/>
		<edge from-layer="37" from-port="0" to-layer="38" to-port="1"/>
		<edge from-layer="38" from-port="2" to-layer="39" to-port="0"/>
		<edge from-layer="39" from-port="1" to-layer="41" to-port="0"/>
		<edge from-layer="40" from-port="0" to-layer="41" to-port="1"/>
		<edge from-layer="41" from-port="2" to-layer="43" to-port="0"/>
		<edge from-layer="42" from-port="0" to-layer="43" to-port="1"/>
		<edge from-layer="43" from-port="2" to-layer="44" to-port="0"/>
		<edge from-layer="44" from-port="1" to-layer="46" to-port="0"/>
		<edge from-layer="45" from-port="0" to-layer="46" to-port="1"/>
		<edge from-layer="46" from-port="2" to-layer="48" to-port="0"/>
		<edge from-layer="47" from-port="0" to-layer="48" to-port="1"/>
		<edge from-layer="48" from-port="2" to-layer="49" to-port="0"/>
		<edge from-layer="49" from-port="1" to-layer="51" to-port="0"/>
		<edge from-layer="50" from-port="0" to-layer="51" to-port="1"/>
		<edge from-layer="51" from-port="2" to-layer="53" to-port="0"/>
		<edge from-layer="52" from-port="0" to-layer="53" to-port="1"/>
		<edge from-layer="53" from-port="2" to-layer="54" to-port="0"/>
		<edge from-layer="54" from-port="1" to-layer="56" to-port="0"/>
		<edge from-layer="55" from-port="0" to-layer="56" to-port="1"/>
		<edge from-layer="56" from-port="2" to-layer="58" to-port="0"/>
		<edge from-layer="57" from-port="0" to-layer="58" to-port="1"/>
		<edge from-layer="58" from-port="2" to-layer="59" to-port="0"/>
		<edge from-layer="59" from-port="1" to-layer="61" to-port="0"/>
		<edge from-layer="60" from-port="0" to-layer="61" to-port="1"/>
		<edge from-layer="61" from-port="2" to-layer="63" to-port="0"/>
		<edge from-layer="62" from-port="0" to-layer="63" to-port="1"/>
		<edge from-layer="63" from-port="2" to-layer="64" to-port="0"/>
		<edge from-layer="64" from-port="1" to-layer="66" to-port="0"/>
		<edge from-layer="65" from-port="0" to-layer="66" to-port="1"/>
		<edge from-layer="66" from-port="2" to-layer="68" to-port="0"/>
		<edge from-layer="67" from-port="0" to-layer="68" to-port="1"/>
		<edge from-layer="68" from-port="2" to-layer="69" to-port="0"/>
		<edge from-layer="69" from-port="1" to-layer="71" to-port="0"/>
		<edge from-layer="70" from-port="0" to-layer="71" to-port="1"/>
		<edge from-layer="71" from-port="2" to-layer="73" to-port="0"/>
		<edge from-layer="72" from-port="0" to-layer="73" to-port="1"/>
		<edge from-layer="73" from-port="2" to-layer="74" to-port="0"/>
		<edge from-layer="74" from-port="1" to-layer="76" to-port="0"/>
		<edge from-layer="75" from-port="0" to-layer="76" to-port="1"/>
		<edge from-layer="76" from-port="2" to-layer="78" to-port="0"/>
		<edge from-layer="77" from-port="0" to-layer="78" to-port="1"/>
		<edge from-layer="78" from-port="2" to-layer="79" to-port="0"/>
		<edge from-layer="79" from-port="1" to-layer="81" to-port="0"/>
		<edge from-layer="80" from-port="0" to-layer="81" to-port="1"/>
		<edge from-layer="81" from-port="2" to-layer="83" to-port="0"/>
		<edge from-layer="82" from-port="0" to-layer="83" to-port="1"/>
		<edge from-layer="83" from-port="2" to-layer="84" to-port="0"/>
		<edge from-layer="84" from-port="1" to-layer="86" to-port="0"/>
		<edge from-layer="85" from-port="0" to-layer="86" to-port="1"/>
		<edge from-layer="86" from-port="2" to-layer="88" to-port="0"/>
		<edge from-layer="87" from-port="0" to-layer="88" to-port="1"/>
		<edge from-layer="88" from-port="2" to-layer="89" to-port="0"/>
		<edge from-layer="89" from-port="1" to-layer="91" to-port="0"/>
		<edge from-layer="90" from-port="0" to-layer="91" to-port="1"/>
		<edge from-layer="91" from-port="2" to-layer="93" to-port="0"/>
		<edge from-layer="92" from-port="0" to-layer="93" to-port="1"/>
		<edge from-layer="93" from-port="2" to-layer="94" to-port="0"/>
		<edge from-layer="94" from-port="1" to-layer="96" to-port="0"/>
		<edge from-layer="95" from-port="0" to-layer="96" to-port="1"/>
		<edge from-layer="96" from-port="2" to-layer="98" to-port="0"/>
		<edge from-layer="97" from-port="0" to-layer="98" to-port="1"/>
		<edge from-layer="98" from-port="2" to-layer="99" to-port="0"/>
		<edge from-layer="99" from-port="1" to-layer="101" to-port="0"/>
		<edge from-layer="100" from-port="0" to-layer="101" to-port="1"/>
		<edge from-layer="101" from-port="2" to-layer="103" to-port="0"/>
		<edge from-layer="102" from-port="0" to-layer="103" to-port="1"/>
		<edge from-layer="103" from-port="2" to-layer="104" to-port="0"/>
		<edge from-layer="104" from-port="1" to-layer="106" to-port="0"/>
		<edge from-layer="105" from-port="0" to-layer="106" to-port="1"/>
		<edge from-layer="106" from-port="2" to-layer="108" to-port="0"/>
		<edge from-layer="107" from-port="0" to-layer="108" to-port="1"/>
		<edge from-layer="108" from-port="2" to-layer="109" to-port="0"/>
		<edge from-layer="109" from-port="1" to-layer="111" to-port="0"/>
		<edge from-layer="110" from-port="0" to-layer="111" to-port="1"/>
		<edge from-layer="111" from-port="2" to-layer="113" to-port="0"/>
		<edge from-layer="112" from-port="0" to-layer="113" to-port="1"/>
		<edge from-layer="113" from-port="2" to-layer="114" to-port="0"/>
		<edge from-layer="114" from-port="1" to-layer="116" to-port="0"/>
		<edge from-layer="115" from-port="0" to-layer="116" to-port="1"/>
		<edge from-layer="116" from-port="2" to-layer="118" to-port="0"/>
		<edge from-layer="117" from-port="0" to-layer="118" to-port="1"/>
		<edge from-layer="118" from-port="2" to-layer="119" to-port="0"/>
		<edge from-layer="119" from-port="1" to-layer="121" to-port="0"/>
		<edge from-layer="119" from-port="1" to-layer="129" to-port="0"/>
		<edge from-layer="119" from-port="1" to-layer="282" to-port="0"/>
		<edge from-layer="119" from-port="1" to-layer="290" to-port="0"/>
		<edge from-layer="119" from-port="1" to-layer="367" to-port="0"/>
		<edge from-layer="119" from-port="1" to-layer="137" to-port="0"/>
		<edge from-layer="120" from-port="0" to-layer="121" to-port="1"/>
		<edge from-layer="121" from-port="2" to-layer="123" to-port="0"/>
		<edge from-layer="122" from-port="0" to-layer="123" to-port="1"/>
		<edge from-layer="123" from-port="2" to-layer="125" to-port="0"/>
		<edge from-layer="124" from-port="0" to-layer="125" to-port="1"/>
		<edge from-layer="125" from-port="2" to-layer="127" to-port="0"/>
		<edge from-layer="126" from-port="0" to-layer="127" to-port="1"/>
		<edge from-layer="127" from-port="2" to-layer="280" to-port="0"/>
		<edge from-layer="128" from-port="0" to-layer="129" to-port="1"/>
		<edge from-layer="129" from-port="2" to-layer="131" to-port="0"/>
		<edge from-layer="130" from-port="0" to-layer="131" to-port="1"/>
		<edge from-layer="131" from-port="2" to-layer="133" to-port="0"/>
		<edge from-layer="132" from-port="0" to-layer="133" to-port="1"/>
		<edge from-layer="133" from-port="2" to-layer="135" to-port="0"/>
		<edge from-layer="134" from-port="0" to-layer="135" to-port="1"/>
		<edge from-layer="135" from-port="2" to-layer="280" to-port="1"/>
		<edge from-layer="136" from-port="0" to-layer="137" to-port="1"/>
		<edge from-layer="137" from-port="2" to-layer="139" to-port="0"/>
		<edge from-layer="138" from-port="0" to-layer="139" to-port="1"/>
		<edge from-layer="139" from-port="2" to-layer="140" to-port="0"/>
		<edge from-layer="140" from-port="1" to-layer="142" to-port="0"/>
		<edge from-layer="141" from-port="0" to-layer="142" to-port="1"/>
		<edge from-layer="142" from-port="2" to-layer="144" to-port="0"/>
		<edge from-layer="143" from-port="0" to-layer="144" to-port="1"/>
		<edge from-layer="144" from-port="2" to-layer="145" to-port="0"/>
		<edge from-layer="145" from-port="1" to-layer="147" to-port="0"/>
		<edge from-layer="146" from-port="0" to-layer="147" to-port="1"/>
		<edge from-layer="147" from-port="2" to-layer="149" to-port="0"/>
		<edge from-layer="148" from-port="0" to-layer="149" to-port="1"/>
		<edge from-layer="149" from-port="2" to-layer="150" to-port="0"/>
		<edge from-layer="150" from-port="1" to-layer="152" to-port="0"/>
		<edge from-layer="151" from-port="0" to-layer="152" to-port="1"/>
		<edge from-layer="152" from-port="2" to-layer="154" to-port="0"/>
		<edge from-layer="153" from-port="0" to-layer="154" to-port="1"/>
		<edge from-layer="154" from-port="2" to-layer="155" to-port="0"/>
		<edge from-layer="155" from-port="1" to-layer="157" to-port="0"/>
		<edge from-layer="155" from-port="1" to-layer="165" to-port="0"/>
		<edge from-layer="155" from-port="1" to-layer="298" to-port="0"/>
		<edge from-layer="155" from-port="1" to-layer="306" to-port="0"/>
		<edge from-layer="155" from-port="1" to-layer="391" to-port="0"/>
		<edge from-layer="155" from-port="1" to-layer="173" to-port="0"/>
		<edge from-layer="156" from-port="0" to-layer="157" to-port="1"/>
		<edge from-layer="157" from-port="2" to-layer="159" to-port="0"/>
		<edge from-layer="158" from-port="0" to-layer="159" to-port="1"/>
		<edge from-layer="159" from-port="2" to-layer="161" to-port="0"/>
		<edge from-layer="160" from-port="0" to-layer="161" to-port="1"/>
		<edge from-layer="161" from-port="2" to-layer="163" to-port="0"/>
		<edge from-layer="162" from-port="0" to-layer="163" to-port="1"/>
		<edge from-layer="163" from-port="2" to-layer="280" to-port="2"/>
		<edge from-layer="164" from-port="0" to-layer="165" to-port="1"/>
		<edge from-layer="165" from-port="2" to-layer="167" to-port="0"/>
		<edge from-layer="166" from-port="0" to-layer="167" to-port="1"/>
		<edge from-layer="167" from-port="2" to-layer="169" to-port="0"/>
		<edge from-layer="168" from-port="0" to-layer="169" to-port="1"/>
		<edge from-layer="169" from-port="2" to-layer="171" to-port="0"/>
		<edge from-layer="170" from-port="0" to-layer="171" to-port="1"/>
		<edge from-layer="171" from-port="2" to-layer="280" to-port="3"/>
		<edge from-layer="172" from-port="0" to-layer="173" to-port="1"/>
		<edge from-layer="173" from-port="2" to-layer="175" to-port="0"/>
		<edge from-layer="174" from-port="0" to-layer="175" to-port="1"/>
		<edge from-layer="175" from-port="2" to-layer="176" to-port="0"/>
		<edge from-layer="176" from-port="1" to-layer="178" to-port="0"/>
		<edge from-layer="177" from-port="0" to-layer="178" to-port="1"/>
		<edge from-layer="178" from-port="2" to-layer="180" to-port="0"/>
		<edge from-layer="179" from-port="0" to-layer="180" to-port="1"/>
		<edge from-layer="180" from-port="2" to-layer="181" to-port="0"/>
		<edge from-layer="181" from-port="1" to-layer="183" to-port="0"/>
		<edge from-layer="182" from-port="0" to-layer="183" to-port="1"/>
		<edge from-layer="183" from-port="2" to-layer="185" to-port="0"/>
		<edge from-layer="184" from-port="0" to-layer="185" to-port="1"/>
		<edge from-layer="185" from-port="2" to-layer="186" to-port="0"/>
		<edge from-layer="186" from-port="1" to-layer="196" to-port="0"/>
		<edge from-layer="186" from-port="1" to-layer="414" to-port="0"/>
		<edge from-layer="186" from-port="1" to-layer="204" to-port="0"/>
		<edge from-layer="186" from-port="1" to-layer="322" to-port="0"/>
		<edge from-layer="186" from-port="1" to-layer="314" to-port="0"/>
		<edge from-layer="186" from-port="1" to-layer="188" to-port="0"/>
		<edge from-layer="187" from-port="0" to-layer="188" to-port="1"/>
		<edge from-layer="188" from-port="2" to-layer="190" to-port="0"/>
		<edge from-layer="189" from-port="0" to-layer="190" to-port="1"/>
		<edge from-layer="190" from-port="2" to-layer="192" to-port="0"/>
		<edge from-layer="191" from-port="0" to-layer="192" to-port="1"/>
		<edge from-layer="192" from-port="2" to-layer="194" to-port="0"/>
		<edge from-layer="193" from-port="0" to-layer="194" to-port="1"/>
		<edge from-layer="194" from-port="2" to-layer="280" to-port="4"/>
		<edge from-layer="195" from-port="0" to-layer="196" to-port="1"/>
		<edge from-layer="196" from-port="2" to-layer="198" to-port="0"/>
		<edge from-layer="197" from-port="0" to-layer="198" to-port="1"/>
		<edge from-layer="198" from-port="2" to-layer="200" to-port="0"/>
		<edge from-layer="199" from-port="0" to-layer="200" to-port="1"/>
		<edge from-layer="200" from-port="2" to-layer="202" to-port="0"/>
		<edge from-layer="201" from-port="0" to-layer="202" to-port="1"/>
		<edge from-layer="202" from-port="2" to-layer="280" to-port="5"/>
		<edge from-layer="203" from-port="0" to-layer="204" to-port="1"/>
		<edge from-layer="204" from-port="2" to-layer="206" to-port="0"/>
		<edge from-layer="205" from-port="0" to-layer="206" to-port="1"/>
		<edge from-layer="206" from-port="2" to-layer="207" to-port="0"/>
		<edge from-layer="207" from-port="1" to-layer="209" to-port="0"/>
		<edge from-layer="208" from-port="0" to-layer="209" to-port="1"/>
		<edge from-layer="209" from-port="2" to-layer="211" to-port="0"/>
		<edge from-layer="210" from-port="0" to-layer="211" to-port="1"/>
		<edge from-layer="211" from-port="2" to-layer="212" to-port="0"/>
		<edge from-layer="212" from-port="1" to-layer="214" to-port="0"/>
		<edge from-layer="213" from-port="0" to-layer="214" to-port="1"/>
		<edge from-layer="214" from-port="2" to-layer="216" to-port="0"/>
		<edge from-layer="215" from-port="0" to-layer="216" to-port="1"/>
		<edge from-layer="216" from-port="2" to-layer="217" to-port="0"/>
		<edge from-layer="217" from-port="1" to-layer="437" to-port="0"/>
		<edge from-layer="217" from-port="1" to-layer="219" to-port="0"/>
		<edge from-layer="217" from-port="1" to-layer="235" to-port="0"/>
		<edge from-layer="217" from-port="1" to-layer="338" to-port="0"/>
		<edge from-layer="217" from-port="1" to-layer="330" to-port="0"/>
		<edge from-layer="217" from-port="1" to-layer="227" to-port="0"/>
		<edge from-layer="218" from-port="0" to-layer="219" to-port="1"/>
		<edge from-layer="219" from-port="2" to-layer="221" to-port="0"/>
		<edge from-layer="220" from-port="0" to-layer="221" to-port="1"/>
		<edge from-layer="221" from-port="2" to-layer="223" to-port="0"/>
		<edge from-layer="222" from-port="0" to-layer="223" to-port="1"/>
		<edge from-layer="223" from-port="2" to-layer="225" to-port="0"/>
		<edge from-layer="224" from-port="0" to-layer="225" to-port="1"/>
		<edge from-layer="225" from-port="2" to-layer="280" to-port="6"/>
		<edge from-layer="226" from-port="0" to-layer="227" to-port="1"/>
		<edge from-layer="227" from-port="2" to-layer="229" to-port="0"/>
		<edge from-layer="228" from-port="0" to-layer="229" to-port="1"/>
		<edge from-layer="229" from-port="2" to-layer="231" to-port="0"/>
		<edge from-layer="230" from-port="0" to-layer="231" to-port="1"/>
		<edge from-layer="231" from-port="2" to-layer="233" to-port="0"/>
		<edge from-layer="232" from-port="0" to-layer="233" to-port="1"/>
		<edge from-layer="233" from-port="2" to-layer="280" to-port="7"/>
		<edge from-layer="234" from-port="0" to-layer="235" to-port="1"/>
		<edge from-layer="235" from-port="2" to-layer="237" to-port="0"/>
		<edge from-layer="236" from-port="0" to-layer="237" to-port="1"/>
		<edge from-layer="237" from-port="2" to-layer="238" to-port="0"/>
		<edge from-layer="238" from-port="1" to-layer="240" to-port="0"/>
		<edge from-layer="239" from-port="0" to-layer="240" to-port="1"/>
		<edge from-layer="240" from-port="2" to-layer="242" to-port="0"/>
		<edge from-layer="241" from-port="0" to-layer="242" to-port="1"/>
		<edge from-layer="242" from-port="2" to-layer="243" to-port="0"/>
		<edge from-layer="243" from-port="1" to-layer="245" to-port="0"/>
		<edge from-layer="244" from-port="0" to-layer="245" to-port="1"/>
		<edge from-layer="245" from-port="2" to-layer="247" to-port="0"/>
		<edge from-layer="246" from-port="0" to-layer="247" to-port="1"/>
		<edge from-layer="247" from-port="2" to-layer="248" to-port="0"/>
		<edge from-layer="248" from-port="1" to-layer="346" to-port="0"/>
		<edge from-layer="248" from-port="1" to-layer="258" to-port="0"/>
		<edge from-layer="248" from-port="1" to-layer="250" to-port="0"/>
		<edge from-layer="248" from-port="1" to-layer="460" to-port="0"/>
		<edge from-layer="249" from-port="0" to-layer="250" to-port="1"/>
		<edge from-layer="250" from-port="2" to-layer="252" to-port="0"/>
		<edge from-layer="251" from-port="0" to-layer="252" to-port="1"/>
		<edge from-layer="252" from-port="2" to-layer="254" to-port="0"/>
		<edge from-layer="253" from-port="0" to-layer="254" to-port="1"/>
		<edge from-layer="254" from-port="2" to-layer="256" to-port="0"/>
		<edge from-layer="255" from-port="0" to-layer="256" to-port="1"/>
		<edge from-layer="256" from-port="2" to-layer="280" to-port="8"/>
		<edge from-layer="257" from-port="0" to-layer="258" to-port="1"/>
		<edge from-layer="258" from-port="2" to-layer="260" to-port="0"/>
		<edge from-layer="259" from-port="0" to-layer="260" to-port="1"/>
		<edge from-layer="260" from-port="2" to-layer="261" to-port="0"/>
		<edge from-layer="261" from-port="1" to-layer="263" to-port="0"/>
		<edge from-layer="262" from-port="0" to-layer="263" to-port="1"/>
		<edge from-layer="263" from-port="2" to-layer="265" to-port="0"/>
		<edge from-layer="264" from-port="0" to-layer="265" to-port="1"/>
		<edge from-layer="265" from-port="2" to-layer="266" to-port="0"/>
		<edge from-layer="266" from-port="1" to-layer="268" to-port="0"/>
		<edge from-layer="267" from-port="0" to-layer="268" to-port="1"/>
		<edge from-layer="268" from-port="2" to-layer="270" to-port="0"/>
		<edge from-layer="269" from-port="0" to-layer="270" to-port="1"/>
		<edge from-layer="270" from-port="2" to-layer="271" to-port="0"/>
		<edge from-layer="271" from-port="1" to-layer="472" to-port="0"/>
		<edge from-layer="271" from-port="1" to-layer="354" to-port="0"/>
		<edge from-layer="271" from-port="1" to-layer="273" to-port="0"/>
		<edge from-layer="272" from-port="0" to-layer="273" to-port="1"/>
		<edge from-layer="273" from-port="2" to-layer="275" to-port="0"/>
		<edge from-layer="274" from-port="0" to-layer="275" to-port="1"/>
		<edge from-layer="275" from-port="2" to-layer="277" to-port="0"/>
		<edge from-layer="276" from-port="0" to-layer="277" to-port="1"/>
		<edge from-layer="277" from-port="2" to-layer="279" to-port="0"/>
		<edge from-layer="278" from-port="0" to-layer="279" to-port="1"/>
		<edge from-layer="279" from-port="2" to-layer="280" to-port="9"/>
		<edge from-layer="280" from-port="10" to-layer="485" to-port="0"/>
		<edge from-layer="281" from-port="0" to-layer="282" to-port="1"/>
		<edge from-layer="282" from-port="2" to-layer="284" to-port="0"/>
		<edge from-layer="283" from-port="0" to-layer="284" to-port="1"/>
		<edge from-layer="284" from-port="2" to-layer="286" to-port="0"/>
		<edge from-layer="285" from-port="0" to-layer="286" to-port="1"/>
		<edge from-layer="286" from-port="2" to-layer="288" to-port="0"/>
		<edge from-layer="287" from-port="0" to-layer="288" to-port="1"/>
		<edge from-layer="288" from-port="2" to-layer="361" to-port="0"/>
		<edge from-layer="289" from-port="0" to-layer="290" to-port="1"/>
		<edge from-layer="290" from-port="2" to-layer="292" to-port="0"/>
		<edge from-layer="291" from-port="0" to-layer="292" to-port="1"/>
		<edge from-layer="292" from-port="2" to-layer="294" to-port="0"/>
		<edge from-layer="293" from-port="0" to-layer="294" to-port="1"/>
		<edge from-layer="294" from-port="2" to-layer="296" to-port="0"/>
		<edge from-layer="295" from-port="0" to-layer="296" to-port="1"/>
		<edge from-layer="296" from-port="2" to-layer="361" to-port="1"/>
		<edge from-layer="297" from-port="0" to-layer="298" to-port="1"/>
		<edge from-layer="298" from-port="2" to-layer="300" to-port="0"/>
		<edge from-layer="299" from-port="0" to-layer="300" to-port="1"/>
		<edge from-layer="300" from-port="2" to-layer="302" to-port="0"/>
		<edge from-layer="301" from-port="0" to-layer="302" to-port="1"/>
		<edge from-layer="302" from-port="2" to-layer="304" to-port="0"/>
		<edge from-layer="303" from-port="0" to-layer="304" to-port="1"/>
		<edge from-layer="304" from-port="2" to-layer="361" to-port="2"/>
		<edge from-layer="305" from-port="0" to-layer="306" to-port="1"/>
		<edge from-layer="306" from-port="2" to-layer="308" to-port="0"/>
		<edge from-layer="307" from-port="0" to-layer="308" to-port="1"/>
		<edge from-layer="308" from-port="2" to-layer="310" to-port="0"/>
		<edge from-layer="309" from-port="0" to-layer="310" to-port="1"/>
		<edge from-layer="310" from-port="2" to-layer="312" to-port="0"/>
		<edge from-layer="311" from-port="0" to-layer="312" to-port="1"/>
		<edge from-layer="312" from-port="2" to-layer="361" to-port="3"/>
		<edge from-layer="313" from-port="0" to-layer="314" to-port="1"/>
		<edge from-layer="314" from-port="2" to-layer="316" to-port="0"/>
		<edge from-layer="315" from-port="0" to-layer="316" to-port="1"/>
		<edge from-layer="316" from-port="2" to-layer="318" to-port="0"/>
		<edge from-layer="317" from-port="0" to-layer="318" to-port="1"/>
		<edge from-layer="318" from-port="2" to-layer="320" to-port="0"/>
		<edge from-layer="319" from-port="0" to-layer="320" to-port="1"/>
		<edge from-layer="320" from-port="2" to-layer="361" to-port="4"/>
		<edge from-layer="321" from-port="0" to-layer="322" to-port="1"/>
		<edge from-layer="322" from-port="2" to-layer="324" to-port="0"/>
		<edge from-layer="323" from-port="0" to-layer="324" to-port="1"/>
		<edge from-layer="324" from-port="2" to-layer="326" to-port="0"/>
		<edge from-layer="325" from-port="0" to-layer="326" to-port="1"/>
		<edge from-layer="326" from-port="2" to-layer="328" to-port="0"/>
		<edge from-layer="327" from-port="0" to-layer="328" to-port="1"/>
		<edge from-layer="328" from-port="2" to-layer="361" to-port="5"/>
		<edge from-layer="329" from-port="0" to-layer="330" to-port="1"/>
		<edge from-layer="330" from-port="2" to-layer="332" to-port="0"/>
		<edge from-layer="331" from-port="0" to-layer="332" to-port="1"/>
		<edge from-layer="332" from-port="2" to-layer="334" to-port="0"/>
		<edge from-layer="333" from-port="0" to-layer="334" to-port="1"/>
		<edge from-layer="334" from-port="2" to-layer="336" to-port="0"/>
		<edge from-layer="335" from-port="0" to-layer="336" to-port="1"/>
		<edge from-layer="336" from-port="2" to-layer="361" to-port="6"/>
		<edge from-layer="337" from-port="0" to-layer="338" to-port="1"/>
		<edge from-layer="338" from-port="2" to-layer="340" to-port="0"/>
		<edge from-layer="339" from-port="0" to-layer="340" to-port="1"/>
		<edge from-layer="340" from-port="2" to-layer="342" to-port="0"/>
		<edge from-layer="341" from-port="0" to-layer="342" to-port="1"/>
		<edge from-layer="342" from-port="2" to-layer="344" to-port="0"/>
		<edge from-layer="343" from-port="0" to-layer="344" to-port="1"/>
		<edge from-layer="344" from-port="2" to-layer="361" to-port="7"/>
		<edge from-layer="345" from-port="0" to-layer="346" to-port="1"/>
		<edge from-layer="346" from-port="2" to-layer="348" to-port="0"/>
		<edge from-layer="347" from-port="0" to-layer="348" to-port="1"/>
		<edge from-layer="348" from-port="2" to-layer="350" to-port="0"/>
		<edge from-layer="349" from-port="0" to-layer="350" to-port="1"/>
		<edge from-layer="350" from-port="2" to-layer="352" to-port="0"/>
		<edge from-layer="351" from-port="0" to-layer="352" to-port="1"/>
		<edge from-layer="352" from-port="2" to-layer="361" to-port="8"/>
		<edge from-layer="353" from-port="0" to-layer="354" to-port="1"/>
		<edge from-layer="354" from-port="2" to-layer="356" to-port="0"/>
		<edge from-layer="355" from-port="0" to-layer="356" to-port="1"/>
		<edge from-layer="356" from-port="2" to-layer="358" to-port="0"/>
		<edge from-layer="357" from-port="0" to-layer="358" to-port="1"/>
		<edge from-layer="358" from-port="2" to-layer="360" to-port="0"/>
		<edge from-layer="359" from-port="0" to-layer="360" to-port="1"/>
		<edge from-layer="360" from-port="2" to-layer="361" to-port="9"/>
		<edge from-layer="361" from-port="10" to-layer="363" to-port="0"/>
		<edge from-layer="362" from-port="0" to-layer="363" to-port="1"/>
		<edge from-layer="363" from-port="2" to-layer="364" to-port="0"/>
		<edge from-layer="364" from-port="1" to-layer="366" to-port="0"/>
		<edge from-layer="365" from-port="0" to-layer="366" to-port="1"/>
		<edge from-layer="366" from-port="2" to-layer="485" to-port="1"/>
		<edge from-layer="367" from-port="1" to-layer="383" to-port="0"/>
		<edge from-layer="367" from-port="1" to-layer="371" to-port="0"/>
		<edge from-layer="368" from-port="0" to-layer="371" to-port="1"/>
		<edge from-layer="369" from-port="0" to-layer="371" to-port="2"/>
		<edge from-layer="370" from-port="0" to-layer="371" to-port="3"/>
		<edge from-layer="371" from-port="4" to-layer="377" to-port="0"/>
		<edge from-layer="372" from-port="1" to-layer="422" to-port="0"/>
		<edge from-layer="372" from-port="1" to-layer="433" to-port="0"/>
		<edge from-layer="372" from-port="1" to-layer="399" to-port="0"/>
		<edge from-layer="372" from-port="1" to-layer="445" to-port="0"/>
		<edge from-layer="372" from-port="1" to-layer="456" to-port="0"/>
		<edge from-layer="372" from-port="1" to-layer="468" to-port="0"/>
		<edge from-layer="372" from-port="1" to-layer="480" to-port="0"/>
		<edge from-layer="372" from-port="1" to-layer="410" to-port="0"/>
		<edge from-layer="372" from-port="1" to-layer="387" to-port="0"/>
		<edge from-layer="372" from-port="1" to-layer="376" to-port="0"/>
		<edge from-layer="373" from-port="0" to-layer="376" to-port="1"/>
		<edge from-layer="374" from-port="0" to-layer="376" to-port="2"/>
		<edge from-layer="375" from-port="0" to-layer="376" to-port="3"/>
		<edge from-layer="376" from-port="4" to-layer="377" to-port="1"/>
		<edge from-layer="377" from-port="2" to-layer="379" to-port="0"/>
		<edge from-layer="378" from-port="0" to-layer="379" to-port="1"/>
		<edge from-layer="379" from-port="2" to-layer="484" to-port="0"/>
		<edge from-layer="380" from-port="0" to-layer="383" to-port="1"/>
		<edge from-layer="381" from-port="0" to-layer="383" to-port="2"/>
		<edge from-layer="382" from-port="0" to-layer="383" to-port="3"/>
		<edge from-layer="383" from-port="4" to-layer="388" to-port="0"/>
		<edge from-layer="384" from-port="0" to-layer="387" to-port="1"/>
		<edge from-layer="385" from-port="0" to-layer="387" to-port="2"/>
		<edge from-layer="386" from-port="0" to-layer="387" to-port="3"/>
		<edge from-layer="387" from-port="4" to-layer="388" to-port="1"/>
		<edge from-layer="388" from-port="2" to-layer="390" to-port="0"/>
		<edge from-layer="389" from-port="0" to-layer="390" to-port="1"/>
		<edge from-layer="390" from-port="2" to-layer="484" to-port="1"/>
		<edge from-layer="391" from-port="1" to-layer="395" to-port="0"/>
		<edge from-layer="391" from-port="1" to-layer="406" to-port="0"/>
		<edge from-layer="392" from-port="0" to-layer="395" to-port="1"/>
		<edge from-layer="393" from-port="0" to-layer="395" to-port="2"/>
		<edge from-layer="394" from-port="0" to-layer="395" to-port="3"/>
		<edge from-layer="395" from-port="4" to-layer="400" to-port="0"/>
		<edge from-layer="396" from-port="0" to-layer="399" to-port="1"/>
		<edge from-layer="397" from-port="0" to-layer="399" to-port="2"/>
		<edge from-layer="398" from-port="0" to-layer="399" to-port="3"/>
		<edge from-layer="399" from-port="4" to-layer="400" to-port="1"/>
		<edge from-layer="400" from-port="2" to-layer="402" to-port="0"/>
		<edge from-layer="401" from-port="0" to-layer="402" to-port="1"/>
		<edge from-layer="402" from-port="2" to-layer="484" to-port="2"/>
		<edge from-layer="403" from-port="0" to-layer="406" to-port="1"/>
		<edge from-layer="404" from-port="0" to-layer="406" to-port="2"/>
		<edge from-layer="405" from-port="0" to-layer="406" to-port="3"/>
		<edge from-layer="406" from-port="4" to-layer="411" to-port="0"/>
		<edge from-layer="407" from-port="0" to-layer="410" to-port="1"/>
		<edge from-layer="408" from-port="0" to-layer="410" to-port="2"/>
		<edge from-layer="409" from-port="0" to-layer="410" to-port="3"/>
		<edge from-layer="410" from-port="4" to-layer="411" to-port="1"/>
		<edge from-layer="411" from-port="2" to-layer="413" to-port="0"/>
		<edge from-layer="412" from-port="0" to-layer="413" to-port="1"/>
		<edge from-layer="413" from-port="2" to-layer="484" to-port="3"/>
		<edge from-layer="414" from-port="1" to-layer="429" to-port="0"/>
		<edge from-layer="414" from-port="1" to-layer="418" to-port="0"/>
		<edge from-layer="415" from-port="0" to-layer="418" to-port="1"/>
		<edge from-layer="416" from-port="0" to-layer="418" to-port="2"/>
		<edge from-layer="417" from-port="0" to-layer="418" to-port="3"/>
		<edge from-layer="418" from-port="4" to-layer="423" to-port="0"/>
		<edge from-layer="419" from-port="0" to-layer="422" to-port="1"/>
		<edge from-layer="420" from-port="0" to-layer="422" to-port="2"/>
		<edge from-layer="421" from-port="0" to-layer="422" to-port="3"/>
		<edge from-layer="422" from-port="4" to-layer="423" to-port="1"/>
		<edge from-layer="423" from-port="2" to-layer="425" to-port="0"/>
		<edge from-layer="424" from-port="0" to-layer="425" to-port="1"/>
		<edge from-layer="425" from-port="2" to-layer="484" to-port="4"/>
		<edge from-layer="426" from-port="0" to-layer="429" to-port="1"/>
		<edge from-layer="427" from-port="0" to-layer="429" to-port="2"/>
		<edge from-layer="428" from-port="0" to-layer="429" to-port="3"/>
		<edge from-layer="429" from-port="4" to-layer="434" to-port="0"/>
		<edge from-layer="430" from-port="0" to-layer="433" to-port="1"/>
		<edge from-layer="431" from-port="0" to-layer="433" to-port="2"/>
		<edge from-layer="432" from-port="0" to-layer="433" to-port="3"/>
		<edge from-layer="433" from-port="4" to-layer="434" to-port="1"/>
		<edge from-layer="434" from-port="2" to-layer="436" to-port="0"/>
		<edge from-layer="435" from-port="0" to-layer="436" to-port="1"/>
		<edge from-layer="436" from-port="2" to-layer="484" to-port="5"/>
		<edge from-layer="437" from-port="1" to-layer="441" to-port="0"/>
		<edge from-layer="437" from-port="1" to-layer="452" to-port="0"/>
		<edge from-layer="438" from-port="0" to-layer="441" to-port="1"/>
		<edge from-layer="439" from-port="0" to-layer="441" to-port="2"/>
		<edge from-layer="440" from-port="0" to-layer="441" to-port="3"/>
		<edge from-layer="441" from-port="4" to-layer="446" to-port="0"/>
		<edge from-layer="442" from-port="0" to-layer="445" to-port="1"/>
		<edge from-layer="443" from-port="0" to-layer="445" to-port="2"/>
		<edge from-layer="444" from-port="0" to-layer="445" to-port="3"/>
		<edge from-layer="445" from-port="4" to-layer="446" to-port="1"/>
		<edge from-layer="446" from-port="2" to-layer="448" to-port="0"/>
		<edge from-layer="447" from-port="0" to-layer="448" to-port="1"/>
		<edge from-layer="448" from-port="2" to-layer="484" to-port="6"/>
		<edge from-layer="449" from-port="0" to-layer="452" to-port="1"/>
		<edge from-layer="450" from-port="0" to-layer="452" to-port="2"/>
		<edge from-layer="451" from-port="0" to-layer="452" to-port="3"/>
		<edge from-layer="452" from-port="4" to-layer="457" to-port="0"/>
		<edge from-layer="453" from-port="0" to-layer="456" to-port="1"/>
		<edge from-layer="454" from-port="0" to-layer="456" to-port="2"/>
		<edge from-layer="455" from-port="0" to-layer="456" to-port="3"/>
		<edge from-layer="456" from-port="4" to-layer="457" to-port="1"/>
		<edge from-layer="457" from-port="2" to-layer="459" to-port="0"/>
		<edge from-layer="458" from-port="0" to-layer="459" to-port="1"/>
		<edge from-layer="459" from-port="2" to-layer="484" to-port="7"/>
		<edge from-layer="460" from-port="1" to-layer="464" to-port="0"/>
		<edge from-layer="461" from-port="0" to-layer="464" to-port="1"/>
		<edge from-layer="462" from-port="0" to-layer="464" to-port="2"/>
		<edge from-layer="463" from-port="0" to-layer="464" to-port="3"/>
		<edge from-layer="464" from-port="4" to-layer="469" to-port="0"/>
		<edge from-layer="465" from-port="0" to-layer="468" to-port="1"/>
		<edge from-layer="466" from-port="0" to-layer="468" to-port="2"/>
		<edge from-layer="467" from-port="0" to-layer="468" to-port="3"/>
		<edge from-layer="468" from-port="4" to-layer="469" to-port="1"/>
		<edge from-layer="469" from-port="2" to-layer="471" to-port="0"/>
		<edge from-layer="470" from-port="0" to-layer="471" to-port="1"/>
		<edge from-layer="471" from-port="2" to-layer="484" to-port="8"/>
		<edge from-layer="472" from-port="1" to-layer="476" to-port="0"/>
		<edge from-layer="473" from-port="0" to-layer="476" to-port="1"/>
		<edge from-layer="474" from-port="0" to-layer="476" to-port="2"/>
		<edge from-layer="475" from-port="0" to-layer="476" to-port="3"/>
		<edge from-layer="476" from-port="4" to-layer="481" to-port="0"/>
		<edge from-layer="477" from-port="0" to-layer="480" to-port="1"/>
		<edge from-layer="478" from-port="0" to-layer="480" to-port="2"/>
		<edge from-layer="479" from-port="0" to-layer="480" to-port="3"/>
		<edge from-layer="480" from-port="4" to-layer="481" to-port="1"/>
		<edge from-layer="481" from-port="2" to-layer="483" to-port="0"/>
		<edge from-layer="482" from-port="0" to-layer="483" to-port="1"/>
		<edge from-layer="483" from-port="2" to-layer="484" to-port="9"/>
		<edge from-layer="484" from-port="10" to-layer="485" to-port="2"/>
		<edge from-layer="485" from-port="3" to-layer="486" to-port="0"/>
	</edges>
	<meta_data>
		<MO_version value="2022.1.0-6910-173f328c53d"/>
		<Runtime_version value="2022.1.0-6910-173f328c53d"/>
		<legacy_path value="True"/>
		<cli_parameters>
			<caffe_parser_path value="DIR"/>
			<compress_fp16 value="False"/>
			<data_type value="FP32"/>
			<disable_nhwc_to_nchw value="False"/>
			<disable_omitting_optional value="False"/>
			<disable_resnet_optimization value="False"/>
			<disable_weights_compression value="False"/>
			<enable_concat_optimization value="False"/>
			<enable_flattening_nested_params value="False"/>
			<enable_ssd_gluoncv value="False"/>
			<extensions value="DIR"/>
			<framework value="caffe"/>
			<freeze_placeholder_with_value value="{}"/>
			<generate_deprecated_IR_V7 value="False"/>
			<input value="data"/>
			<input_model value="DIR/icv-pedestrian-detection-mobilenet-ssd-v2.0.caffemodel"/>
			<input_model_is_text value="False"/>
			<input_proto value="DIR/icv-pedestrian-detection-mobilenet-ssd-v2.0.prototxt"/>
			<input_shape value="[1,3,384,672]"/>
			<k value="DIR/CustomLayersMapping.xml"/>
			<keep_shape_ops value="True"/>
			<layout value="data(nchw)"/>
			<layout_values value="{'data': {'source_layout': 'nchw', 'target_layout': None, 'is_input': True}}"/>
			<legacy_ir_generation value="False"/>
			<legacy_mxnet_model value="False"/>
			<log_level value="ERROR"/>
			<mean_scale_values value="{'data': {'mean': array([104., 117., 123.]), 'scale': array([58.8235])}}"/>
			<mean_values value="data[104.0,117.0,123.0]"/>
			<model_name value="pedestrian-detection-adas-0002"/>
			<output value="['detection_out']"/>
			<output_dir value="DIR"/>
			<packed_user_shapes value="defaultdict(&lt;class 'list'&gt;, {'data': [{'shape': (1, 3, 384, 672), 'port': None, 'added': True}]})"/>
			<placeholder_data_types value="{}"/>
			<placeholder_shapes value="{'data': (1, 3, 384, 672)}"/>
			<progress value="False"/>
			<remove_memory value="False"/>
			<remove_output_softmax value="False"/>
			<reverse_input_channels value="False"/>
			<save_params_from_nd value="False"/>
			<scale_values value="data[58.8235]"/>
			<silent value="False"/>
			<source_layout value="()"/>
			<static_shape value="False"/>
			<stream_output value="False"/>
			<target_layout value="()"/>
			<transform value=""/>
			<use_legacy_frontend value="False"/>
			<use_new_frontend value="False"/>
			<unset unset_cli_parameters="batch, counts, disable_fusing, disable_gfusing, finegrain_fusing, input_checkpoint, input_meta_graph, input_symbol, mean_file, mean_file_offsets, move_to_preprocess, nd_prefix_name, pretrained_model_name, saved_model_dir, saved_model_tags, scale, tensorboard_logdir, tensorflow_custom_layer_libraries, tensorflow_custom_operations_config_update, tensorflow_object_detection_api_pipeline_config, tensorflow_use_custom_operations_config, transformations_config"/>
		</cli_parameters>
	</meta_data>
</net>
