<?xml version="1.0" ?>
<net batch="1" name="pytorch" version="4">
	<layers>
		<layer id="0" name="data" precision="FP32" type="Input">
			<output>
				<port id="0">
					<dim>1</dim>
					<dim>3</dim>
					<dim>384</dim>
					<dim>672</dim>
				</port>
			</output>
		</layer>
		<layer id="1" name="Mul1_/Fused_Mul_/FusedScaleShift_" precision="FP32" type="ScaleShift">
			<input>
				<port id="0">
					<dim>1</dim>
					<dim>3</dim>
					<dim>384</dim>
					<dim>672</dim>
				</port>
			</input>
			<output>
				<port id="3">
					<dim>1</dim>
					<dim>3</dim>
					<dim>384</dim>
					<dim>672</dim>
				</port>
			</output>
			<blobs>
				<weights offset="0" size="12"/>
				<biases offset="12" size="12"/>
			</blobs>
		</layer>
		<layer id="2" name="L0000_Conv2d-back_bone_seq.conv1_BN" precision="FP32" type="Convolution">
			<data dilations="1,1" group="1" kernel="3,3" output="32" pads_begin="1,1" pads_end="1,1" strides="2,2"/>
			<input>
				<port id="0">
					<dim>1</dim>
					<dim>3</dim>
					<dim>384</dim>
					<dim>672</dim>
				</port>
			</input>
			<output>
				<port id="3">
					<dim>1</dim>
					<dim>32</dim>
					<dim>192</dim>
					<dim>336</dim>
				</port>
			</output>
			<blobs>
				<weights offset="24" size="3456"/>
				<biases offset="3480" size="128"/>
			</blobs>
		</layer>
		<layer id="3" name="L0001_ReLU-back_bone_seq.conv1_relu" precision="FP32" type="ReLU">
			<data negative_slope="0.0"/>
			<input>
				<port id="0">
					<dim>1</dim>
					<dim>32</dim>
					<dim>192</dim>
					<dim>336</dim>
				</port>
			</input>
			<output>
				<port id="1">
					<dim>1</dim>
					<dim>32</dim>
					<dim>192</dim>
					<dim>336</dim>
				</port>
			</output>
		</layer>
		<layer id="4" name="L0002_Conv2d-back_bone_seq.conv2_1_dw_BN" precision="FP32" type="Convolution">
			<data dilations="1,1" group="32" kernel="3,3" output="32" pads_begin="1,1" pads_end="1,1" strides="1,1"/>
			<input>
				<port id="0">
					<dim>1</dim>
					<dim>32</dim>
					<dim>192</dim>
					<dim>336</dim>
				</port>
			</input>
			<output>
				<port id="3">
					<dim>1</dim>
					<dim>32</dim>
					<dim>192</dim>
					<dim>336</dim>
				</port>
			</output>
			<blobs>
				<weights offset="3608" size="1152"/>
				<biases offset="4760" size="128"/>
			</blobs>
		</layer>
		<layer id="5" name="L0003_ReLU-back_bone_seq.conv1_relu" precision="FP32" type="ReLU">
			<data negative_slope="0.0"/>
			<input>
				<port id="0">
					<dim>1</dim>
					<dim>32</dim>
					<dim>192</dim>
					<dim>336</dim>
				</port>
			</input>
			<output>
				<port id="1">
					<dim>1</dim>
					<dim>32</dim>
					<dim>192</dim>
					<dim>336</dim>
				</port>
			</output>
		</layer>
		<layer id="6" name="L0004_Conv2d-back_bone_seq.conv2_1_sep_BN" precision="FP32" type="Convolution">
			<data dilations="1,1" group="1" kernel="1,1" output="56" pads_begin="0,0" pads_end="0,0" strides="1,1"/>
			<input>
				<port id="0">
					<dim>1</dim>
					<dim>32</dim>
					<dim>192</dim>
					<dim>336</dim>
				</port>
			</input>
			<output>
				<port id="3">
					<dim>1</dim>
					<dim>56</dim>
					<dim>192</dim>
					<dim>336</dim>
				</port>
			</output>
			<blobs>
				<weights offset="4888" size="7168"/>
				<biases offset="12056" size="224"/>
			</blobs>
		</layer>
		<layer id="7" name="L0005_ReLU-back_bone_seq.conv1_relu" precision="FP32" type="ReLU">
			<data negative_slope="0.0"/>
			<input>
				<port id="0">
					<dim>1</dim>
					<dim>56</dim>
					<dim>192</dim>
					<dim>336</dim>
				</port>
			</input>
			<output>
				<port id="1">
					<dim>1</dim>
					<dim>56</dim>
					<dim>192</dim>
					<dim>336</dim>
				</port>
			</output>
		</layer>
		<layer id="8" name="L0006_Conv2d-back_bone_seq.conv2_2_dw_BN" precision="FP32" type="Convolution">
			<data dilations="1,1" group="56" kernel="3,3" output="56" pads_begin="1,1" pads_end="1,1" strides="2,2"/>
			<input>
				<port id="0">
					<dim>1</dim>
					<dim>56</dim>
					<dim>192</dim>
					<dim>336</dim>
				</port>
			</input>
			<output>
				<port id="3">
					<dim>1</dim>
					<dim>56</dim>
					<dim>96</dim>
					<dim>168</dim>
				</port>
			</output>
			<blobs>
				<weights offset="12280" size="2016"/>
				<biases offset="14296" size="224"/>
			</blobs>
		</layer>
		<layer id="9" name="Copy_L0008_ActivationBin-back_bone_seq.conv2_2_sep_relubin_bin_conv_BIN01/Input_1/Output_0/Data__const" precision="FP32" type="Const">
			<output>
				<port id="1">
					<dim>1</dim>
				</port>
			</output>
			<blobs>
				<custom offset="14520" size="4"/>
			</blobs>
		</layer>
		<layer id="10" name="Copy_L0008_ActivationBin-back_bone_seq.conv2_2_sep_relubin_bin_conv_BIN01/Input_1/Output_0/Data_1058_const" precision="FP32" type="Const">
			<output>
				<port id="1">
					<dim>1</dim>
				</port>
			</output>
			<blobs>
				<custom offset="14520" size="4"/>
			</blobs>
		</layer>
		<layer id="11" name="702_const" precision="FP32" type="Const">
			<output>
				<port id="1">
					<dim>1</dim>
				</port>
			</output>
			<blobs>
				<custom offset="14520" size="4"/>
			</blobs>
		</layer>
		<layer id="12" name="704_const" precision="FP32" type="Const">
			<output>
				<port id="1">
					<dim>1</dim>
				</port>
			</output>
			<blobs>
				<custom offset="14524" size="4"/>
			</blobs>
		</layer>
		<layer id="13" name="L0008_ActivationBin-back_bone_seq.conv2_2_sep_relubin_bin_conv_BIN01/Quantize_" precision="FP32" type="Quantize">
			<data levels="2"/>
			<input>
				<port id="0">
					<dim>1</dim>
					<dim>56</dim>
					<dim>96</dim>
					<dim>168</dim>
				</port>
				<port id="1">
					<dim>1</dim>
				</port>
				<port id="2">
					<dim>1</dim>
				</port>
				<port id="3">
					<dim>1</dim>
				</port>
				<port id="4">
					<dim>1</dim>
				</port>
			</input>
			<output>
				<port id="5">
					<dim>1</dim>
					<dim>56</dim>
					<dim>96</dim>
					<dim>168</dim>
				</port>
			</output>
		</layer>
		<layer id="14" name="L0009_Conv2d-back_bone_seq.conv2_2_sep-BIN" precision="FP32" type="BinaryConvolution">
			<data dilations="1,1" group="1" input="56" kernel="1,1" mode="xnor-popcount" output="112" pads_begin="0,0" pads_end="0,0" strides="1,1"/>
			<input>
				<port id="0">
					<dim>1</dim>
					<dim>56</dim>
					<dim>96</dim>
					<dim>168</dim>
				</port>
			</input>
			<output>
				<port id="2">
					<dim>1</dim>
					<dim>112</dim>
					<dim>96</dim>
					<dim>168</dim>
				</port>
			</output>
			<blobs>
				<weights offset="14528" size="784"/>
			</blobs>
		</layer>
		<layer id="15" name="L0009_Conv2d-back_bone_seq.conv2_2_sep-BINMul/After/Fused_Mul_/FusedScaleShift_" precision="FP32" type="ScaleShift">
			<input>
				<port id="0">
					<dim>1</dim>
					<dim>112</dim>
					<dim>96</dim>
					<dim>168</dim>
				</port>
			</input>
			<output>
				<port id="3">
					<dim>1</dim>
					<dim>112</dim>
					<dim>96</dim>
					<dim>168</dim>
				</port>
			</output>
			<blobs>
				<weights offset="15312" size="448"/>
				<biases offset="15760" size="448"/>
			</blobs>
		</layer>
		<layer id="16" name="L0010_ReLU-back_bone_seq.conv1_relu" precision="FP32" type="ReLU">
			<data negative_slope="0.0"/>
			<input>
				<port id="0">
					<dim>1</dim>
					<dim>112</dim>
					<dim>96</dim>
					<dim>168</dim>
				</port>
			</input>
			<output>
				<port id="1">
					<dim>1</dim>
					<dim>112</dim>
					<dim>96</dim>
					<dim>168</dim>
				</port>
			</output>
		</layer>
		<layer id="17" name="L0011_Conv2d-back_bone_seq.conv3_1_dw_BN" precision="FP32" type="Convolution">
			<data dilations="1,1" group="112" kernel="3,3" output="112" pads_begin="1,1" pads_end="1,1" strides="1,1"/>
			<input>
				<port id="0">
					<dim>1</dim>
					<dim>112</dim>
					<dim>96</dim>
					<dim>168</dim>
				</port>
			</input>
			<output>
				<port id="3">
					<dim>1</dim>
					<dim>112</dim>
					<dim>96</dim>
					<dim>168</dim>
				</port>
			</output>
			<blobs>
				<weights offset="16208" size="4032"/>
				<biases offset="20240" size="448"/>
			</blobs>
		</layer>
		<layer id="18" name="Copy_L0013_ActivationBin-back_bone_seq.conv3_1_sep_relubin_bin_conv_BIN01/Input_1/Output_0/Data__const" precision="FP32" type="Const">
			<output>
				<port id="1">
					<dim>1</dim>
				</port>
			</output>
			<blobs>
				<custom offset="14520" size="4"/>
			</blobs>
		</layer>
		<layer id="19" name="Copy_L0013_ActivationBin-back_bone_seq.conv3_1_sep_relubin_bin_conv_BIN01/Input_1/Output_0/Data_1046_const" precision="FP32" type="Const">
			<output>
				<port id="1">
					<dim>1</dim>
				</port>
			</output>
			<blobs>
				<custom offset="14520" size="4"/>
			</blobs>
		</layer>
		<layer id="20" name="678_const" precision="FP32" type="Const">
			<output>
				<port id="1">
					<dim>1</dim>
				</port>
			</output>
			<blobs>
				<custom offset="14520" size="4"/>
			</blobs>
		</layer>
		<layer id="21" name="680_const" precision="FP32" type="Const">
			<output>
				<port id="1">
					<dim>1</dim>
				</port>
			</output>
			<blobs>
				<custom offset="14524" size="4"/>
			</blobs>
		</layer>
		<layer id="22" name="L0013_ActivationBin-back_bone_seq.conv3_1_sep_relubin_bin_conv_BIN01/Quantize_" precision="FP32" type="Quantize">
			<data levels="2"/>
			<input>
				<port id="0">
					<dim>1</dim>
					<dim>112</dim>
					<dim>96</dim>
					<dim>168</dim>
				</port>
				<port id="1">
					<dim>1</dim>
				</port>
				<port id="2">
					<dim>1</dim>
				</port>
				<port id="3">
					<dim>1</dim>
				</port>
				<port id="4">
					<dim>1</dim>
				</port>
			</input>
			<output>
				<port id="5">
					<dim>1</dim>
					<dim>112</dim>
					<dim>96</dim>
					<dim>168</dim>
				</port>
			</output>
		</layer>
		<layer id="23" name="L0014_Conv2d-back_bone_seq.conv3_1_sep-BIN" precision="FP32" type="BinaryConvolution">
			<data dilations="1,1" group="1" input="112" kernel="1,1" mode="xnor-popcount" output="112" pads_begin="0,0" pads_end="0,0" strides="1,1"/>
			<input>
				<port id="0">
					<dim>1</dim>
					<dim>112</dim>
					<dim>96</dim>
					<dim>168</dim>
				</port>
			</input>
			<output>
				<port id="2">
					<dim>1</dim>
					<dim>112</dim>
					<dim>96</dim>
					<dim>168</dim>
				</port>
			</output>
			<blobs>
				<weights offset="20688" size="1568"/>
			</blobs>
		</layer>
		<layer id="24" name="L0014_Conv2d-back_bone_seq.conv3_1_sep-BINMul/After/Fused_Mul_/FusedScaleShift_" precision="FP32" type="ScaleShift">
			<input>
				<port id="0">
					<dim>1</dim>
					<dim>112</dim>
					<dim>96</dim>
					<dim>168</dim>
				</port>
			</input>
			<output>
				<port id="3">
					<dim>1</dim>
					<dim>112</dim>
					<dim>96</dim>
					<dim>168</dim>
				</port>
			</output>
			<blobs>
				<weights offset="22256" size="448"/>
				<biases offset="22704" size="448"/>
			</blobs>
		</layer>
		<layer id="25" name="L0015_ReLU-back_bone_seq.conv1_relu" precision="FP32" type="ReLU">
			<data negative_slope="0.0"/>
			<input>
				<port id="0">
					<dim>1</dim>
					<dim>112</dim>
					<dim>96</dim>
					<dim>168</dim>
				</port>
			</input>
			<output>
				<port id="1">
					<dim>1</dim>
					<dim>112</dim>
					<dim>96</dim>
					<dim>168</dim>
				</port>
			</output>
		</layer>
		<layer id="26" name="L0016_Conv2d-back_bone_seq.conv3_2_dw_BN" precision="FP32" type="Convolution">
			<data dilations="1,1" group="112" kernel="3,3" output="112" pads_begin="1,1" pads_end="1,1" strides="2,2"/>
			<input>
				<port id="0">
					<dim>1</dim>
					<dim>112</dim>
					<dim>96</dim>
					<dim>168</dim>
				</port>
			</input>
			<output>
				<port id="3">
					<dim>1</dim>
					<dim>112</dim>
					<dim>48</dim>
					<dim>84</dim>
				</port>
			</output>
			<blobs>
				<weights offset="23152" size="4032"/>
				<biases offset="27184" size="448"/>
			</blobs>
		</layer>
		<layer id="27" name="Copy_L0018_ActivationBin-back_bone_seq.conv3_2_sep_relubin_bin_conv_BIN01/Input_1/Output_0/Data__const" precision="FP32" type="Const">
			<output>
				<port id="1">
					<dim>1</dim>
				</port>
			</output>
			<blobs>
				<custom offset="14520" size="4"/>
			</blobs>
		</layer>
		<layer id="28" name="Copy_L0018_ActivationBin-back_bone_seq.conv3_2_sep_relubin_bin_conv_BIN01/Input_1/Output_0/Data_1054_const" precision="FP32" type="Const">
			<output>
				<port id="1">
					<dim>1</dim>
				</port>
			</output>
			<blobs>
				<custom offset="14520" size="4"/>
			</blobs>
		</layer>
		<layer id="29" name="646_const" precision="FP32" type="Const">
			<output>
				<port id="1">
					<dim>1</dim>
				</port>
			</output>
			<blobs>
				<custom offset="14520" size="4"/>
			</blobs>
		</layer>
		<layer id="30" name="648_const" precision="FP32" type="Const">
			<output>
				<port id="1">
					<dim>1</dim>
				</port>
			</output>
			<blobs>
				<custom offset="14524" size="4"/>
			</blobs>
		</layer>
		<layer id="31" name="L0018_ActivationBin-back_bone_seq.conv3_2_sep_relubin_bin_conv_BIN01/Quantize_" precision="FP32" type="Quantize">
			<data levels="2"/>
			<input>
				<port id="0">
					<dim>1</dim>
					<dim>112</dim>
					<dim>48</dim>
					<dim>84</dim>
				</port>
				<port id="1">
					<dim>1</dim>
				</port>
				<port id="2">
					<dim>1</dim>
				</port>
				<port id="3">
					<dim>1</dim>
				</port>
				<port id="4">
					<dim>1</dim>
				</port>
			</input>
			<output>
				<port id="5">
					<dim>1</dim>
					<dim>112</dim>
					<dim>48</dim>
					<dim>84</dim>
				</port>
			</output>
		</layer>
		<layer id="32" name="L0019_Conv2d-back_bone_seq.conv3_2_sep-BIN" precision="FP32" type="BinaryConvolution">
			<data dilations="1,1" group="1" input="112" kernel="1,1" mode="xnor-popcount" output="208" pads_begin="0,0" pads_end="0,0" strides="1,1"/>
			<input>
				<port id="0">
					<dim>1</dim>
					<dim>112</dim>
					<dim>48</dim>
					<dim>84</dim>
				</port>
			</input>
			<output>
				<port id="2">
					<dim>1</dim>
					<dim>208</dim>
					<dim>48</dim>
					<dim>84</dim>
				</port>
			</output>
			<blobs>
				<weights offset="27632" size="2912"/>
			</blobs>
		</layer>
		<layer id="33" name="L0019_Conv2d-back_bone_seq.conv3_2_sep-BINMul/After/Fused_Mul_/FusedScaleShift_" precision="FP32" type="ScaleShift">
			<input>
				<port id="0">
					<dim>1</dim>
					<dim>208</dim>
					<dim>48</dim>
					<dim>84</dim>
				</port>
			</input>
			<output>
				<port id="3">
					<dim>1</dim>
					<dim>208</dim>
					<dim>48</dim>
					<dim>84</dim>
				</port>
			</output>
			<blobs>
				<weights offset="30544" size="832"/>
				<biases offset="31376" size="832"/>
			</blobs>
		</layer>
		<layer id="34" name="L0020_ReLU-back_bone_seq.conv1_relu" precision="FP32" type="ReLU">
			<data negative_slope="0.0"/>
			<input>
				<port id="0">
					<dim>1</dim>
					<dim>208</dim>
					<dim>48</dim>
					<dim>84</dim>
				</port>
			</input>
			<output>
				<port id="1">
					<dim>1</dim>
					<dim>208</dim>
					<dim>48</dim>
					<dim>84</dim>
				</port>
			</output>
		</layer>
		<layer id="35" name="L0021_Conv2d-back_bone_seq.conv4_1_dw_BN" precision="FP32" type="Convolution">
			<data dilations="1,1" group="208" kernel="3,3" output="208" pads_begin="1,1" pads_end="1,1" strides="1,1"/>
			<input>
				<port id="0">
					<dim>1</dim>
					<dim>208</dim>
					<dim>48</dim>
					<dim>84</dim>
				</port>
			</input>
			<output>
				<port id="3">
					<dim>1</dim>
					<dim>208</dim>
					<dim>48</dim>
					<dim>84</dim>
				</port>
			</output>
			<blobs>
				<weights offset="32208" size="7488"/>
				<biases offset="39696" size="832"/>
			</blobs>
		</layer>
		<layer id="36" name="Copy_L0023_ActivationBin-back_bone_seq.conv4_1_sep_relubin_bin_conv_BIN01/Input_1/Output_0/Data__const" precision="FP32" type="Const">
			<output>
				<port id="1">
					<dim>1</dim>
				</port>
			</output>
			<blobs>
				<custom offset="14520" size="4"/>
			</blobs>
		</layer>
		<layer id="37" name="Copy_L0023_ActivationBin-back_bone_seq.conv4_1_sep_relubin_bin_conv_BIN01/Input_1/Output_0/Data_1052_const" precision="FP32" type="Const">
			<output>
				<port id="1">
					<dim>1</dim>
				</port>
			</output>
			<blobs>
				<custom offset="14520" size="4"/>
			</blobs>
		</layer>
		<layer id="38" name="662_const" precision="FP32" type="Const">
			<output>
				<port id="1">
					<dim>1</dim>
				</port>
			</output>
			<blobs>
				<custom offset="14520" size="4"/>
			</blobs>
		</layer>
		<layer id="39" name="664_const" precision="FP32" type="Const">
			<output>
				<port id="1">
					<dim>1</dim>
				</port>
			</output>
			<blobs>
				<custom offset="14524" size="4"/>
			</blobs>
		</layer>
		<layer id="40" name="L0023_ActivationBin-back_bone_seq.conv4_1_sep_relubin_bin_conv_BIN01/Quantize_" precision="FP32" type="Quantize">
			<data levels="2"/>
			<input>
				<port id="0">
					<dim>1</dim>
					<dim>208</dim>
					<dim>48</dim>
					<dim>84</dim>
				</port>
				<port id="1">
					<dim>1</dim>
				</port>
				<port id="2">
					<dim>1</dim>
				</port>
				<port id="3">
					<dim>1</dim>
				</port>
				<port id="4">
					<dim>1</dim>
				</port>
			</input>
			<output>
				<port id="5">
					<dim>1</dim>
					<dim>208</dim>
					<dim>48</dim>
					<dim>84</dim>
				</port>
			</output>
		</layer>
		<layer id="41" name="L0024_Conv2d-back_bone_seq.conv4_1_sep-BIN" precision="FP32" type="BinaryConvolution">
			<data dilations="1,1" group="1" input="208" kernel="1,1" mode="xnor-popcount" output="216" pads_begin="0,0" pads_end="0,0" strides="1,1"/>
			<input>
				<port id="0">
					<dim>1</dim>
					<dim>208</dim>
					<dim>48</dim>
					<dim>84</dim>
				</port>
			</input>
			<output>
				<port id="2">
					<dim>1</dim>
					<dim>216</dim>
					<dim>48</dim>
					<dim>84</dim>
				</port>
			</output>
			<blobs>
				<weights offset="40528" size="5616"/>
			</blobs>
		</layer>
		<layer id="42" name="L0024_Conv2d-back_bone_seq.conv4_1_sep-BINMul/After/Fused_Mul_/FusedScaleShift_" precision="FP32" type="ScaleShift">
			<input>
				<port id="0">
					<dim>1</dim>
					<dim>216</dim>
					<dim>48</dim>
					<dim>84</dim>
				</port>
			</input>
			<output>
				<port id="3">
					<dim>1</dim>
					<dim>216</dim>
					<dim>48</dim>
					<dim>84</dim>
				</port>
			</output>
			<blobs>
				<weights offset="46144" size="864"/>
				<biases offset="47008" size="864"/>
			</blobs>
		</layer>
		<layer id="43" name="L0025_ReLU-back_bone_seq.conv1_relu" precision="FP32" type="ReLU">
			<data negative_slope="0.0"/>
			<input>
				<port id="0">
					<dim>1</dim>
					<dim>216</dim>
					<dim>48</dim>
					<dim>84</dim>
				</port>
			</input>
			<output>
				<port id="1">
					<dim>1</dim>
					<dim>216</dim>
					<dim>48</dim>
					<dim>84</dim>
				</port>
			</output>
		</layer>
		<layer id="44" name="L0026_Conv2d-back_bone_seq.conv4_2_dw_BN" precision="FP32" type="Convolution">
			<data dilations="1,1" group="216" kernel="3,3" output="216" pads_begin="1,1" pads_end="1,1" strides="2,2"/>
			<input>
				<port id="0">
					<dim>1</dim>
					<dim>216</dim>
					<dim>48</dim>
					<dim>84</dim>
				</port>
			</input>
			<output>
				<port id="3">
					<dim>1</dim>
					<dim>216</dim>
					<dim>24</dim>
					<dim>42</dim>
				</port>
			</output>
			<blobs>
				<weights offset="47872" size="7776"/>
				<biases offset="55648" size="864"/>
			</blobs>
		</layer>
		<layer id="45" name="Copy_L0028_ActivationBin-back_bone_seq.conv4_2_sep_relubin_bin_conv_BIN01/Input_1/Output_0/Data__const" precision="FP32" type="Const">
			<output>
				<port id="1">
					<dim>1</dim>
				</port>
			</output>
			<blobs>
				<custom offset="14520" size="4"/>
			</blobs>
		</layer>
		<layer id="46" name="Copy_L0028_ActivationBin-back_bone_seq.conv4_2_sep_relubin_bin_conv_BIN01/Input_1/Output_0/Data_1064_const" precision="FP32" type="Const">
			<output>
				<port id="1">
					<dim>1</dim>
				</port>
			</output>
			<blobs>
				<custom offset="14520" size="4"/>
			</blobs>
		</layer>
		<layer id="47" name="694_const" precision="FP32" type="Const">
			<output>
				<port id="1">
					<dim>1</dim>
				</port>
			</output>
			<blobs>
				<custom offset="14520" size="4"/>
			</blobs>
		</layer>
		<layer id="48" name="696_const" precision="FP32" type="Const">
			<output>
				<port id="1">
					<dim>1</dim>
				</port>
			</output>
			<blobs>
				<custom offset="14524" size="4"/>
			</blobs>
		</layer>
		<layer id="49" name="L0028_ActivationBin-back_bone_seq.conv4_2_sep_relubin_bin_conv_BIN01/Quantize_" precision="FP32" type="Quantize">
			<data levels="2"/>
			<input>
				<port id="0">
					<dim>1</dim>
					<dim>216</dim>
					<dim>24</dim>
					<dim>42</dim>
				</port>
				<port id="1">
					<dim>1</dim>
				</port>
				<port id="2">
					<dim>1</dim>
				</port>
				<port id="3">
					<dim>1</dim>
				</port>
				<port id="4">
					<dim>1</dim>
				</port>
			</input>
			<output>
				<port id="5">
					<dim>1</dim>
					<dim>216</dim>
					<dim>24</dim>
					<dim>42</dim>
				</port>
			</output>
		</layer>
		<layer id="50" name="L0029_Conv2d-back_bone_seq.conv4_2_sep-BIN" precision="FP32" type="BinaryConvolution">
			<data dilations="1,1" group="1" input="216" kernel="1,1" mode="xnor-popcount" output="328" pads_begin="0,0" pads_end="0,0" strides="1,1"/>
			<input>
				<port id="0">
					<dim>1</dim>
					<dim>216</dim>
					<dim>24</dim>
					<dim>42</dim>
				</port>
			</input>
			<output>
				<port id="2">
					<dim>1</dim>
					<dim>328</dim>
					<dim>24</dim>
					<dim>42</dim>
				</port>
			</output>
			<blobs>
				<weights offset="56512" size="8856"/>
			</blobs>
		</layer>
		<layer id="51" name="L0029_Conv2d-back_bone_seq.conv4_2_sep-BINMul/After/Fused_Mul_/FusedScaleShift_" precision="FP32" type="ScaleShift">
			<input>
				<port id="0">
					<dim>1</dim>
					<dim>328</dim>
					<dim>24</dim>
					<dim>42</dim>
				</port>
			</input>
			<output>
				<port id="3">
					<dim>1</dim>
					<dim>328</dim>
					<dim>24</dim>
					<dim>42</dim>
				</port>
			</output>
			<blobs>
				<weights offset="65368" size="1312"/>
				<biases offset="66680" size="1312"/>
			</blobs>
		</layer>
		<layer id="52" name="L0030_ReLU-back_bone_seq.conv1_relu" precision="FP32" type="ReLU">
			<data negative_slope="0.0"/>
			<input>
				<port id="0">
					<dim>1</dim>
					<dim>328</dim>
					<dim>24</dim>
					<dim>42</dim>
				</port>
			</input>
			<output>
				<port id="1">
					<dim>1</dim>
					<dim>328</dim>
					<dim>24</dim>
					<dim>42</dim>
				</port>
			</output>
		</layer>
		<layer id="53" name="L0031_Conv2d-back_bone_seq.conv5_1_dw_BN" precision="FP32" type="Convolution">
			<data dilations="1,1" group="328" kernel="3,3" output="328" pads_begin="1,1" pads_end="1,1" strides="1,1"/>
			<input>
				<port id="0">
					<dim>1</dim>
					<dim>328</dim>
					<dim>24</dim>
					<dim>42</dim>
				</port>
			</input>
			<output>
				<port id="3">
					<dim>1</dim>
					<dim>328</dim>
					<dim>24</dim>
					<dim>42</dim>
				</port>
			</output>
			<blobs>
				<weights offset="67992" size="11808"/>
				<biases offset="79800" size="1312"/>
			</blobs>
		</layer>
		<layer id="54" name="Copy_L0033_ActivationBin-back_bone_seq.conv5_1_sep_relubin_bin_conv_BIN01/Input_1/Output_0/Data__const" precision="FP32" type="Const">
			<output>
				<port id="1">
					<dim>1</dim>
				</port>
			</output>
			<blobs>
				<custom offset="14520" size="4"/>
			</blobs>
		</layer>
		<layer id="55" name="Copy_L0033_ActivationBin-back_bone_seq.conv5_1_sep_relubin_bin_conv_BIN01/Input_1/Output_0/Data_1060_const" precision="FP32" type="Const">
			<output>
				<port id="1">
					<dim>1</dim>
				</port>
			</output>
			<blobs>
				<custom offset="14520" size="4"/>
			</blobs>
		</layer>
		<layer id="56" name="710_const" precision="FP32" type="Const">
			<output>
				<port id="1">
					<dim>1</dim>
				</port>
			</output>
			<blobs>
				<custom offset="14520" size="4"/>
			</blobs>
		</layer>
		<layer id="57" name="712_const" precision="FP32" type="Const">
			<output>
				<port id="1">
					<dim>1</dim>
				</port>
			</output>
			<blobs>
				<custom offset="14524" size="4"/>
			</blobs>
		</layer>
		<layer id="58" name="L0033_ActivationBin-back_bone_seq.conv5_1_sep_relubin_bin_conv_BIN01/Quantize_" precision="FP32" type="Quantize">
			<data levels="2"/>
			<input>
				<port id="0">
					<dim>1</dim>
					<dim>328</dim>
					<dim>24</dim>
					<dim>42</dim>
				</port>
				<port id="1">
					<dim>1</dim>
				</port>
				<port id="2">
					<dim>1</dim>
				</port>
				<port id="3">
					<dim>1</dim>
				</port>
				<port id="4">
					<dim>1</dim>
				</port>
			</input>
			<output>
				<port id="5">
					<dim>1</dim>
					<dim>328</dim>
					<dim>24</dim>
					<dim>42</dim>
				</port>
			</output>
		</layer>
		<layer id="59" name="L0034_Conv2d-back_bone_seq.conv5_1_sep-BIN" precision="FP32" type="BinaryConvolution">
			<data dilations="1,1" group="1" input="328" kernel="1,1" mode="xnor-popcount" output="288" pads_begin="0,0" pads_end="0,0" strides="1,1"/>
			<input>
				<port id="0">
					<dim>1</dim>
					<dim>328</dim>
					<dim>24</dim>
					<dim>42</dim>
				</port>
			</input>
			<output>
				<port id="2">
					<dim>1</dim>
					<dim>288</dim>
					<dim>24</dim>
					<dim>42</dim>
				</port>
			</output>
			<blobs>
				<weights offset="81112" size="11808"/>
			</blobs>
		</layer>
		<layer id="60" name="L0034_Conv2d-back_bone_seq.conv5_1_sep-BINMul/After/Fused_Mul_/FusedScaleShift_" precision="FP32" type="ScaleShift">
			<input>
				<port id="0">
					<dim>1</dim>
					<dim>288</dim>
					<dim>24</dim>
					<dim>42</dim>
				</port>
			</input>
			<output>
				<port id="3">
					<dim>1</dim>
					<dim>288</dim>
					<dim>24</dim>
					<dim>42</dim>
				</port>
			</output>
			<blobs>
				<weights offset="92920" size="1152"/>
				<biases offset="94072" size="1152"/>
			</blobs>
		</layer>
		<layer id="61" name="L0035_ReLU-back_bone_seq.conv1_relu" precision="FP32" type="ReLU">
			<data negative_slope="0.0"/>
			<input>
				<port id="0">
					<dim>1</dim>
					<dim>288</dim>
					<dim>24</dim>
					<dim>42</dim>
				</port>
			</input>
			<output>
				<port id="1">
					<dim>1</dim>
					<dim>288</dim>
					<dim>24</dim>
					<dim>42</dim>
				</port>
			</output>
		</layer>
		<layer id="62" name="L0036_Conv2d-back_bone_seq.conv5_2_dw_BN" precision="FP32" type="Convolution">
			<data dilations="1,1" group="288" kernel="3,3" output="288" pads_begin="1,1" pads_end="1,1" strides="1,1"/>
			<input>
				<port id="0">
					<dim>1</dim>
					<dim>288</dim>
					<dim>24</dim>
					<dim>42</dim>
				</port>
			</input>
			<output>
				<port id="3">
					<dim>1</dim>
					<dim>288</dim>
					<dim>24</dim>
					<dim>42</dim>
				</port>
			</output>
			<blobs>
				<weights offset="95224" size="10368"/>
				<biases offset="105592" size="1152"/>
			</blobs>
		</layer>
		<layer id="63" name="Copy_L0038_ActivationBin-back_bone_seq.conv5_2_sep_relubin_bin_conv_BIN01/Input_1/Output_0/Data__const" precision="FP32" type="Const">
			<output>
				<port id="1">
					<dim>1</dim>
				</port>
			</output>
			<blobs>
				<custom offset="14520" size="4"/>
			</blobs>
		</layer>
		<layer id="64" name="Copy_L0038_ActivationBin-back_bone_seq.conv5_2_sep_relubin_bin_conv_BIN01/Input_1/Output_0/Data_1062_const" precision="FP32" type="Const">
			<output>
				<port id="1">
					<dim>1</dim>
				</port>
			</output>
			<blobs>
				<custom offset="14520" size="4"/>
			</blobs>
		</layer>
		<layer id="65" name="686_const" precision="FP32" type="Const">
			<output>
				<port id="1">
					<dim>1</dim>
				</port>
			</output>
			<blobs>
				<custom offset="14520" size="4"/>
			</blobs>
		</layer>
		<layer id="66" name="688_const" precision="FP32" type="Const">
			<output>
				<port id="1">
					<dim>1</dim>
				</port>
			</output>
			<blobs>
				<custom offset="14524" size="4"/>
			</blobs>
		</layer>
		<layer id="67" name="L0038_ActivationBin-back_bone_seq.conv5_2_sep_relubin_bin_conv_BIN01/Quantize_" precision="FP32" type="Quantize">
			<data levels="2"/>
			<input>
				<port id="0">
					<dim>1</dim>
					<dim>288</dim>
					<dim>24</dim>
					<dim>42</dim>
				</port>
				<port id="1">
					<dim>1</dim>
				</port>
				<port id="2">
					<dim>1</dim>
				</port>
				<port id="3">
					<dim>1</dim>
				</port>
				<port id="4">
					<dim>1</dim>
				</port>
			</input>
			<output>
				<port id="5">
					<dim>1</dim>
					<dim>288</dim>
					<dim>24</dim>
					<dim>42</dim>
				</port>
			</output>
		</layer>
		<layer id="68" name="L0039_Conv2d-back_bone_seq.conv5_2_sep-BIN" precision="FP32" type="BinaryConvolution">
			<data dilations="1,1" group="1" input="288" kernel="1,1" mode="xnor-popcount" output="288" pads_begin="0,0" pads_end="0,0" strides="1,1"/>
			<input>
				<port id="0">
					<dim>1</dim>
					<dim>288</dim>
					<dim>24</dim>
					<dim>42</dim>
				</port>
			</input>
			<output>
				<port id="2">
					<dim>1</dim>
					<dim>288</dim>
					<dim>24</dim>
					<dim>42</dim>
				</port>
			</output>
			<blobs>
				<weights offset="106744" size="10368"/>
			</blobs>
		</layer>
		<layer id="69" name="L0039_Conv2d-back_bone_seq.conv5_2_sep-BINMul/After/Fused_Mul_/FusedScaleShift_" precision="FP32" type="ScaleShift">
			<input>
				<port id="0">
					<dim>1</dim>
					<dim>288</dim>
					<dim>24</dim>
					<dim>42</dim>
				</port>
			</input>
			<output>
				<port id="3">
					<dim>1</dim>
					<dim>288</dim>
					<dim>24</dim>
					<dim>42</dim>
				</port>
			</output>
			<blobs>
				<weights offset="117112" size="1152"/>
				<biases offset="118264" size="1152"/>
			</blobs>
		</layer>
		<layer id="70" name="L0040_ReLU-back_bone_seq.conv1_relu" precision="FP32" type="ReLU">
			<data negative_slope="0.0"/>
			<input>
				<port id="0">
					<dim>1</dim>
					<dim>288</dim>
					<dim>24</dim>
					<dim>42</dim>
				</port>
			</input>
			<output>
				<port id="1">
					<dim>1</dim>
					<dim>288</dim>
					<dim>24</dim>
					<dim>42</dim>
				</port>
			</output>
		</layer>
		<layer id="71" name="L0041_Conv2d-back_bone_seq.conv5_3_dw_BN" precision="FP32" type="Convolution">
			<data dilations="1,1" group="288" kernel="3,3" output="288" pads_begin="1,1" pads_end="1,1" strides="1,1"/>
			<input>
				<port id="0">
					<dim>1</dim>
					<dim>288</dim>
					<dim>24</dim>
					<dim>42</dim>
				</port>
			</input>
			<output>
				<port id="3">
					<dim>1</dim>
					<dim>288</dim>
					<dim>24</dim>
					<dim>42</dim>
				</port>
			</output>
			<blobs>
				<weights offset="119416" size="10368"/>
				<biases offset="129784" size="1152"/>
			</blobs>
		</layer>
		<layer id="72" name="Copy_L0043_ActivationBin-back_bone_seq.conv5_3_sep_relubin_bin_conv_BIN01/Input_1/Output_0/Data__const" precision="FP32" type="Const">
			<output>
				<port id="1">
					<dim>1</dim>
				</port>
			</output>
			<blobs>
				<custom offset="14520" size="4"/>
			</blobs>
		</layer>
		<layer id="73" name="Copy_L0043_ActivationBin-back_bone_seq.conv5_3_sep_relubin_bin_conv_BIN01/Input_1/Output_0/Data_1066_const" precision="FP32" type="Const">
			<output>
				<port id="1">
					<dim>1</dim>
				</port>
			</output>
			<blobs>
				<custom offset="14520" size="4"/>
			</blobs>
		</layer>
		<layer id="74" name="630_const" precision="FP32" type="Const">
			<output>
				<port id="1">
					<dim>1</dim>
				</port>
			</output>
			<blobs>
				<custom offset="14520" size="4"/>
			</blobs>
		</layer>
		<layer id="75" name="632_const" precision="FP32" type="Const">
			<output>
				<port id="1">
					<dim>1</dim>
				</port>
			</output>
			<blobs>
				<custom offset="14524" size="4"/>
			</blobs>
		</layer>
		<layer id="76" name="L0043_ActivationBin-back_bone_seq.conv5_3_sep_relubin_bin_conv_BIN01/Quantize_" precision="FP32" type="Quantize">
			<data levels="2"/>
			<input>
				<port id="0">
					<dim>1</dim>
					<dim>288</dim>
					<dim>24</dim>
					<dim>42</dim>
				</port>
				<port id="1">
					<dim>1</dim>
				</port>
				<port id="2">
					<dim>1</dim>
				</port>
				<port id="3">
					<dim>1</dim>
				</port>
				<port id="4">
					<dim>1</dim>
				</port>
			</input>
			<output>
				<port id="5">
					<dim>1</dim>
					<dim>288</dim>
					<dim>24</dim>
					<dim>42</dim>
				</port>
			</output>
		</layer>
		<layer id="77" name="L0044_Conv2d-back_bone_seq.conv5_3_sep-BIN" precision="FP32" type="BinaryConvolution">
			<data dilations="1,1" group="1" input="288" kernel="1,1" mode="xnor-popcount" output="240" pads_begin="0,0" pads_end="0,0" strides="1,1"/>
			<input>
				<port id="0">
					<dim>1</dim>
					<dim>288</dim>
					<dim>24</dim>
					<dim>42</dim>
				</port>
			</input>
			<output>
				<port id="2">
					<dim>1</dim>
					<dim>240</dim>
					<dim>24</dim>
					<dim>42</dim>
				</port>
			</output>
			<blobs>
				<weights offset="130936" size="8640"/>
			</blobs>
		</layer>
		<layer id="78" name="L0044_Conv2d-back_bone_seq.conv5_3_sep-BINMul/After/Fused_Mul_/FusedScaleShift_" precision="FP32" type="ScaleShift">
			<input>
				<port id="0">
					<dim>1</dim>
					<dim>240</dim>
					<dim>24</dim>
					<dim>42</dim>
				</port>
			</input>
			<output>
				<port id="3">
					<dim>1</dim>
					<dim>240</dim>
					<dim>24</dim>
					<dim>42</dim>
				</port>
			</output>
			<blobs>
				<weights offset="139576" size="960"/>
				<biases offset="140536" size="960"/>
			</blobs>
		</layer>
		<layer id="79" name="L0045_ReLU-back_bone_seq.conv1_relu" precision="FP32" type="ReLU">
			<data negative_slope="0.0"/>
			<input>
				<port id="0">
					<dim>1</dim>
					<dim>240</dim>
					<dim>24</dim>
					<dim>42</dim>
				</port>
			</input>
			<output>
				<port id="1">
					<dim>1</dim>
					<dim>240</dim>
					<dim>24</dim>
					<dim>42</dim>
				</port>
			</output>
		</layer>
		<layer id="80" name="L0046_Conv2d-back_bone_seq.conv5_4_dw_BN" precision="FP32" type="Convolution">
			<data dilations="1,1" group="240" kernel="3,3" output="240" pads_begin="1,1" pads_end="1,1" strides="1,1"/>
			<input>
				<port id="0">
					<dim>1</dim>
					<dim>240</dim>
					<dim>24</dim>
					<dim>42</dim>
				</port>
			</input>
			<output>
				<port id="3">
					<dim>1</dim>
					<dim>240</dim>
					<dim>24</dim>
					<dim>42</dim>
				</port>
			</output>
			<blobs>
				<weights offset="141496" size="8640"/>
				<biases offset="150136" size="960"/>
			</blobs>
		</layer>
		<layer id="81" name="Copy_L0048_ActivationBin-back_bone_seq.conv5_4_sep_relubin_bin_conv_BIN01/Input_1/Output_0/Data__const" precision="FP32" type="Const">
			<output>
				<port id="1">
					<dim>1</dim>
				</port>
			</output>
			<blobs>
				<custom offset="14520" size="4"/>
			</blobs>
		</layer>
		<layer id="82" name="Copy_L0048_ActivationBin-back_bone_seq.conv5_4_sep_relubin_bin_conv_BIN01/Input_1/Output_0/Data_1056_const" precision="FP32" type="Const">
			<output>
				<port id="1">
					<dim>1</dim>
				</port>
			</output>
			<blobs>
				<custom offset="14520" size="4"/>
			</blobs>
		</layer>
		<layer id="83" name="670_const" precision="FP32" type="Const">
			<output>
				<port id="1">
					<dim>1</dim>
				</port>
			</output>
			<blobs>
				<custom offset="14520" size="4"/>
			</blobs>
		</layer>
		<layer id="84" name="672_const" precision="FP32" type="Const">
			<output>
				<port id="1">
					<dim>1</dim>
				</port>
			</output>
			<blobs>
				<custom offset="14524" size="4"/>
			</blobs>
		</layer>
		<layer id="85" name="L0048_ActivationBin-back_bone_seq.conv5_4_sep_relubin_bin_conv_BIN01/Quantize_" precision="FP32" type="Quantize">
			<data levels="2"/>
			<input>
				<port id="0">
					<dim>1</dim>
					<dim>240</dim>
					<dim>24</dim>
					<dim>42</dim>
				</port>
				<port id="1">
					<dim>1</dim>
				</port>
				<port id="2">
					<dim>1</dim>
				</port>
				<port id="3">
					<dim>1</dim>
				</port>
				<port id="4">
					<dim>1</dim>
				</port>
			</input>
			<output>
				<port id="5">
					<dim>1</dim>
					<dim>240</dim>
					<dim>24</dim>
					<dim>42</dim>
				</port>
			</output>
		</layer>
		<layer id="86" name="L0049_Conv2d-back_bone_seq.conv5_4_sep-BIN" precision="FP32" type="BinaryConvolution">
			<data dilations="1,1" group="1" input="240" kernel="1,1" mode="xnor-popcount" output="264" pads_begin="0,0" pads_end="0,0" strides="1,1"/>
			<input>
				<port id="0">
					<dim>1</dim>
					<dim>240</dim>
					<dim>24</dim>
					<dim>42</dim>
				</port>
			</input>
			<output>
				<port id="2">
					<dim>1</dim>
					<dim>264</dim>
					<dim>24</dim>
					<dim>42</dim>
				</port>
			</output>
			<blobs>
				<weights offset="151096" size="7920"/>
			</blobs>
		</layer>
		<layer id="87" name="L0049_Conv2d-back_bone_seq.conv5_4_sep-BINMul/After/Fused_Mul_/FusedScaleShift_" precision="FP32" type="ScaleShift">
			<input>
				<port id="0">
					<dim>1</dim>
					<dim>264</dim>
					<dim>24</dim>
					<dim>42</dim>
				</port>
			</input>
			<output>
				<port id="3">
					<dim>1</dim>
					<dim>264</dim>
					<dim>24</dim>
					<dim>42</dim>
				</port>
			</output>
			<blobs>
				<weights offset="159016" size="1056"/>
				<biases offset="160072" size="1056"/>
			</blobs>
		</layer>
		<layer id="88" name="L0050_ReLU-back_bone_seq.conv1_relu" precision="FP32" type="ReLU">
			<data negative_slope="0.0"/>
			<input>
				<port id="0">
					<dim>1</dim>
					<dim>264</dim>
					<dim>24</dim>
					<dim>42</dim>
				</port>
			</input>
			<output>
				<port id="1">
					<dim>1</dim>
					<dim>264</dim>
					<dim>24</dim>
					<dim>42</dim>
				</port>
			</output>
		</layer>
		<layer id="89" name="L0051_Conv2d-back_bone_seq.conv5_5_dw_BN" precision="FP32" type="Convolution">
			<data dilations="1,1" group="264" kernel="3,3" output="264" pads_begin="1,1" pads_end="1,1" strides="1,1"/>
			<input>
				<port id="0">
					<dim>1</dim>
					<dim>264</dim>
					<dim>24</dim>
					<dim>42</dim>
				</port>
			</input>
			<output>
				<port id="3">
					<dim>1</dim>
					<dim>264</dim>
					<dim>24</dim>
					<dim>42</dim>
				</port>
			</output>
			<blobs>
				<weights offset="161128" size="9504"/>
				<biases offset="170632" size="1056"/>
			</blobs>
		</layer>
		<layer id="90" name="Copy_L0053_ActivationBin-back_bone_seq.conv5_5_sep_relubin_bin_conv_BIN01/Input_1/Output_0/Data__const" precision="FP32" type="Const">
			<output>
				<port id="1">
					<dim>1</dim>
				</port>
			</output>
			<blobs>
				<custom offset="14520" size="4"/>
			</blobs>
		</layer>
		<layer id="91" name="Copy_L0053_ActivationBin-back_bone_seq.conv5_5_sep_relubin_bin_conv_BIN01/Input_1/Output_0/Data_1048_const" precision="FP32" type="Const">
			<output>
				<port id="1">
					<dim>1</dim>
				</port>
			</output>
			<blobs>
				<custom offset="14520" size="4"/>
			</blobs>
		</layer>
		<layer id="92" name="654_const" precision="FP32" type="Const">
			<output>
				<port id="1">
					<dim>1</dim>
				</port>
			</output>
			<blobs>
				<custom offset="14520" size="4"/>
			</blobs>
		</layer>
		<layer id="93" name="656_const" precision="FP32" type="Const">
			<output>
				<port id="1">
					<dim>1</dim>
				</port>
			</output>
			<blobs>
				<custom offset="14524" size="4"/>
			</blobs>
		</layer>
		<layer id="94" name="L0053_ActivationBin-back_bone_seq.conv5_5_sep_relubin_bin_conv_BIN01/Quantize_" precision="FP32" type="Quantize">
			<data levels="2"/>
			<input>
				<port id="0">
					<dim>1</dim>
					<dim>264</dim>
					<dim>24</dim>
					<dim>42</dim>
				</port>
				<port id="1">
					<dim>1</dim>
				</port>
				<port id="2">
					<dim>1</dim>
				</port>
				<port id="3">
					<dim>1</dim>
				</port>
				<port id="4">
					<dim>1</dim>
				</port>
			</input>
			<output>
				<port id="5">
					<dim>1</dim>
					<dim>264</dim>
					<dim>24</dim>
					<dim>42</dim>
				</port>
			</output>
		</layer>
		<layer id="95" name="L0054_Conv2d-back_bone_seq.conv5_5_sep-BIN" precision="FP32" type="BinaryConvolution">
			<data dilations="1,1" group="1" input="264" kernel="1,1" mode="xnor-popcount" output="192" pads_begin="0,0" pads_end="0,0" strides="1,1"/>
			<input>
				<port id="0">
					<dim>1</dim>
					<dim>264</dim>
					<dim>24</dim>
					<dim>42</dim>
				</port>
			</input>
			<output>
				<port id="2">
					<dim>1</dim>
					<dim>192</dim>
					<dim>24</dim>
					<dim>42</dim>
				</port>
			</output>
			<blobs>
				<weights offset="171688" size="6336"/>
			</blobs>
		</layer>
		<layer id="96" name="L0054_Conv2d-back_bone_seq.conv5_5_sep-BINMul/After/Fused_Mul_/FusedScaleShift_" precision="FP32" type="ScaleShift">
			<input>
				<port id="0">
					<dim>1</dim>
					<dim>192</dim>
					<dim>24</dim>
					<dim>42</dim>
				</port>
			</input>
			<output>
				<port id="3">
					<dim>1</dim>
					<dim>192</dim>
					<dim>24</dim>
					<dim>42</dim>
				</port>
			</output>
			<blobs>
				<weights offset="178024" size="768"/>
				<biases offset="178792" size="768"/>
			</blobs>
		</layer>
		<layer id="97" name="L0055_ReLU-back_bone_seq.conv1_relu" precision="FP32" type="ReLU">
			<data negative_slope="0.0"/>
			<input>
				<port id="0">
					<dim>1</dim>
					<dim>192</dim>
					<dim>24</dim>
					<dim>42</dim>
				</port>
			</input>
			<output>
				<port id="1">
					<dim>1</dim>
					<dim>192</dim>
					<dim>24</dim>
					<dim>42</dim>
				</port>
			</output>
		</layer>
		<layer id="98" name="L0056_Conv2d-loc_seq.conv4_3_0_norm_mbox_loc" precision="FP32" type="Convolution">
			<data dilations="1,1" group="1" kernel="3,3" output="16" pads_begin="1,1" pads_end="1,1" strides="1,1"/>
			<input>
				<port id="0">
					<dim>1</dim>
					<dim>192</dim>
					<dim>24</dim>
					<dim>42</dim>
				</port>
			</input>
			<output>
				<port id="3">
					<dim>1</dim>
					<dim>16</dim>
					<dim>24</dim>
					<dim>42</dim>
				</port>
			</output>
			<blobs>
				<weights offset="179560" size="110592"/>
				<biases offset="290152" size="64"/>
			</blobs>
		</layer>
		<layer id="99" name="conv4_3_0_norm_mbox_loc_perm" precision="FP32" type="Permute">
			<data order="0,2,3,1"/>
			<input>
				<port id="0">
					<dim>1</dim>
					<dim>16</dim>
					<dim>24</dim>
					<dim>42</dim>
				</port>
			</input>
			<output>
				<port id="1">
					<dim>1</dim>
					<dim>24</dim>
					<dim>42</dim>
					<dim>16</dim>
				</port>
			</output>
		</layer>
		<layer id="100" name="conv4_3_0_norm_mbox_loc_flat" precision="FP32" type="Flatten">
			<data axis="1" end_axis="-1"/>
			<input>
				<port id="0">
					<dim>1</dim>
					<dim>24</dim>
					<dim>42</dim>
					<dim>16</dim>
				</port>
			</input>
			<output>
				<port id="1">
					<dim>1</dim>
					<dim>16128</dim>
				</port>
			</output>
		</layer>
		<layer id="101" name="L0057_Conv2d-loc_seq.conv4_3_norm_mbox_loc" precision="FP32" type="Convolution">
			<data dilations="1,1" group="1" kernel="3,3" output="16" pads_begin="1,1" pads_end="1,1" strides="1,1"/>
			<input>
				<port id="0">
					<dim>1</dim>
					<dim>192</dim>
					<dim>24</dim>
					<dim>42</dim>
				</port>
			</input>
			<output>
				<port id="3">
					<dim>1</dim>
					<dim>16</dim>
					<dim>24</dim>
					<dim>42</dim>
				</port>
			</output>
			<blobs>
				<weights offset="290216" size="110592"/>
				<biases offset="400808" size="64"/>
			</blobs>
		</layer>
		<layer id="102" name="conv4_3_norm_mbox_loc_perm" precision="FP32" type="Permute">
			<data order="0,2,3,1"/>
			<input>
				<port id="0">
					<dim>1</dim>
					<dim>16</dim>
					<dim>24</dim>
					<dim>42</dim>
				</port>
			</input>
			<output>
				<port id="1">
					<dim>1</dim>
					<dim>24</dim>
					<dim>42</dim>
					<dim>16</dim>
				</port>
			</output>
		</layer>
		<layer id="103" name="conv4_3_norm_mbox_loc_flat" precision="FP32" type="Flatten">
			<data axis="1" end_axis="-1"/>
			<input>
				<port id="0">
					<dim>1</dim>
					<dim>24</dim>
					<dim>42</dim>
					<dim>16</dim>
				</port>
			</input>
			<output>
				<port id="1">
					<dim>1</dim>
					<dim>16128</dim>
				</port>
			</output>
		</layer>
		<layer id="104" name="L0058_Conv2d-back_bone_seq.conv5_6_dw_BN" precision="FP32" type="Convolution">
			<data dilations="1,1" group="192" kernel="3,3" output="192" pads_begin="1,1" pads_end="1,1" strides="2,2"/>
			<input>
				<port id="0">
					<dim>1</dim>
					<dim>192</dim>
					<dim>24</dim>
					<dim>42</dim>
				</port>
			</input>
			<output>
				<port id="3">
					<dim>1</dim>
					<dim>192</dim>
					<dim>12</dim>
					<dim>21</dim>
				</port>
			</output>
			<blobs>
				<weights offset="400872" size="6912"/>
				<biases offset="407784" size="768"/>
			</blobs>
		</layer>
		<layer id="105" name="Copy_L0060_ActivationBin-back_bone_seq.conv5_6_sep_relubin_bin_conv_BIN01/Input_1/Output_0/Data__const" precision="FP32" type="Const">
			<output>
				<port id="1">
					<dim>1</dim>
				</port>
			</output>
			<blobs>
				<custom offset="14520" size="4"/>
			</blobs>
		</layer>
		<layer id="106" name="Copy_L0060_ActivationBin-back_bone_seq.conv5_6_sep_relubin_bin_conv_BIN01/Input_1/Output_0/Data_1050_const" precision="FP32" type="Const">
			<output>
				<port id="1">
					<dim>1</dim>
				</port>
			</output>
			<blobs>
				<custom offset="14520" size="4"/>
			</blobs>
		</layer>
		<layer id="107" name="638_const" precision="FP32" type="Const">
			<output>
				<port id="1">
					<dim>1</dim>
				</port>
			</output>
			<blobs>
				<custom offset="14520" size="4"/>
			</blobs>
		</layer>
		<layer id="108" name="640_const" precision="FP32" type="Const">
			<output>
				<port id="1">
					<dim>1</dim>
				</port>
			</output>
			<blobs>
				<custom offset="14524" size="4"/>
			</blobs>
		</layer>
		<layer id="109" name="L0060_ActivationBin-back_bone_seq.conv5_6_sep_relubin_bin_conv_BIN01/Quantize_" precision="FP32" type="Quantize">
			<data levels="2"/>
			<input>
				<port id="0">
					<dim>1</dim>
					<dim>192</dim>
					<dim>12</dim>
					<dim>21</dim>
				</port>
				<port id="1">
					<dim>1</dim>
				</port>
				<port id="2">
					<dim>1</dim>
				</port>
				<port id="3">
					<dim>1</dim>
				</port>
				<port id="4">
					<dim>1</dim>
				</port>
			</input>
			<output>
				<port id="5">
					<dim>1</dim>
					<dim>192</dim>
					<dim>12</dim>
					<dim>21</dim>
				</port>
			</output>
		</layer>
		<layer id="110" name="L0061_Conv2d-back_bone_seq.conv5_6_sep-BIN" precision="FP32" type="BinaryConvolution">
			<data dilations="1,1" group="1" input="192" kernel="1,1" mode="xnor-popcount" output="208" pads_begin="0,0" pads_end="0,0" strides="1,1"/>
			<input>
				<port id="0">
					<dim>1</dim>
					<dim>192</dim>
					<dim>12</dim>
					<dim>21</dim>
				</port>
			</input>
			<output>
				<port id="2">
					<dim>1</dim>
					<dim>208</dim>
					<dim>12</dim>
					<dim>21</dim>
				</port>
			</output>
			<blobs>
				<weights offset="408552" size="4992"/>
			</blobs>
		</layer>
		<layer id="111" name="L0061_Conv2d-back_bone_seq.conv5_6_sep-BINMul/After/Fused_Mul_/FusedScaleShift_" precision="FP32" type="ScaleShift">
			<input>
				<port id="0">
					<dim>1</dim>
					<dim>208</dim>
					<dim>12</dim>
					<dim>21</dim>
				</port>
			</input>
			<output>
				<port id="3">
					<dim>1</dim>
					<dim>208</dim>
					<dim>12</dim>
					<dim>21</dim>
				</port>
			</output>
			<blobs>
				<weights offset="413544" size="832"/>
				<biases offset="414376" size="832"/>
			</blobs>
		</layer>
		<layer id="112" name="L0062_ReLU-back_bone_seq.conv1_relu" precision="FP32" type="ReLU">
			<data negative_slope="0.0"/>
			<input>
				<port id="0">
					<dim>1</dim>
					<dim>208</dim>
					<dim>12</dim>
					<dim>21</dim>
				</port>
			</input>
			<output>
				<port id="1">
					<dim>1</dim>
					<dim>208</dim>
					<dim>12</dim>
					<dim>21</dim>
				</port>
			</output>
		</layer>
		<layer id="113" name="L0063_Conv2d-back_bone_seq.conv6_dw_BN" precision="FP32" type="Convolution">
			<data dilations="1,1" group="208" kernel="3,3" output="208" pads_begin="1,1" pads_end="1,1" strides="1,1"/>
			<input>
				<port id="0">
					<dim>1</dim>
					<dim>208</dim>
					<dim>12</dim>
					<dim>21</dim>
				</port>
			</input>
			<output>
				<port id="3">
					<dim>1</dim>
					<dim>208</dim>
					<dim>12</dim>
					<dim>21</dim>
				</port>
			</output>
			<blobs>
				<weights offset="415208" size="7488"/>
				<biases offset="422696" size="832"/>
			</blobs>
		</layer>
		<layer id="114" name="L0064_ReLU-back_bone_seq.conv1_relu" precision="FP32" type="ReLU">
			<data negative_slope="0.0"/>
			<input>
				<port id="0">
					<dim>1</dim>
					<dim>208</dim>
					<dim>12</dim>
					<dim>21</dim>
				</port>
			</input>
			<output>
				<port id="1">
					<dim>1</dim>
					<dim>208</dim>
					<dim>12</dim>
					<dim>21</dim>
				</port>
			</output>
		</layer>
		<layer id="115" name="L0065_Conv2d-back_bone_seq.conv6_sep_BN" precision="FP32" type="Convolution">
			<data dilations="1,1" group="1" kernel="1,1" output="88" pads_begin="0,0" pads_end="0,0" strides="1,1"/>
			<input>
				<port id="0">
					<dim>1</dim>
					<dim>208</dim>
					<dim>12</dim>
					<dim>21</dim>
				</port>
			</input>
			<output>
				<port id="3">
					<dim>1</dim>
					<dim>88</dim>
					<dim>12</dim>
					<dim>21</dim>
				</port>
			</output>
			<blobs>
				<weights offset="423528" size="73216"/>
				<biases offset="496744" size="352"/>
			</blobs>
		</layer>
		<layer id="116" name="L0066_ReLU-back_bone_seq.conv1_relu" precision="FP32" type="ReLU">
			<data negative_slope="0.0"/>
			<input>
				<port id="0">
					<dim>1</dim>
					<dim>88</dim>
					<dim>12</dim>
					<dim>21</dim>
				</port>
			</input>
			<output>
				<port id="1">
					<dim>1</dim>
					<dim>88</dim>
					<dim>12</dim>
					<dim>21</dim>
				</port>
			</output>
		</layer>
		<layer id="117" name="L0067_Conv2d-loc_seq.fc7_0_mbox_loc" precision="FP32" type="Convolution">
			<data dilations="1,1" group="1" kernel="3,3" output="24" pads_begin="1,1" pads_end="1,1" strides="1,1"/>
			<input>
				<port id="0">
					<dim>1</dim>
					<dim>88</dim>
					<dim>12</dim>
					<dim>21</dim>
				</port>
			</input>
			<output>
				<port id="3">
					<dim>1</dim>
					<dim>24</dim>
					<dim>12</dim>
					<dim>21</dim>
				</port>
			</output>
			<blobs>
				<weights offset="497096" size="76032"/>
				<biases offset="573128" size="96"/>
			</blobs>
		</layer>
		<layer id="118" name="fc7_0_mbox_loc_perm" precision="FP32" type="Permute">
			<data order="0,2,3,1"/>
			<input>
				<port id="0">
					<dim>1</dim>
					<dim>24</dim>
					<dim>12</dim>
					<dim>21</dim>
				</port>
			</input>
			<output>
				<port id="1">
					<dim>1</dim>
					<dim>12</dim>
					<dim>21</dim>
					<dim>24</dim>
				</port>
			</output>
		</layer>
		<layer id="119" name="fc7_0_mbox_loc_flat" precision="FP32" type="Flatten">
			<data axis="1" end_axis="-1"/>
			<input>
				<port id="0">
					<dim>1</dim>
					<dim>12</dim>
					<dim>21</dim>
					<dim>24</dim>
				</port>
			</input>
			<output>
				<port id="1">
					<dim>1</dim>
					<dim>6048</dim>
				</port>
			</output>
		</layer>
		<layer id="120" name="L0068_Conv2d-loc_seq.fc7_mbox_loc" precision="FP32" type="Convolution">
			<data dilations="1,1" group="1" kernel="3,3" output="24" pads_begin="1,1" pads_end="1,1" strides="1,1"/>
			<input>
				<port id="0">
					<dim>1</dim>
					<dim>88</dim>
					<dim>12</dim>
					<dim>21</dim>
				</port>
			</input>
			<output>
				<port id="3">
					<dim>1</dim>
					<dim>24</dim>
					<dim>12</dim>
					<dim>21</dim>
				</port>
			</output>
			<blobs>
				<weights offset="573224" size="76032"/>
				<biases offset="649256" size="96"/>
			</blobs>
		</layer>
		<layer id="121" name="fc7_mbox_loc_perm" precision="FP32" type="Permute">
			<data order="0,2,3,1"/>
			<input>
				<port id="0">
					<dim>1</dim>
					<dim>24</dim>
					<dim>12</dim>
					<dim>21</dim>
				</port>
			</input>
			<output>
				<port id="1">
					<dim>1</dim>
					<dim>12</dim>
					<dim>21</dim>
					<dim>24</dim>
				</port>
			</output>
		</layer>
		<layer id="122" name="fc7_mbox_loc_flat" precision="FP32" type="Flatten">
			<data axis="1" end_axis="-1"/>
			<input>
				<port id="0">
					<dim>1</dim>
					<dim>12</dim>
					<dim>21</dim>
					<dim>24</dim>
				</port>
			</input>
			<output>
				<port id="1">
					<dim>1</dim>
					<dim>6048</dim>
				</port>
			</output>
		</layer>
		<layer id="123" name="L0069_Conv2d-back_bone_seq.conv6_1_BN" precision="FP32" type="Convolution">
			<data dilations="1,1" group="1" kernel="1,1" output="96" pads_begin="0,0" pads_end="0,0" strides="1,1"/>
			<input>
				<port id="0">
					<dim>1</dim>
					<dim>88</dim>
					<dim>12</dim>
					<dim>21</dim>
				</port>
			</input>
			<output>
				<port id="3">
					<dim>1</dim>
					<dim>96</dim>
					<dim>12</dim>
					<dim>21</dim>
				</port>
			</output>
			<blobs>
				<weights offset="649352" size="33792"/>
				<biases offset="683144" size="384"/>
			</blobs>
		</layer>
		<layer id="124" name="L0070_ReLU-back_bone_seq.conv1_relu" precision="FP32" type="ReLU">
			<data negative_slope="0.0"/>
			<input>
				<port id="0">
					<dim>1</dim>
					<dim>96</dim>
					<dim>12</dim>
					<dim>21</dim>
				</port>
			</input>
			<output>
				<port id="1">
					<dim>1</dim>
					<dim>96</dim>
					<dim>12</dim>
					<dim>21</dim>
				</port>
			</output>
		</layer>
		<layer id="125" name="L0071_Conv2d-back_bone_seq.conv6_2_dw_BN" precision="FP32" type="Convolution">
			<data dilations="1,1" group="96" kernel="3,3" output="96" pads_begin="1,1" pads_end="1,1" strides="2,2"/>
			<input>
				<port id="0">
					<dim>1</dim>
					<dim>96</dim>
					<dim>12</dim>
					<dim>21</dim>
				</port>
			</input>
			<output>
				<port id="3">
					<dim>1</dim>
					<dim>96</dim>
					<dim>6</dim>
					<dim>11</dim>
				</port>
			</output>
			<blobs>
				<weights offset="683528" size="3456"/>
				<biases offset="686984" size="384"/>
			</blobs>
		</layer>
		<layer id="126" name="L0072_ReLU-back_bone_seq.conv1_relu" precision="FP32" type="ReLU">
			<data negative_slope="0.0"/>
			<input>
				<port id="0">
					<dim>1</dim>
					<dim>96</dim>
					<dim>6</dim>
					<dim>11</dim>
				</port>
			</input>
			<output>
				<port id="1">
					<dim>1</dim>
					<dim>96</dim>
					<dim>6</dim>
					<dim>11</dim>
				</port>
			</output>
		</layer>
		<layer id="127" name="L0073_Conv2d-back_bone_seq.conv6_2_BN" precision="FP32" type="Convolution">
			<data dilations="1,1" group="1" kernel="1,1" output="152" pads_begin="0,0" pads_end="0,0" strides="1,1"/>
			<input>
				<port id="0">
					<dim>1</dim>
					<dim>96</dim>
					<dim>6</dim>
					<dim>11</dim>
				</port>
			</input>
			<output>
				<port id="3">
					<dim>1</dim>
					<dim>152</dim>
					<dim>6</dim>
					<dim>11</dim>
				</port>
			</output>
			<blobs>
				<weights offset="687368" size="58368"/>
				<biases offset="745736" size="608"/>
			</blobs>
		</layer>
		<layer id="128" name="L0074_ReLU-back_bone_seq.conv1_relu" precision="FP32" type="ReLU">
			<data negative_slope="0.0"/>
			<input>
				<port id="0">
					<dim>1</dim>
					<dim>152</dim>
					<dim>6</dim>
					<dim>11</dim>
				</port>
			</input>
			<output>
				<port id="1">
					<dim>1</dim>
					<dim>152</dim>
					<dim>6</dim>
					<dim>11</dim>
				</port>
			</output>
		</layer>
		<layer id="129" name="L0075_Conv2d-loc_seq.conv6_2_mbox_loc" precision="FP32" type="Convolution">
			<data dilations="1,1" group="1" kernel="3,3" output="24" pads_begin="1,1" pads_end="1,1" strides="1,1"/>
			<input>
				<port id="0">
					<dim>1</dim>
					<dim>152</dim>
					<dim>6</dim>
					<dim>11</dim>
				</port>
			</input>
			<output>
				<port id="3">
					<dim>1</dim>
					<dim>24</dim>
					<dim>6</dim>
					<dim>11</dim>
				</port>
			</output>
			<blobs>
				<weights offset="746344" size="131328"/>
				<biases offset="877672" size="96"/>
			</blobs>
		</layer>
		<layer id="130" name="conv6_2_mbox_loc_perm" precision="FP32" type="Permute">
			<data order="0,2,3,1"/>
			<input>
				<port id="0">
					<dim>1</dim>
					<dim>24</dim>
					<dim>6</dim>
					<dim>11</dim>
				</port>
			</input>
			<output>
				<port id="1">
					<dim>1</dim>
					<dim>6</dim>
					<dim>11</dim>
					<dim>24</dim>
				</port>
			</output>
		</layer>
		<layer id="131" name="conv6_2_mbox_loc_flat" precision="FP32" type="Flatten">
			<data axis="1" end_axis="-1"/>
			<input>
				<port id="0">
					<dim>1</dim>
					<dim>6</dim>
					<dim>11</dim>
					<dim>24</dim>
				</port>
			</input>
			<output>
				<port id="1">
					<dim>1</dim>
					<dim>1584</dim>
				</port>
			</output>
		</layer>
		<layer id="132" name="L0076_Conv2d-back_bone_seq.conv7_1_BN" precision="FP32" type="Convolution">
			<data dilations="1,1" group="1" kernel="1,1" output="112" pads_begin="0,0" pads_end="0,0" strides="1,1"/>
			<input>
				<port id="0">
					<dim>1</dim>
					<dim>152</dim>
					<dim>6</dim>
					<dim>11</dim>
				</port>
			</input>
			<output>
				<port id="3">
					<dim>1</dim>
					<dim>112</dim>
					<dim>6</dim>
					<dim>11</dim>
				</port>
			</output>
			<blobs>
				<weights offset="877768" size="68096"/>
				<biases offset="945864" size="448"/>
			</blobs>
		</layer>
		<layer id="133" name="L0077_ReLU-back_bone_seq.conv1_relu" precision="FP32" type="ReLU">
			<data negative_slope="0.0"/>
			<input>
				<port id="0">
					<dim>1</dim>
					<dim>112</dim>
					<dim>6</dim>
					<dim>11</dim>
				</port>
			</input>
			<output>
				<port id="1">
					<dim>1</dim>
					<dim>112</dim>
					<dim>6</dim>
					<dim>11</dim>
				</port>
			</output>
		</layer>
		<layer id="134" name="L0078_Conv2d-back_bone_seq.conv7_2_dw_BN" precision="FP32" type="Convolution">
			<data dilations="1,1" group="112" kernel="3,3" output="112" pads_begin="1,1" pads_end="1,1" strides="2,2"/>
			<input>
				<port id="0">
					<dim>1</dim>
					<dim>112</dim>
					<dim>6</dim>
					<dim>11</dim>
				</port>
			</input>
			<output>
				<port id="3">
					<dim>1</dim>
					<dim>112</dim>
					<dim>3</dim>
					<dim>6</dim>
				</port>
			</output>
			<blobs>
				<weights offset="946312" size="4032"/>
				<biases offset="950344" size="448"/>
			</blobs>
		</layer>
		<layer id="135" name="L0079_ReLU-back_bone_seq.conv1_relu" precision="FP32" type="ReLU">
			<data negative_slope="0.0"/>
			<input>
				<port id="0">
					<dim>1</dim>
					<dim>112</dim>
					<dim>3</dim>
					<dim>6</dim>
				</port>
			</input>
			<output>
				<port id="1">
					<dim>1</dim>
					<dim>112</dim>
					<dim>3</dim>
					<dim>6</dim>
				</port>
			</output>
		</layer>
		<layer id="136" name="L0080_Conv2d-back_bone_seq.conv7_2_BN" precision="FP32" type="Convolution">
			<data dilations="1,1" group="1" kernel="1,1" output="200" pads_begin="0,0" pads_end="0,0" strides="1,1"/>
			<input>
				<port id="0">
					<dim>1</dim>
					<dim>112</dim>
					<dim>3</dim>
					<dim>6</dim>
				</port>
			</input>
			<output>
				<port id="3">
					<dim>1</dim>
					<dim>200</dim>
					<dim>3</dim>
					<dim>6</dim>
				</port>
			</output>
			<blobs>
				<weights offset="950792" size="89600"/>
				<biases offset="1040392" size="800"/>
			</blobs>
		</layer>
		<layer id="137" name="L0081_ReLU-back_bone_seq.conv1_relu" precision="FP32" type="ReLU">
			<data negative_slope="0.0"/>
			<input>
				<port id="0">
					<dim>1</dim>
					<dim>200</dim>
					<dim>3</dim>
					<dim>6</dim>
				</port>
			</input>
			<output>
				<port id="1">
					<dim>1</dim>
					<dim>200</dim>
					<dim>3</dim>
					<dim>6</dim>
				</port>
			</output>
		</layer>
		<layer id="138" name="L0082_Conv2d-loc_seq.conv7_2_mbox_loc" precision="FP32" type="Convolution">
			<data dilations="1,1" group="1" kernel="3,3" output="24" pads_begin="1,1" pads_end="1,1" strides="1,1"/>
			<input>
				<port id="0">
					<dim>1</dim>
					<dim>200</dim>
					<dim>3</dim>
					<dim>6</dim>
				</port>
			</input>
			<output>
				<port id="3">
					<dim>1</dim>
					<dim>24</dim>
					<dim>3</dim>
					<dim>6</dim>
				</port>
			</output>
			<blobs>
				<weights offset="1041192" size="172800"/>
				<biases offset="1213992" size="96"/>
			</blobs>
		</layer>
		<layer id="139" name="conv7_2_mbox_loc_perm" precision="FP32" type="Permute">
			<data order="0,2,3,1"/>
			<input>
				<port id="0">
					<dim>1</dim>
					<dim>24</dim>
					<dim>3</dim>
					<dim>6</dim>
				</port>
			</input>
			<output>
				<port id="1">
					<dim>1</dim>
					<dim>3</dim>
					<dim>6</dim>
					<dim>24</dim>
				</port>
			</output>
		</layer>
		<layer id="140" name="conv7_2_mbox_loc_flat" precision="FP32" type="Flatten">
			<data axis="1" end_axis="-1"/>
			<input>
				<port id="0">
					<dim>1</dim>
					<dim>3</dim>
					<dim>6</dim>
					<dim>24</dim>
				</port>
			</input>
			<output>
				<port id="1">
					<dim>1</dim>
					<dim>432</dim>
				</port>
			</output>
		</layer>
		<layer id="141" name="L0083_Conv2d-back_bone_seq.conv8_1_BN" precision="FP32" type="Convolution">
			<data dilations="1,1" group="1" kernel="1,1" output="120" pads_begin="0,0" pads_end="0,0" strides="1,1"/>
			<input>
				<port id="0">
					<dim>1</dim>
					<dim>200</dim>
					<dim>3</dim>
					<dim>6</dim>
				</port>
			</input>
			<output>
				<port id="3">
					<dim>1</dim>
					<dim>120</dim>
					<dim>3</dim>
					<dim>6</dim>
				</port>
			</output>
			<blobs>
				<weights offset="1214088" size="96000"/>
				<biases offset="1310088" size="480"/>
			</blobs>
		</layer>
		<layer id="142" name="L0084_ReLU-back_bone_seq.conv1_relu" precision="FP32" type="ReLU">
			<data negative_slope="0.0"/>
			<input>
				<port id="0">
					<dim>1</dim>
					<dim>120</dim>
					<dim>3</dim>
					<dim>6</dim>
				</port>
			</input>
			<output>
				<port id="1">
					<dim>1</dim>
					<dim>120</dim>
					<dim>3</dim>
					<dim>6</dim>
				</port>
			</output>
		</layer>
		<layer id="143" name="L0085_Conv2d-back_bone_seq.conv8_2_dw_BN" precision="FP32" type="Convolution">
			<data dilations="1,1" group="120" kernel="3,3" output="120" pads_begin="1,1" pads_end="1,1" strides="2,2"/>
			<input>
				<port id="0">
					<dim>1</dim>
					<dim>120</dim>
					<dim>3</dim>
					<dim>6</dim>
				</port>
			</input>
			<output>
				<port id="3">
					<dim>1</dim>
					<dim>120</dim>
					<dim>2</dim>
					<dim>3</dim>
				</port>
			</output>
			<blobs>
				<weights offset="1310568" size="4320"/>
				<biases offset="1314888" size="480"/>
			</blobs>
		</layer>
		<layer id="144" name="L0086_ReLU-back_bone_seq.conv1_relu" precision="FP32" type="ReLU">
			<data negative_slope="0.0"/>
			<input>
				<port id="0">
					<dim>1</dim>
					<dim>120</dim>
					<dim>2</dim>
					<dim>3</dim>
				</port>
			</input>
			<output>
				<port id="1">
					<dim>1</dim>
					<dim>120</dim>
					<dim>2</dim>
					<dim>3</dim>
				</port>
			</output>
		</layer>
		<layer id="145" name="L0087_Conv2d-back_bone_seq.conv8_2_BN" precision="FP32" type="Convolution">
			<data dilations="1,1" group="1" kernel="1,1" output="224" pads_begin="0,0" pads_end="0,0" strides="1,1"/>
			<input>
				<port id="0">
					<dim>1</dim>
					<dim>120</dim>
					<dim>2</dim>
					<dim>3</dim>
				</port>
			</input>
			<output>
				<port id="3">
					<dim>1</dim>
					<dim>224</dim>
					<dim>2</dim>
					<dim>3</dim>
				</port>
			</output>
			<blobs>
				<weights offset="1315368" size="107520"/>
				<biases offset="1422888" size="896"/>
			</blobs>
		</layer>
		<layer id="146" name="L0088_ReLU-back_bone_seq.conv1_relu" precision="FP32" type="ReLU">
			<data negative_slope="0.0"/>
			<input>
				<port id="0">
					<dim>1</dim>
					<dim>224</dim>
					<dim>2</dim>
					<dim>3</dim>
				</port>
			</input>
			<output>
				<port id="1">
					<dim>1</dim>
					<dim>224</dim>
					<dim>2</dim>
					<dim>3</dim>
				</port>
			</output>
		</layer>
		<layer id="147" name="L0089_Conv2d-loc_seq.conv8_2_mbox_loc" precision="FP32" type="Convolution">
			<data dilations="1,1" group="1" kernel="3,3" output="16" pads_begin="1,1" pads_end="1,1" strides="1,1"/>
			<input>
				<port id="0">
					<dim>1</dim>
					<dim>224</dim>
					<dim>2</dim>
					<dim>3</dim>
				</port>
			</input>
			<output>
				<port id="3">
					<dim>1</dim>
					<dim>16</dim>
					<dim>2</dim>
					<dim>3</dim>
				</port>
			</output>
			<blobs>
				<weights offset="1423784" size="129024"/>
				<biases offset="1552808" size="64"/>
			</blobs>
		</layer>
		<layer id="148" name="conv8_2_mbox_loc_perm" precision="FP32" type="Permute">
			<data order="0,2,3,1"/>
			<input>
				<port id="0">
					<dim>1</dim>
					<dim>16</dim>
					<dim>2</dim>
					<dim>3</dim>
				</port>
			</input>
			<output>
				<port id="1">
					<dim>1</dim>
					<dim>2</dim>
					<dim>3</dim>
					<dim>16</dim>
				</port>
			</output>
		</layer>
		<layer id="149" name="conv8_2_mbox_loc_flat" precision="FP32" type="Flatten">
			<data axis="1" end_axis="-1"/>
			<input>
				<port id="0">
					<dim>1</dim>
					<dim>2</dim>
					<dim>3</dim>
					<dim>16</dim>
				</port>
			</input>
			<output>
				<port id="1">
					<dim>1</dim>
					<dim>96</dim>
				</port>
			</output>
		</layer>
		<layer id="150" name="L0090_Conv2d-back_bone_seq.conv9_1_BN" precision="FP32" type="Convolution">
			<data dilations="1,1" group="1" kernel="1,1" output="64" pads_begin="0,0" pads_end="0,0" strides="1,1"/>
			<input>
				<port id="0">
					<dim>1</dim>
					<dim>224</dim>
					<dim>2</dim>
					<dim>3</dim>
				</port>
			</input>
			<output>
				<port id="3">
					<dim>1</dim>
					<dim>64</dim>
					<dim>2</dim>
					<dim>3</dim>
				</port>
			</output>
			<blobs>
				<weights offset="1552872" size="57344"/>
				<biases offset="1610216" size="256"/>
			</blobs>
		</layer>
		<layer id="151" name="L0091_ReLU-back_bone_seq.conv1_relu" precision="FP32" type="ReLU">
			<data negative_slope="0.0"/>
			<input>
				<port id="0">
					<dim>1</dim>
					<dim>64</dim>
					<dim>2</dim>
					<dim>3</dim>
				</port>
			</input>
			<output>
				<port id="1">
					<dim>1</dim>
					<dim>64</dim>
					<dim>2</dim>
					<dim>3</dim>
				</port>
			</output>
		</layer>
		<layer id="152" name="L0092_Conv2d-back_bone_seq.conv9_2_dw_BN" precision="FP32" type="Convolution">
			<data dilations="1,1" group="64" kernel="3,3" output="64" pads_begin="1,1" pads_end="1,1" strides="2,2"/>
			<input>
				<port id="0">
					<dim>1</dim>
					<dim>64</dim>
					<dim>2</dim>
					<dim>3</dim>
				</port>
			</input>
			<output>
				<port id="3">
					<dim>1</dim>
					<dim>64</dim>
					<dim>1</dim>
					<dim>2</dim>
				</port>
			</output>
			<blobs>
				<weights offset="1610472" size="2304"/>
				<biases offset="1612776" size="256"/>
			</blobs>
		</layer>
		<layer id="153" name="L0093_ReLU-back_bone_seq.conv1_relu" precision="FP32" type="ReLU">
			<data negative_slope="0.0"/>
			<input>
				<port id="0">
					<dim>1</dim>
					<dim>64</dim>
					<dim>1</dim>
					<dim>2</dim>
				</port>
			</input>
			<output>
				<port id="1">
					<dim>1</dim>
					<dim>64</dim>
					<dim>1</dim>
					<dim>2</dim>
				</port>
			</output>
		</layer>
		<layer id="154" name="L0094_Conv2d-back_bone_seq.conv9_2_BN" precision="FP32" type="Convolution">
			<data dilations="1,1" group="1" kernel="1,1" output="128" pads_begin="0,0" pads_end="0,0" strides="1,1"/>
			<input>
				<port id="0">
					<dim>1</dim>
					<dim>64</dim>
					<dim>1</dim>
					<dim>2</dim>
				</port>
			</input>
			<output>
				<port id="3">
					<dim>1</dim>
					<dim>128</dim>
					<dim>1</dim>
					<dim>2</dim>
				</port>
			</output>
			<blobs>
				<weights offset="1613032" size="32768"/>
				<biases offset="1645800" size="512"/>
			</blobs>
		</layer>
		<layer id="155" name="L0095_ReLU-back_bone_seq.conv1_relu" precision="FP32" type="ReLU">
			<data negative_slope="0.0"/>
			<input>
				<port id="0">
					<dim>1</dim>
					<dim>128</dim>
					<dim>1</dim>
					<dim>2</dim>
				</port>
			</input>
			<output>
				<port id="1">
					<dim>1</dim>
					<dim>128</dim>
					<dim>1</dim>
					<dim>2</dim>
				</port>
			</output>
		</layer>
		<layer id="156" name="L0096_Conv2d-loc_seq.conv9_2_mbox_loc" precision="FP32" type="Convolution">
			<data dilations="1,1" group="1" kernel="3,3" output="16" pads_begin="1,1" pads_end="1,1" strides="1,1"/>
			<input>
				<port id="0">
					<dim>1</dim>
					<dim>128</dim>
					<dim>1</dim>
					<dim>2</dim>
				</port>
			</input>
			<output>
				<port id="3">
					<dim>1</dim>
					<dim>16</dim>
					<dim>1</dim>
					<dim>2</dim>
				</port>
			</output>
			<blobs>
				<weights offset="1646312" size="73728"/>
				<biases offset="1720040" size="64"/>
			</blobs>
		</layer>
		<layer id="157" name="conv9_2_mbox_loc_perm" precision="FP32" type="Permute">
			<data order="0,2,3,1"/>
			<input>
				<port id="0">
					<dim>1</dim>
					<dim>16</dim>
					<dim>1</dim>
					<dim>2</dim>
				</port>
			</input>
			<output>
				<port id="1">
					<dim>1</dim>
					<dim>1</dim>
					<dim>2</dim>
					<dim>16</dim>
				</port>
			</output>
		</layer>
		<layer id="158" name="conv9_2_mbox_loc_flat" precision="FP32" type="Flatten">
			<data axis="1" end_axis="-1"/>
			<input>
				<port id="0">
					<dim>1</dim>
					<dim>1</dim>
					<dim>2</dim>
					<dim>16</dim>
				</port>
			</input>
			<output>
				<port id="1">
					<dim>1</dim>
					<dim>32</dim>
				</port>
			</output>
		</layer>
		<layer id="159" name="mbox_loc" precision="FP32" type="Concat">
			<data axis="1"/>
			<input>
				<port id="0">
					<dim>1</dim>
					<dim>16128</dim>
				</port>
				<port id="1">
					<dim>1</dim>
					<dim>16128</dim>
				</port>
				<port id="2">
					<dim>1</dim>
					<dim>6048</dim>
				</port>
				<port id="3">
					<dim>1</dim>
					<dim>6048</dim>
				</port>
				<port id="4">
					<dim>1</dim>
					<dim>1584</dim>
				</port>
				<port id="5">
					<dim>1</dim>
					<dim>432</dim>
				</port>
				<port id="6">
					<dim>1</dim>
					<dim>96</dim>
				</port>
				<port id="7">
					<dim>1</dim>
					<dim>32</dim>
				</port>
			</input>
			<output>
				<port id="8">
					<dim>1</dim>
					<dim>46496</dim>
				</port>
			</output>
		</layer>
		<layer id="160" name="L0097_Conv2d-conf_seq.conv4_3_0_norm_mbox_conf.conv4_3_0_norm_mbox_conf" precision="FP32" type="Convolution">
			<data dilations="1,1" group="1" kernel="3,3" output="8" pads_begin="1,1" pads_end="1,1" strides="1,1"/>
			<input>
				<port id="0">
					<dim>1</dim>
					<dim>192</dim>
					<dim>24</dim>
					<dim>42</dim>
				</port>
			</input>
			<output>
				<port id="3">
					<dim>1</dim>
					<dim>8</dim>
					<dim>24</dim>
					<dim>42</dim>
				</port>
			</output>
			<blobs>
				<weights offset="1720104" size="55296"/>
				<biases offset="1775400" size="32"/>
			</blobs>
		</layer>
		<layer id="161" name="conv4_3_0_norm_mbox_conf_perm" precision="FP32" type="Permute">
			<data order="0,2,3,1"/>
			<input>
				<port id="0">
					<dim>1</dim>
					<dim>8</dim>
					<dim>24</dim>
					<dim>42</dim>
				</port>
			</input>
			<output>
				<port id="1">
					<dim>1</dim>
					<dim>24</dim>
					<dim>42</dim>
					<dim>8</dim>
				</port>
			</output>
		</layer>
		<layer id="162" name="conv4_3_0_norm_mbox_conf_flat" precision="FP32" type="Flatten">
			<data axis="1" end_axis="-1"/>
			<input>
				<port id="0">
					<dim>1</dim>
					<dim>24</dim>
					<dim>42</dim>
					<dim>8</dim>
				</port>
			</input>
			<output>
				<port id="1">
					<dim>1</dim>
					<dim>8064</dim>
				</port>
			</output>
		</layer>
		<layer id="163" name="L0098_Conv2d-conf_seq.conv4_3_norm_mbox_conf.conv4_3_norm_mbox_conf" precision="FP32" type="Convolution">
			<data dilations="1,1" group="1" kernel="3,3" output="8" pads_begin="1,1" pads_end="1,1" strides="1,1"/>
			<input>
				<port id="0">
					<dim>1</dim>
					<dim>192</dim>
					<dim>24</dim>
					<dim>42</dim>
				</port>
			</input>
			<output>
				<port id="3">
					<dim>1</dim>
					<dim>8</dim>
					<dim>24</dim>
					<dim>42</dim>
				</port>
			</output>
			<blobs>
				<weights offset="1775432" size="55296"/>
				<biases offset="1830728" size="32"/>
			</blobs>
		</layer>
		<layer id="164" name="conv4_3_norm_mbox_conf_perm" precision="FP32" type="Permute">
			<data order="0,2,3,1"/>
			<input>
				<port id="0">
					<dim>1</dim>
					<dim>8</dim>
					<dim>24</dim>
					<dim>42</dim>
				</port>
			</input>
			<output>
				<port id="1">
					<dim>1</dim>
					<dim>24</dim>
					<dim>42</dim>
					<dim>8</dim>
				</port>
			</output>
		</layer>
		<layer id="165" name="conv4_3_norm_mbox_conf_flat" precision="FP32" type="Flatten">
			<data axis="1" end_axis="-1"/>
			<input>
				<port id="0">
					<dim>1</dim>
					<dim>24</dim>
					<dim>42</dim>
					<dim>8</dim>
				</port>
			</input>
			<output>
				<port id="1">
					<dim>1</dim>
					<dim>8064</dim>
				</port>
			</output>
		</layer>
		<layer id="166" name="L0099_Conv2d-conf_seq.fc7_0_mbox_conf.fc7_0_mbox_conf" precision="FP32" type="Convolution">
			<data dilations="1,1" group="1" kernel="3,3" output="12" pads_begin="1,1" pads_end="1,1" strides="1,1"/>
			<input>
				<port id="0">
					<dim>1</dim>
					<dim>88</dim>
					<dim>12</dim>
					<dim>21</dim>
				</port>
			</input>
			<output>
				<port id="3">
					<dim>1</dim>
					<dim>12</dim>
					<dim>12</dim>
					<dim>21</dim>
				</port>
			</output>
			<blobs>
				<weights offset="1830760" size="38016"/>
				<biases offset="1868776" size="48"/>
			</blobs>
		</layer>
		<layer id="167" name="fc7_0_mbox_conf_perm" precision="FP32" type="Permute">
			<data order="0,2,3,1"/>
			<input>
				<port id="0">
					<dim>1</dim>
					<dim>12</dim>
					<dim>12</dim>
					<dim>21</dim>
				</port>
			</input>
			<output>
				<port id="1">
					<dim>1</dim>
					<dim>12</dim>
					<dim>21</dim>
					<dim>12</dim>
				</port>
			</output>
		</layer>
		<layer id="168" name="fc7_0_mbox_conf_flat" precision="FP32" type="Flatten">
			<data axis="1" end_axis="-1"/>
			<input>
				<port id="0">
					<dim>1</dim>
					<dim>12</dim>
					<dim>21</dim>
					<dim>12</dim>
				</port>
			</input>
			<output>
				<port id="1">
					<dim>1</dim>
					<dim>3024</dim>
				</port>
			</output>
		</layer>
		<layer id="169" name="L0100_Conv2d-conf_seq.fc7_mbox_conf.fc7_mbox_conf" precision="FP32" type="Convolution">
			<data dilations="1,1" group="1" kernel="3,3" output="12" pads_begin="1,1" pads_end="1,1" strides="1,1"/>
			<input>
				<port id="0">
					<dim>1</dim>
					<dim>88</dim>
					<dim>12</dim>
					<dim>21</dim>
				</port>
			</input>
			<output>
				<port id="3">
					<dim>1</dim>
					<dim>12</dim>
					<dim>12</dim>
					<dim>21</dim>
				</port>
			</output>
			<blobs>
				<weights offset="1868824" size="38016"/>
				<biases offset="1906840" size="48"/>
			</blobs>
		</layer>
		<layer id="170" name="fc7_mbox_conf_perm" precision="FP32" type="Permute">
			<data order="0,2,3,1"/>
			<input>
				<port id="0">
					<dim>1</dim>
					<dim>12</dim>
					<dim>12</dim>
					<dim>21</dim>
				</port>
			</input>
			<output>
				<port id="1">
					<dim>1</dim>
					<dim>12</dim>
					<dim>21</dim>
					<dim>12</dim>
				</port>
			</output>
		</layer>
		<layer id="171" name="fc7_mbox_conf_flat" precision="FP32" type="Flatten">
			<data axis="1" end_axis="-1"/>
			<input>
				<port id="0">
					<dim>1</dim>
					<dim>12</dim>
					<dim>21</dim>
					<dim>12</dim>
				</port>
			</input>
			<output>
				<port id="1">
					<dim>1</dim>
					<dim>3024</dim>
				</port>
			</output>
		</layer>
		<layer id="172" name="L0101_Conv2d-conf_seq.conv6_2_mbox_conf.conv6_2_mbox_conf" precision="FP32" type="Convolution">
			<data dilations="1,1" group="1" kernel="3,3" output="12" pads_begin="1,1" pads_end="1,1" strides="1,1"/>
			<input>
				<port id="0">
					<dim>1</dim>
					<dim>152</dim>
					<dim>6</dim>
					<dim>11</dim>
				</port>
			</input>
			<output>
				<port id="3">
					<dim>1</dim>
					<dim>12</dim>
					<dim>6</dim>
					<dim>11</dim>
				</port>
			</output>
			<blobs>
				<weights offset="1906888" size="65664"/>
				<biases offset="1972552" size="48"/>
			</blobs>
		</layer>
		<layer id="173" name="conv6_2_mbox_conf_perm" precision="FP32" type="Permute">
			<data order="0,2,3,1"/>
			<input>
				<port id="0">
					<dim>1</dim>
					<dim>12</dim>
					<dim>6</dim>
					<dim>11</dim>
				</port>
			</input>
			<output>
				<port id="1">
					<dim>1</dim>
					<dim>6</dim>
					<dim>11</dim>
					<dim>12</dim>
				</port>
			</output>
		</layer>
		<layer id="174" name="conv6_2_mbox_conf_flat" precision="FP32" type="Flatten">
			<data axis="1" end_axis="-1"/>
			<input>
				<port id="0">
					<dim>1</dim>
					<dim>6</dim>
					<dim>11</dim>
					<dim>12</dim>
				</port>
			</input>
			<output>
				<port id="1">
					<dim>1</dim>
					<dim>792</dim>
				</port>
			</output>
		</layer>
		<layer id="175" name="L0102_Conv2d-conf_seq.conv7_2_mbox_conf.conv7_2_mbox_conf" precision="FP32" type="Convolution">
			<data dilations="1,1" group="1" kernel="3,3" output="12" pads_begin="1,1" pads_end="1,1" strides="1,1"/>
			<input>
				<port id="0">
					<dim>1</dim>
					<dim>200</dim>
					<dim>3</dim>
					<dim>6</dim>
				</port>
			</input>
			<output>
				<port id="3">
					<dim>1</dim>
					<dim>12</dim>
					<dim>3</dim>
					<dim>6</dim>
				</port>
			</output>
			<blobs>
				<weights offset="1972600" size="86400"/>
				<biases offset="2059000" size="48"/>
			</blobs>
		</layer>
		<layer id="176" name="loc_seq.conv7_2_mbox_conf_perm" precision="FP32" type="Permute">
			<data order="0,2,3,1"/>
			<input>
				<port id="0">
					<dim>1</dim>
					<dim>12</dim>
					<dim>3</dim>
					<dim>6</dim>
				</port>
			</input>
			<output>
				<port id="1">
					<dim>1</dim>
					<dim>3</dim>
					<dim>6</dim>
					<dim>12</dim>
				</port>
			</output>
		</layer>
		<layer id="177" name="conv7_2_mbox_conf_flat" precision="FP32" type="Flatten">
			<data axis="1" end_axis="-1"/>
			<input>
				<port id="0">
					<dim>1</dim>
					<dim>3</dim>
					<dim>6</dim>
					<dim>12</dim>
				</port>
			</input>
			<output>
				<port id="1">
					<dim>1</dim>
					<dim>216</dim>
				</port>
			</output>
		</layer>
		<layer id="178" name="L0103_Conv2d-conf_seq.conv8_2_mbox_conf.conv8_2_mbox_conf" precision="FP32" type="Convolution">
			<data dilations="1,1" group="1" kernel="3,3" output="8" pads_begin="1,1" pads_end="1,1" strides="1,1"/>
			<input>
				<port id="0">
					<dim>1</dim>
					<dim>224</dim>
					<dim>2</dim>
					<dim>3</dim>
				</port>
			</input>
			<output>
				<port id="3">
					<dim>1</dim>
					<dim>8</dim>
					<dim>2</dim>
					<dim>3</dim>
				</port>
			</output>
			<blobs>
				<weights offset="2059048" size="64512"/>
				<biases offset="2123560" size="32"/>
			</blobs>
		</layer>
		<layer id="179" name="conv8_2_mbox_conf_perm" precision="FP32" type="Permute">
			<data order="0,2,3,1"/>
			<input>
				<port id="0">
					<dim>1</dim>
					<dim>8</dim>
					<dim>2</dim>
					<dim>3</dim>
				</port>
			</input>
			<output>
				<port id="1">
					<dim>1</dim>
					<dim>2</dim>
					<dim>3</dim>
					<dim>8</dim>
				</port>
			</output>
		</layer>
		<layer id="180" name="conv8_2_mbox_conf_flat" precision="FP32" type="Flatten">
			<data axis="1" end_axis="-1"/>
			<input>
				<port id="0">
					<dim>1</dim>
					<dim>2</dim>
					<dim>3</dim>
					<dim>8</dim>
				</port>
			</input>
			<output>
				<port id="1">
					<dim>1</dim>
					<dim>48</dim>
				</port>
			</output>
		</layer>
		<layer id="181" name="L0104_Conv2d-conf_seq.conv9_2_mbox_conf.conv9_2_mbox_conf" precision="FP32" type="Convolution">
			<data dilations="1,1" group="1" kernel="3,3" output="8" pads_begin="1,1" pads_end="1,1" strides="1,1"/>
			<input>
				<port id="0">
					<dim>1</dim>
					<dim>128</dim>
					<dim>1</dim>
					<dim>2</dim>
				</port>
			</input>
			<output>
				<port id="3">
					<dim>1</dim>
					<dim>8</dim>
					<dim>1</dim>
					<dim>2</dim>
				</port>
			</output>
			<blobs>
				<weights offset="2123592" size="36864"/>
				<biases offset="2160456" size="32"/>
			</blobs>
		</layer>
		<layer id="182" name="conv9_2_mbox_conf_perm" precision="FP32" type="Permute">
			<data order="0,2,3,1"/>
			<input>
				<port id="0">
					<dim>1</dim>
					<dim>8</dim>
					<dim>1</dim>
					<dim>2</dim>
				</port>
			</input>
			<output>
				<port id="1">
					<dim>1</dim>
					<dim>1</dim>
					<dim>2</dim>
					<dim>8</dim>
				</port>
			</output>
		</layer>
		<layer id="183" name="conv9_2_mbox_conf_flat" precision="FP32" type="Flatten">
			<data axis="1" end_axis="-1"/>
			<input>
				<port id="0">
					<dim>1</dim>
					<dim>1</dim>
					<dim>2</dim>
					<dim>8</dim>
				</port>
			</input>
			<output>
				<port id="1">
					<dim>1</dim>
					<dim>16</dim>
				</port>
			</output>
		</layer>
		<layer id="184" name="mbox_conf" precision="FP32" type="Concat">
			<data axis="1"/>
			<input>
				<port id="0">
					<dim>1</dim>
					<dim>8064</dim>
				</port>
				<port id="1">
					<dim>1</dim>
					<dim>8064</dim>
				</port>
				<port id="2">
					<dim>1</dim>
					<dim>3024</dim>
				</port>
				<port id="3">
					<dim>1</dim>
					<dim>3024</dim>
				</port>
				<port id="4">
					<dim>1</dim>
					<dim>792</dim>
				</port>
				<port id="5">
					<dim>1</dim>
					<dim>216</dim>
				</port>
				<port id="6">
					<dim>1</dim>
					<dim>48</dim>
				</port>
				<port id="7">
					<dim>1</dim>
					<dim>16</dim>
				</port>
			</input>
			<output>
				<port id="8">
					<dim>1</dim>
					<dim>23248</dim>
				</port>
			</output>
		</layer>
		<layer id="185" name="mbox_conf_reshape/DimData_const" precision="FP32" type="Const">
			<output>
				<port id="1">
					<dim>3</dim>
				</port>
			</output>
			<blobs>
				<custom offset="2160488" size="12"/>
			</blobs>
		</layer>
		<layer id="186" name="mbox_conf_reshape" precision="FP32" type="Reshape">
			<data axis="0" num_axes="-1"/>
			<input>
				<port id="0">
					<dim>1</dim>
					<dim>23248</dim>
				</port>
				<port id="1">
					<dim>3</dim>
				</port>
			</input>
			<output>
				<port id="2">
					<dim>1</dim>
					<dim>11624</dim>
					<dim>2</dim>
				</port>
			</output>
		</layer>
		<layer id="187" name="mbox_conf_softmax" precision="FP32" type="SoftMax">
			<data axis="2"/>
			<input>
				<port id="0">
					<dim>1</dim>
					<dim>11624</dim>
					<dim>2</dim>
				</port>
			</input>
			<output>
				<port id="1">
					<dim>1</dim>
					<dim>11624</dim>
					<dim>2</dim>
				</port>
			</output>
		</layer>
		<layer id="188" name="mbox_conf_flatten" precision="FP32" type="Flatten">
			<data axis="1" end_axis="-1"/>
			<input>
				<port id="0">
					<dim>1</dim>
					<dim>11624</dim>
					<dim>2</dim>
				</port>
			</input>
			<output>
				<port id="1">
					<dim>1</dim>
					<dim>23248</dim>
				</port>
			</output>
		</layer>
		<layer id="189" name="conv4_3_0_norm_mbox_priorbox" precision="FP32" type="PriorBox">
			<data aspect_ratio="2.0" clip="0" flip="1" max_size="38.4000015259" min_size="16.0" offset="0.5" step="16.0" variance="0.10000000149011612,0.10000000149011612,0.20000000298023224,0.20000000298023224"/>
			<input>
				<port id="0">
					<dim>1</dim>
					<dim>8</dim>
					<dim>24</dim>
					<dim>42</dim>
				</port>
				<port id="1">
					<dim>1</dim>
					<dim>3</dim>
					<dim>384</dim>
					<dim>672</dim>
				</port>
			</input>
			<output>
				<port id="2">
					<dim>1</dim>
					<dim>2</dim>
					<dim>16128</dim>
				</port>
			</output>
		</layer>
		<layer id="190" name="conv4_3_norm_mbox_priorbox" precision="FP32" type="PriorBox">
			<data aspect_ratio="2.0" clip="0" flip="1" max_size="76.8000030518" min_size="38.4000015259" offset="0.5" step="16.0" variance="0.10000000149011612,0.10000000149011612,0.20000000298023224,0.20000000298023224"/>
			<input>
				<port id="0">
					<dim>1</dim>
					<dim>8</dim>
					<dim>24</dim>
					<dim>42</dim>
				</port>
				<port id="1">
					<dim>1</dim>
					<dim>3</dim>
					<dim>384</dim>
					<dim>672</dim>
				</port>
			</input>
			<output>
				<port id="2">
					<dim>1</dim>
					<dim>2</dim>
					<dim>16128</dim>
				</port>
			</output>
		</layer>
		<layer id="191" name="fc7_0_mbox_priorbox" precision="FP32" type="PriorBox">
			<data aspect_ratio="2.0,3.0" clip="0" flip="1" max_size="124.800003052" min_size="76.8000030518" offset="0.5" step="32.0" variance="0.10000000149011612,0.10000000149011612,0.20000000298023224,0.20000000298023224"/>
			<input>
				<port id="0">
					<dim>1</dim>
					<dim>12</dim>
					<dim>12</dim>
					<dim>21</dim>
				</port>
				<port id="1">
					<dim>1</dim>
					<dim>3</dim>
					<dim>384</dim>
					<dim>672</dim>
				</port>
			</input>
			<output>
				<port id="2">
					<dim>1</dim>
					<dim>2</dim>
					<dim>6048</dim>
				</port>
			</output>
		</layer>
		<layer id="192" name="fc7_mbox_priorbox" precision="FP32" type="PriorBox">
			<data aspect_ratio="2.0,3.0" clip="0" flip="1" max_size="172.800003052" min_size="124.800003052" offset="0.5" step="32.0" variance="0.10000000149011612,0.10000000149011612,0.20000000298023224,0.20000000298023224"/>
			<input>
				<port id="0">
					<dim>1</dim>
					<dim>12</dim>
					<dim>12</dim>
					<dim>21</dim>
				</port>
				<port id="1">
					<dim>1</dim>
					<dim>3</dim>
					<dim>384</dim>
					<dim>672</dim>
				</port>
			</input>
			<output>
				<port id="2">
					<dim>1</dim>
					<dim>2</dim>
					<dim>6048</dim>
				</port>
			</output>
		</layer>
		<layer id="193" name="conv6_2_mbox_priorbox" precision="FP32" type="PriorBox">
			<data aspect_ratio="2.0,3.0" clip="0" flip="1" max_size="230.399993896" min_size="172.800003052" offset="0.5" step="64.0" variance="0.10000000149011612,0.10000000149011612,0.20000000298023224,0.20000000298023224"/>
			<input>
				<port id="0">
					<dim>1</dim>
					<dim>12</dim>
					<dim>6</dim>
					<dim>11</dim>
				</port>
				<port id="1">
					<dim>1</dim>
					<dim>3</dim>
					<dim>384</dim>
					<dim>672</dim>
				</port>
			</input>
			<output>
				<port id="2">
					<dim>1</dim>
					<dim>2</dim>
					<dim>1584</dim>
				</port>
			</output>
		</layer>
		<layer id="194" name="conv7_2_mbox_priorbox" precision="FP32" type="PriorBox">
			<data aspect_ratio="2.0,3.0" clip="0" flip="1" max_size="288.0" min_size="230.399993896" offset="0.5" step="128.0" variance="0.10000000149011612,0.10000000149011612,0.20000000298023224,0.20000000298023224"/>
			<input>
				<port id="0">
					<dim>1</dim>
					<dim>12</dim>
					<dim>3</dim>
					<dim>6</dim>
				</port>
				<port id="1">
					<dim>1</dim>
					<dim>3</dim>
					<dim>384</dim>
					<dim>672</dim>
				</port>
			</input>
			<output>
				<port id="2">
					<dim>1</dim>
					<dim>2</dim>
					<dim>432</dim>
				</port>
			</output>
		</layer>
		<layer id="195" name="conv8_2_mbox_priorbox" precision="FP32" type="PriorBox">
			<data aspect_ratio="2.0" clip="0" flip="1" max_size="345.600006104" min_size="288.0" offset="0.5" variance="0.10000000149011612,0.10000000149011612,0.20000000298023224,0.20000000298023224"/>
			<input>
				<port id="0">
					<dim>1</dim>
					<dim>8</dim>
					<dim>2</dim>
					<dim>3</dim>
				</port>
				<port id="1">
					<dim>1</dim>
					<dim>3</dim>
					<dim>384</dim>
					<dim>672</dim>
				</port>
			</input>
			<output>
				<port id="2">
					<dim>1</dim>
					<dim>2</dim>
					<dim>96</dim>
				</port>
			</output>
		</layer>
		<layer id="196" name="conv9_2_mbox_priorbox" precision="FP32" type="PriorBox">
			<data aspect_ratio="2.0" clip="0" flip="1" max_size="403.200012207" min_size="345.600006104" offset="0.5" variance="0.10000000149011612,0.10000000149011612,0.20000000298023224,0.20000000298023224"/>
			<input>
				<port id="0">
					<dim>1</dim>
					<dim>8</dim>
					<dim>1</dim>
					<dim>2</dim>
				</port>
				<port id="1">
					<dim>1</dim>
					<dim>3</dim>
					<dim>384</dim>
					<dim>672</dim>
				</port>
			</input>
			<output>
				<port id="2">
					<dim>1</dim>
					<dim>2</dim>
					<dim>32</dim>
				</port>
			</output>
		</layer>
		<layer id="197" name="mbox_priorbox" precision="FP32" type="Concat">
			<data axis="2"/>
			<input>
				<port id="0">
					<dim>1</dim>
					<dim>2</dim>
					<dim>16128</dim>
				</port>
				<port id="1">
					<dim>1</dim>
					<dim>2</dim>
					<dim>16128</dim>
				</port>
				<port id="2">
					<dim>1</dim>
					<dim>2</dim>
					<dim>6048</dim>
				</port>
				<port id="3">
					<dim>1</dim>
					<dim>2</dim>
					<dim>6048</dim>
				</port>
				<port id="4">
					<dim>1</dim>
					<dim>2</dim>
					<dim>1584</dim>
				</port>
				<port id="5">
					<dim>1</dim>
					<dim>2</dim>
					<dim>432</dim>
				</port>
				<port id="6">
					<dim>1</dim>
					<dim>2</dim>
					<dim>96</dim>
				</port>
				<port id="7">
					<dim>1</dim>
					<dim>2</dim>
					<dim>32</dim>
				</port>
			</input>
			<output>
				<port id="8">
					<dim>1</dim>
					<dim>2</dim>
					<dim>46496</dim>
				</port>
			</output>
		</layer>
		<layer id="198" name="detection_out" precision="FP32" type="DetectionOutput">
			<data background_label_id="0" code_type="caffe.PriorBoxParameter.CENTER_SIZE" confidence_threshold="0.009999999776482582" eta="1.0" input_height="1" input_width="1" keep_top_k="200" nms_threshold="0.44999998807907104" normalized="1" num_classes="2" share_location="1" top_k="400" variance_encoded_in_target="0" visualize="False"/>
			<input>
				<port id="0">
					<dim>1</dim>
					<dim>46496</dim>
				</port>
				<port id="1">
					<dim>1</dim>
					<dim>23248</dim>
				</port>
				<port id="2">
					<dim>1</dim>
					<dim>2</dim>
					<dim>46496</dim>
				</port>
			</input>
			<output>
				<port id="3">
					<dim>1</dim>
					<dim>1</dim>
					<dim>200</dim>
					<dim>7</dim>
				</port>
			</output>
		</layer>
	</layers>
	<edges>
		<edge from-layer="0" from-port="0" to-layer="1" to-port="0"/>
		<edge from-layer="1" from-port="3" to-layer="2" to-port="0"/>
		<edge from-layer="2" from-port="3" to-layer="3" to-port="0"/>
		<edge from-layer="3" from-port="1" to-layer="4" to-port="0"/>
		<edge from-layer="4" from-port="3" to-layer="5" to-port="0"/>
		<edge from-layer="5" from-port="1" to-layer="6" to-port="0"/>
		<edge from-layer="6" from-port="3" to-layer="7" to-port="0"/>
		<edge from-layer="7" from-port="1" to-layer="8" to-port="0"/>
		<edge from-layer="8" from-port="3" to-layer="13" to-port="0"/>
		<edge from-layer="9" from-port="1" to-layer="13" to-port="1"/>
		<edge from-layer="10" from-port="1" to-layer="13" to-port="2"/>
		<edge from-layer="11" from-port="1" to-layer="13" to-port="3"/>
		<edge from-layer="12" from-port="1" to-layer="13" to-port="4"/>
		<edge from-layer="13" from-port="5" to-layer="14" to-port="0"/>
		<edge from-layer="14" from-port="2" to-layer="15" to-port="0"/>
		<edge from-layer="15" from-port="3" to-layer="16" to-port="0"/>
		<edge from-layer="16" from-port="1" to-layer="17" to-port="0"/>
		<edge from-layer="17" from-port="3" to-layer="22" to-port="0"/>
		<edge from-layer="18" from-port="1" to-layer="22" to-port="1"/>
		<edge from-layer="19" from-port="1" to-layer="22" to-port="2"/>
		<edge from-layer="20" from-port="1" to-layer="22" to-port="3"/>
		<edge from-layer="21" from-port="1" to-layer="22" to-port="4"/>
		<edge from-layer="22" from-port="5" to-layer="23" to-port="0"/>
		<edge from-layer="23" from-port="2" to-layer="24" to-port="0"/>
		<edge from-layer="24" from-port="3" to-layer="25" to-port="0"/>
		<edge from-layer="25" from-port="1" to-layer="26" to-port="0"/>
		<edge from-layer="26" from-port="3" to-layer="31" to-port="0"/>
		<edge from-layer="27" from-port="1" to-layer="31" to-port="1"/>
		<edge from-layer="28" from-port="1" to-layer="31" to-port="2"/>
		<edge from-layer="29" from-port="1" to-layer="31" to-port="3"/>
		<edge from-layer="30" from-port="1" to-layer="31" to-port="4"/>
		<edge from-layer="31" from-port="5" to-layer="32" to-port="0"/>
		<edge from-layer="32" from-port="2" to-layer="33" to-port="0"/>
		<edge from-layer="33" from-port="3" to-layer="34" to-port="0"/>
		<edge from-layer="34" from-port="1" to-layer="35" to-port="0"/>
		<edge from-layer="35" from-port="3" to-layer="40" to-port="0"/>
		<edge from-layer="36" from-port="1" to-layer="40" to-port="1"/>
		<edge from-layer="37" from-port="1" to-layer="40" to-port="2"/>
		<edge from-layer="38" from-port="1" to-layer="40" to-port="3"/>
		<edge from-layer="39" from-port="1" to-layer="40" to-port="4"/>
		<edge from-layer="40" from-port="5" to-layer="41" to-port="0"/>
		<edge from-layer="41" from-port="2" to-layer="42" to-port="0"/>
		<edge from-layer="42" from-port="3" to-layer="43" to-port="0"/>
		<edge from-layer="43" from-port="1" to-layer="44" to-port="0"/>
		<edge from-layer="44" from-port="3" to-layer="49" to-port="0"/>
		<edge from-layer="45" from-port="1" to-layer="49" to-port="1"/>
		<edge from-layer="46" from-port="1" to-layer="49" to-port="2"/>
		<edge from-layer="47" from-port="1" to-layer="49" to-port="3"/>
		<edge from-layer="48" from-port="1" to-layer="49" to-port="4"/>
		<edge from-layer="49" from-port="5" to-layer="50" to-port="0"/>
		<edge from-layer="50" from-port="2" to-layer="51" to-port="0"/>
		<edge from-layer="51" from-port="3" to-layer="52" to-port="0"/>
		<edge from-layer="52" from-port="1" to-layer="53" to-port="0"/>
		<edge from-layer="53" from-port="3" to-layer="58" to-port="0"/>
		<edge from-layer="54" from-port="1" to-layer="58" to-port="1"/>
		<edge from-layer="55" from-port="1" to-layer="58" to-port="2"/>
		<edge from-layer="56" from-port="1" to-layer="58" to-port="3"/>
		<edge from-layer="57" from-port="1" to-layer="58" to-port="4"/>
		<edge from-layer="58" from-port="5" to-layer="59" to-port="0"/>
		<edge from-layer="59" from-port="2" to-layer="60" to-port="0"/>
		<edge from-layer="60" from-port="3" to-layer="61" to-port="0"/>
		<edge from-layer="61" from-port="1" to-layer="62" to-port="0"/>
		<edge from-layer="62" from-port="3" to-layer="67" to-port="0"/>
		<edge from-layer="63" from-port="1" to-layer="67" to-port="1"/>
		<edge from-layer="64" from-port="1" to-layer="67" to-port="2"/>
		<edge from-layer="65" from-port="1" to-layer="67" to-port="3"/>
		<edge from-layer="66" from-port="1" to-layer="67" to-port="4"/>
		<edge from-layer="67" from-port="5" to-layer="68" to-port="0"/>
		<edge from-layer="68" from-port="2" to-layer="69" to-port="0"/>
		<edge from-layer="69" from-port="3" to-layer="70" to-port="0"/>
		<edge from-layer="70" from-port="1" to-layer="71" to-port="0"/>
		<edge from-layer="71" from-port="3" to-layer="76" to-port="0"/>
		<edge from-layer="72" from-port="1" to-layer="76" to-port="1"/>
		<edge from-layer="73" from-port="1" to-layer="76" to-port="2"/>
		<edge from-layer="74" from-port="1" to-layer="76" to-port="3"/>
		<edge from-layer="75" from-port="1" to-layer="76" to-port="4"/>
		<edge from-layer="76" from-port="5" to-layer="77" to-port="0"/>
		<edge from-layer="77" from-port="2" to-layer="78" to-port="0"/>
		<edge from-layer="78" from-port="3" to-layer="79" to-port="0"/>
		<edge from-layer="79" from-port="1" to-layer="80" to-port="0"/>
		<edge from-layer="80" from-port="3" to-layer="85" to-port="0"/>
		<edge from-layer="81" from-port="1" to-layer="85" to-port="1"/>
		<edge from-layer="82" from-port="1" to-layer="85" to-port="2"/>
		<edge from-layer="83" from-port="1" to-layer="85" to-port="3"/>
		<edge from-layer="84" from-port="1" to-layer="85" to-port="4"/>
		<edge from-layer="85" from-port="5" to-layer="86" to-port="0"/>
		<edge from-layer="86" from-port="2" to-layer="87" to-port="0"/>
		<edge from-layer="87" from-port="3" to-layer="88" to-port="0"/>
		<edge from-layer="88" from-port="1" to-layer="89" to-port="0"/>
		<edge from-layer="89" from-port="3" to-layer="94" to-port="0"/>
		<edge from-layer="90" from-port="1" to-layer="94" to-port="1"/>
		<edge from-layer="91" from-port="1" to-layer="94" to-port="2"/>
		<edge from-layer="92" from-port="1" to-layer="94" to-port="3"/>
		<edge from-layer="93" from-port="1" to-layer="94" to-port="4"/>
		<edge from-layer="94" from-port="5" to-layer="95" to-port="0"/>
		<edge from-layer="95" from-port="2" to-layer="96" to-port="0"/>
		<edge from-layer="96" from-port="3" to-layer="97" to-port="0"/>
		<edge from-layer="97" from-port="1" to-layer="98" to-port="0"/>
		<edge from-layer="98" from-port="3" to-layer="99" to-port="0"/>
		<edge from-layer="99" from-port="1" to-layer="100" to-port="0"/>
		<edge from-layer="97" from-port="1" to-layer="101" to-port="0"/>
		<edge from-layer="101" from-port="3" to-layer="102" to-port="0"/>
		<edge from-layer="102" from-port="1" to-layer="103" to-port="0"/>
		<edge from-layer="97" from-port="1" to-layer="104" to-port="0"/>
		<edge from-layer="104" from-port="3" to-layer="109" to-port="0"/>
		<edge from-layer="105" from-port="1" to-layer="109" to-port="1"/>
		<edge from-layer="106" from-port="1" to-layer="109" to-port="2"/>
		<edge from-layer="107" from-port="1" to-layer="109" to-port="3"/>
		<edge from-layer="108" from-port="1" to-layer="109" to-port="4"/>
		<edge from-layer="109" from-port="5" to-layer="110" to-port="0"/>
		<edge from-layer="110" from-port="2" to-layer="111" to-port="0"/>
		<edge from-layer="111" from-port="3" to-layer="112" to-port="0"/>
		<edge from-layer="112" from-port="1" to-layer="113" to-port="0"/>
		<edge from-layer="113" from-port="3" to-layer="114" to-port="0"/>
		<edge from-layer="114" from-port="1" to-layer="115" to-port="0"/>
		<edge from-layer="115" from-port="3" to-layer="116" to-port="0"/>
		<edge from-layer="116" from-port="1" to-layer="117" to-port="0"/>
		<edge from-layer="117" from-port="3" to-layer="118" to-port="0"/>
		<edge from-layer="118" from-port="1" to-layer="119" to-port="0"/>
		<edge from-layer="116" from-port="1" to-layer="120" to-port="0"/>
		<edge from-layer="120" from-port="3" to-layer="121" to-port="0"/>
		<edge from-layer="121" from-port="1" to-layer="122" to-port="0"/>
		<edge from-layer="116" from-port="1" to-layer="123" to-port="0"/>
		<edge from-layer="123" from-port="3" to-layer="124" to-port="0"/>
		<edge from-layer="124" from-port="1" to-layer="125" to-port="0"/>
		<edge from-layer="125" from-port="3" to-layer="126" to-port="0"/>
		<edge from-layer="126" from-port="1" to-layer="127" to-port="0"/>
		<edge from-layer="127" from-port="3" to-layer="128" to-port="0"/>
		<edge from-layer="128" from-port="1" to-layer="129" to-port="0"/>
		<edge from-layer="129" from-port="3" to-layer="130" to-port="0"/>
		<edge from-layer="130" from-port="1" to-layer="131" to-port="0"/>
		<edge from-layer="128" from-port="1" to-layer="132" to-port="0"/>
		<edge from-layer="132" from-port="3" to-layer="133" to-port="0"/>
		<edge from-layer="133" from-port="1" to-layer="134" to-port="0"/>
		<edge from-layer="134" from-port="3" to-layer="135" to-port="0"/>
		<edge from-layer="135" from-port="1" to-layer="136" to-port="0"/>
		<edge from-layer="136" from-port="3" to-layer="137" to-port="0"/>
		<edge from-layer="137" from-port="1" to-layer="138" to-port="0"/>
		<edge from-layer="138" from-port="3" to-layer="139" to-port="0"/>
		<edge from-layer="139" from-port="1" to-layer="140" to-port="0"/>
		<edge from-layer="137" from-port="1" to-layer="141" to-port="0"/>
		<edge from-layer="141" from-port="3" to-layer="142" to-port="0"/>
		<edge from-layer="142" from-port="1" to-layer="143" to-port="0"/>
		<edge from-layer="143" from-port="3" to-layer="144" to-port="0"/>
		<edge from-layer="144" from-port="1" to-layer="145" to-port="0"/>
		<edge from-layer="145" from-port="3" to-layer="146" to-port="0"/>
		<edge from-layer="146" from-port="1" to-layer="147" to-port="0"/>
		<edge from-layer="147" from-port="3" to-layer="148" to-port="0"/>
		<edge from-layer="148" from-port="1" to-layer="149" to-port="0"/>
		<edge from-layer="146" from-port="1" to-layer="150" to-port="0"/>
		<edge from-layer="150" from-port="3" to-layer="151" to-port="0"/>
		<edge from-layer="151" from-port="1" to-layer="152" to-port="0"/>
		<edge from-layer="152" from-port="3" to-layer="153" to-port="0"/>
		<edge from-layer="153" from-port="1" to-layer="154" to-port="0"/>
		<edge from-layer="154" from-port="3" to-layer="155" to-port="0"/>
		<edge from-layer="155" from-port="1" to-layer="156" to-port="0"/>
		<edge from-layer="156" from-port="3" to-layer="157" to-port="0"/>
		<edge from-layer="157" from-port="1" to-layer="158" to-port="0"/>
		<edge from-layer="100" from-port="1" to-layer="159" to-port="0"/>
		<edge from-layer="103" from-port="1" to-layer="159" to-port="1"/>
		<edge from-layer="119" from-port="1" to-layer="159" to-port="2"/>
		<edge from-layer="122" from-port="1" to-layer="159" to-port="3"/>
		<edge from-layer="131" from-port="1" to-layer="159" to-port="4"/>
		<edge from-layer="140" from-port="1" to-layer="159" to-port="5"/>
		<edge from-layer="149" from-port="1" to-layer="159" to-port="6"/>
		<edge from-layer="158" from-port="1" to-layer="159" to-port="7"/>
		<edge from-layer="97" from-port="1" to-layer="160" to-port="0"/>
		<edge from-layer="160" from-port="3" to-layer="161" to-port="0"/>
		<edge from-layer="161" from-port="1" to-layer="162" to-port="0"/>
		<edge from-layer="97" from-port="1" to-layer="163" to-port="0"/>
		<edge from-layer="163" from-port="3" to-layer="164" to-port="0"/>
		<edge from-layer="164" from-port="1" to-layer="165" to-port="0"/>
		<edge from-layer="116" from-port="1" to-layer="166" to-port="0"/>
		<edge from-layer="166" from-port="3" to-layer="167" to-port="0"/>
		<edge from-layer="167" from-port="1" to-layer="168" to-port="0"/>
		<edge from-layer="116" from-port="1" to-layer="169" to-port="0"/>
		<edge from-layer="169" from-port="3" to-layer="170" to-port="0"/>
		<edge from-layer="170" from-port="1" to-layer="171" to-port="0"/>
		<edge from-layer="128" from-port="1" to-layer="172" to-port="0"/>
		<edge from-layer="172" from-port="3" to-layer="173" to-port="0"/>
		<edge from-layer="173" from-port="1" to-layer="174" to-port="0"/>
		<edge from-layer="137" from-port="1" to-layer="175" to-port="0"/>
		<edge from-layer="175" from-port="3" to-layer="176" to-port="0"/>
		<edge from-layer="176" from-port="1" to-layer="177" to-port="0"/>
		<edge from-layer="146" from-port="1" to-layer="178" to-port="0"/>
		<edge from-layer="178" from-port="3" to-layer="179" to-port="0"/>
		<edge from-layer="179" from-port="1" to-layer="180" to-port="0"/>
		<edge from-layer="155" from-port="1" to-layer="181" to-port="0"/>
		<edge from-layer="181" from-port="3" to-layer="182" to-port="0"/>
		<edge from-layer="182" from-port="1" to-layer="183" to-port="0"/>
		<edge from-layer="162" from-port="1" to-layer="184" to-port="0"/>
		<edge from-layer="165" from-port="1" to-layer="184" to-port="1"/>
		<edge from-layer="168" from-port="1" to-layer="184" to-port="2"/>
		<edge from-layer="171" from-port="1" to-layer="184" to-port="3"/>
		<edge from-layer="174" from-port="1" to-layer="184" to-port="4"/>
		<edge from-layer="177" from-port="1" to-layer="184" to-port="5"/>
		<edge from-layer="180" from-port="1" to-layer="184" to-port="6"/>
		<edge from-layer="183" from-port="1" to-layer="184" to-port="7"/>
		<edge from-layer="184" from-port="8" to-layer="186" to-port="0"/>
		<edge from-layer="185" from-port="1" to-layer="186" to-port="1"/>
		<edge from-layer="186" from-port="2" to-layer="187" to-port="0"/>
		<edge from-layer="187" from-port="1" to-layer="188" to-port="0"/>
		<edge from-layer="160" from-port="3" to-layer="189" to-port="0"/>
		<edge from-layer="1" from-port="3" to-layer="189" to-port="1"/>
		<edge from-layer="163" from-port="3" to-layer="190" to-port="0"/>
		<edge from-layer="1" from-port="3" to-layer="190" to-port="1"/>
		<edge from-layer="166" from-port="3" to-layer="191" to-port="0"/>
		<edge from-layer="1" from-port="3" to-layer="191" to-port="1"/>
		<edge from-layer="169" from-port="3" to-layer="192" to-port="0"/>
		<edge from-layer="1" from-port="3" to-layer="192" to-port="1"/>
		<edge from-layer="172" from-port="3" to-layer="193" to-port="0"/>
		<edge from-layer="1" from-port="3" to-layer="193" to-port="1"/>
		<edge from-layer="175" from-port="3" to-layer="194" to-port="0"/>
		<edge from-layer="1" from-port="3" to-layer="194" to-port="1"/>
		<edge from-layer="178" from-port="3" to-layer="195" to-port="0"/>
		<edge from-layer="1" from-port="3" to-layer="195" to-port="1"/>
		<edge from-layer="181" from-port="3" to-layer="196" to-port="0"/>
		<edge from-layer="1" from-port="3" to-layer="196" to-port="1"/>
		<edge from-layer="189" from-port="2" to-layer="197" to-port="0"/>
		<edge from-layer="190" from-port="2" to-layer="197" to-port="1"/>
		<edge from-layer="191" from-port="2" to-layer="197" to-port="2"/>
		<edge from-layer="192" from-port="2" to-layer="197" to-port="3"/>
		<edge from-layer="193" from-port="2" to-layer="197" to-port="4"/>
		<edge from-layer="194" from-port="2" to-layer="197" to-port="5"/>
		<edge from-layer="195" from-port="2" to-layer="197" to-port="6"/>
		<edge from-layer="196" from-port="2" to-layer="197" to-port="7"/>
		<edge from-layer="159" from-port="8" to-layer="198" to-port="0"/>
		<edge from-layer="188" from-port="1" to-layer="198" to-port="1"/>
		<edge from-layer="197" from-port="8" to-layer="198" to-port="2"/>
	</edges>
	<meta_data>
		<MO_version value="unknown version"/>
		<cli_parameters>
			<data_type value="float"/>
			<disable_fusing value="False"/>
			<disable_gfusing value="False"/>
			<disable_omitting_optional value="False"/>
			<disable_resnet_optimization value="False"/>
			<enable_concat_optimization value="False"/>
			<enable_flattening_nested_params value="False"/>
			<extensions value="DIR"/>
			<framework value="caffe"/>
			<generate_deprecated_IR_V2 value="False"/>
			<input_model value="DIR/detection_1000__caffe_withhead_nobinparam.caffemodel"/>
			<input_proto value="DIR/detection_1000__caffe_withhead_nobinparam.prototxt"/>
			<k value="DIR/CustomLayersMapping.xml"/>
			<keep_shape_ops value="False"/>
			<log_level value="ERROR"/>
			<mean_scale_values value="[(array([  89.,  107.,  102.]), None)]"/>
			<mean_values value="[89,107,102]"/>
			<move_to_preprocess value="False"/>
			<output_dir value="DIR"/>
			<reverse_input_channels value="False"/>
			<scale value="76.923076923"/>
			<scale_values value="()"/>
			<silent value="False"/>
			<version value="False"/>
			<unset unset_cli_parameters="batch, finegrain_fusing, freeze_placeholder_with_value, input, input_shape, mean_file, mean_file_offsets, model_name, output, placeholder_shapes"/>
		</cli_parameters>
	</meta_data>
</net>
